a2c_agent_checkpoint.pth (torch, 67711 bytes, 21 tensors)

lstm_cell.weight_ih f4 [128, 2]
0.03442094 0.03270031 0.05490815 0.12114849 0.23276192 0.015398422 0.2908839 0.28542212
0.26803526 0.28527156 0.04484312 0.15699723 0.22064207 0.1604669 0.06704234 0.09236684
0.054171015 0.29505712 0.1640113 0.02860045 0.23467995 0.1252357 0.22118875 0.13957644
0.16941081 0.29259896 0.13666633 0.3382379 0.031793647 0.069221236 0.20350967 0.025905872
0.19635116 0.2551655 0.15745242 0.2740423 -0.040555824 -0.002948172 -0.04437297 0.08978989
0.091285706 0.13087866 0.056844234 0.20186202 -0.015731366 0.00068178016 0.040026296 0.10457894
0.1531344 0.00913881 0.10613309 0.06547082 0.23919193 0.19305585 0.11949116 0.07814517
-0.042862326 0.22631124 0.036764037 0.30910593 0.25574803 0.17649966 0.19872689 0.3293688
-0.0015600686 0.064851336 0.013644952 0.13003185 0.2384073 0.044662174 0.0661676 0.01279692
0.1637084 0.08654414 0.17227153 0.15695721 -0.066759445 0.25412515 0.1671898 0.20438628
0.11697108 0.1314408 -0.0075777136 0.09347938 0.06297849 -0.022105448 -0.00095570413 -0.11560694
0.12392521 0.050979655 0.18209894 0.0066581606 0.116305746 0.06467829 0.07692642 0.23846413
-0.051345874 0.11067252 0.19088261 0.23314473 0.15201373 0.25749794 0.07140644 0.13230853
0.2114509 0.04865455 0.1239806 0.20534672 -0.061851036 -0.013805704 0.20040794 0.18050885
-0.058197904 0.054932937 0.25237396 -0.04694626 -0.05689444 0.20087452 0.2557848 0.080059044
-0.05093952 0.087659284 0.09209085 0.21860197 -0.03812421 0.14973292 0.025675403 0.050134037
0.20089623 0.22952218 -0.14720458 -0.22168332 -0.252219 -0.24673238 0.25373796 0.161974
0.1501341 0.27816334 0.043001402 0.06863411 -0.00525267 -0.067024656 -0.09907401 -0.06727104
-0.22224213 -0.0874444 0.2216169 0.10341457 -0.1514833 -0.14177285 0.24521211 0.16258043
-0.056864537 0.14238852 0.20011492 0.08716223 -0.027687296 0.11310544 -0.14956418 -0.1779175
0.033818096 -0.0962402 -0.006060739 -0.030846672 -0.020323148 0.077085465 0.008222718 0.025541803
0.15237297 0.045680188 -0.014366283 -0.17345582 -0.23470302 -0.15595034 -0.015621355 -0.18552716
-0.23182094 0.025728308 -0.047940146 -0.015309245 0.20920025 0.1390773 0.0031506917 0.05426966
0.030938791 -0.11132025 0.050228786 -0.14356573 -0.012753556 0.09128955 0.24242856 0.15213668
0.22947489 0.10874194 0.2980413 0.06019296 0.12917715 0.20402883 -0.01616442 0.08951691
0.29507786 0.112035096 0.18640184 0.23856829 0.266743 0.0678219 0.04397927 0.32628328
0.04136923 0.12192736 0.30365524 0.0504106 0.21172735 0.1603907 0.029649947 0.19435966
0.25082162 0.12996168 0.25076908 0.06463971 -0.015254594 0.18137851 0.06864517 0.33644265
0.2730232 -0.00022287012 0.20414989 0.28819147 0.020625543 0.2772318 0.10146726 0.29826757
0.23635936 0.26323774 0.03545518 0.19006959 0.113128714 0.0019680045 0.121415265 0.003938318
0.17159016 0.15208249 0.24346666 0.13222115 0.051957645 0.04845088 0.08053205 0.06750903
0.2649725 0.29401177 0.085002996 0.13837636 0.022565287 0.23832798 -0.008067201 0.2305856
00000000: f9fc 0c3d c3f0 053d 5ee7 603d b31c f83d
00000010: 2459 6e3e aa49 7c3c bcee 943e d922 923e
00000020: eb3b 893e 1d0f 923e 6bad 373d e2c3 203e
00000030: ffef 613e 6f51 243e 7f4d 893d d32a bd3d
00000040: 6de2 5d3d ba11 973e 94f2 273e 7e4b ea3c
00000050: f14f 703e ca3d 003e 4e7f 623e 20ed 0e3e
00000060: 077a 2d3e 88cf 953e 42f2 0b3e 852d ad3e
00000070: 0e3a 023d ddc3 8d3d d764 503e 8d38 d43c
00000080: 4710 493e 0da5 823e 353b 213e 464f 8c3e
00000090: dd1d 26bd 1e36 41bb 6ec0 35bd c3e3 b73d
000000a0: 00f4 ba3d 0e05 063e 80d5 683d ebb4 4e3e
000000b0: 11df 80bc 7eb9 323a 9df2 233d 7c2d d63d
000000c0: 44cf 1c3e f3ba 153c 4e5c d93d 9115 863d
000000d0: bbee 743e 6fb0 453e c8b7 f43d 930a a03d
000000e0: 6890 2fbd 22be 673e e395 163d 2243 9e3e
000000f0: 68f1 823e 54bc 343e 107f 4b3e 07a3 a83e
00000100: 377b ccba c7d0 843d 148f 5f3c 1227 053e
00000110: 0b21 743e afef 363d e182 873d 2caa 513c
00000120: 2da3 273e 0e3e b13d f367 303e 64b9 203e
00000130: 2db9 88bd b11c 823e ce33 2b3e a34a 513e
00000140: 898e ef3d 6b98 063e 784e f8bb 1e72 bf3d
00000150: defa 803d 7c16 b5bc 3888 7aba 55c3 ecbd
00000160: 80cc fd3d 0bd0 503d 2578 3a3e b32c da3b
00000170: b531 ee3d 0d76 843d 998b 9d3d f12f 743e
00000180: 0d50 52bd 46a8 e23d bb76 433e 7ebd 6e3e
00000190: 7da9 1b3e c5d6 833e 8a3d 923d e37b 073e
000001a0: 9686 583e fe49 473d 8ae9 fd3d 6946 523e
000001b0: 8357 7dbd 5231 62bc bd37 4d3e 50d7 383e
000001c0: ed60 6ebd 5c01 613d 2937 813e b94a 40bd
000001d0: 250a 69bd 0db2 4d3e 3af6 823e fff5 a33d
000001e0: f5a5 50bd b686 b33d 219a bc3d 32d9 5f3e
000001f0: 2228 1cbd 9653 193e 3955 d23c 5959 4d3d
00000200: beb7 4d3e dd07 6b3e ccbc 16be f400 63be
00000210: d922 81be 6aa7 7cbe f1e9 813e 83dc 253e
00000220: c1bc 193e 6d6b 8e3e 3d22 303d 0a90 8c3d
00000230: 971e acbb 3944 89bd 51e7 cabd 66c5 89bd
00000240: 7193 63be 0d16 b3bd 8aef 623e 05cb d33d
00000250: 701e 1bbe e72c 11be e218 7b3e 7c7b 263e
00000260: caea 68bd 4cce 113e edea 4c3e 1c82 b23d
00000270: 78d0 e2bc d3a3 e73d 5a27 19be 0130 36be
00000280: d884 0a3d 9519 c5bd 2a99 c6bb 29b2 fcbc
00000290: bb7c a6bc fcde 9d3d 94b8 063c 0b3d d13c
000002a0: a907 1c3e 261b 3b3d 8f60 6bbc 679e 31be
000002b0: fd55 70be 72b1 1fbe b6f0 7fbc d5fa 3dbe
000002c0: 7862 6dbe 2cc4 d23c e35c 44bd a1d3 7abc
000002d0: 9738 563e 486a 0e3e d67b 4e3b dd49 5e3d
000002e0: 5973 fd3c dffb e3bd b3bc 4d3d e502 13be
000002f0: 4af4 50bc 04f6 ba3d 313f 783e b8c9 1b3e
00000300: 77fb 6a3e 18b4 de3d df98 983e e58c 763d
00000310: 0447 043e efec 503e 3f6b 84bc a454 b73d
00000320: 7214 973e a872 e53d 20e0 3e3e 3f4b 743e
00000330: 8a92 883e 35e6 8a3d 9b23 343d 9a0e a73e
00000340: c872 293d 0db5 f93d b378 9b3e 587b 4e3d
00000350: 0ecf 583e 763d 243e 72e4 f23c 3806 473e
00000360: b16b 803e ad14 053e ce64 803e d361 843d
00000370: 68ee 79bc 4abb 393e d795 8c3d 3642 ac3e
00000380: b2c9 8b3e 3eb2 69b9 ab0c 513e d58d 933e
00000390: e6f6 a83c 54f1 8d3e 11ce cf3d 87b6 983e
000003a0: 3008 723e 19c7 863e 7339 113d 9aa1 423e
000003b0: 07b0 e73d a3f9 003b 91a8 f83d 020d 813b
000003c0: 55b5 2f3e 83bb 1b3e 534f 793e fb64 073e
000003d0: 8ad1 543d 6e74 463d fded a43d 2d42 8a3d
000003e0: 7aaa 873e b688 963e 0d16 ae3d 88b2 0d3e
000003f0: d6da b83c 400c 743e 4b2c 04bc a21e 6c3e

lstm_cell.weight_hh f4 [128, 32]
0.0108854715 -0.048486162 -0.16627994 0.14916196 0.071718894 0.08511566 0.17961664 -0.036177427
0.018969363 0.25644967 -0.09769477 -0.06678544 0.29476964 0.13652916 0.26954278 -0.22104543
-0.21016511 0.020321961 0.10406994 0.08544385 0.15807231 -0.15427396 0.060477797 -0.11304153
-0.0227868 0.22428578 0.12918831 -0.26996154 -0.18556474 -0.2464214 -0.0057703247 0.021646572
0.047424026 -0.021438055 -0.06772945 0.17348734 0.20829035 0.111231506 0.23892947 -0.36447904
-0.050682437 0.22123756 0.045323167 -0.15039954 0.05728288 0.16578756 0.10372196 -0.13056271
-0.18035519 -0.042974442 0.20812508 -0.0059594545 0.29372674 -0.117188804 -0.09979938 -0.25371778
-0.14890301 0.29447898 0.22231454 -0.09021964 -0.19479515 -0.26389077 0.17556332 -0.047725417
0.07679188 -0.14548017 -0.031041116 0.00092944724 0.023814311 0.0014405344 0.0002616444 -0.26689184
-0.12791522 0.33282936 -0.007435723 0.083821766 0.14144236 -0.014644698 0.13783044 -0.13264282
0.065340556 0.033863496 0.19837002 0.065166876 0.12766118 -0.2370384 0.06699715 0.029120728
-0.0055433065 0.07569822 -0.011561762 -0.23034918 -0.27101898 -0.08607767 0.22023569 0.07447
-0.0068793823 -0.0128396535 0.031071993 0.13779868 0.23133825 -0.039105847 -0.04947839 -0.35604158
-0.041900594 0.13740727 -0.11746881 -0.04932006 -0.060319632 0.010590227 0.07071931 -0.07153033
-0.124664985 -0.042997546 0.039569613 -0.04985692 0.15229388 -0.35449 -0.19088858 -0.025200088
-0.273357 0.006329489 0.16556267 -0.14774111 -0.34182236 0.009777695 0.12966722 0.097000204
0.025713136 0.025282895 -0.01573898 0.089192346 0.16097188 0.25200373 0.02765113 -0.22496617
-0.30779848 0.12142072 -0.27922595 -0.13210471 -0.0128382305 0.10953638 0.07351381 -0.20763484
-0.19804314 0.0496629 -0.065599516 0.1957555 0.07078315 -0.33525208 -0.17080918 -0.018326707
-0.29188487 -0.04843725 0.2658801 -0.09686405 -0.04459641 -0.10469855 0.14395444 0.05351684
0.11680142 -0.16249655 -0.17558374 -0.04654321 0.12908371 0.038575225 -0.07451485 -0.29823756
-0.08703694 0.23638448 -0.19062364 0.19979584 0.1545511 0.036747534 0.13443714 -0.01539879
-0.2579908 -0.13593772 0.3399961 0.18126734 0.097607784 -0.12840505 -0.10042387 -0.10744121
-0.1189721 0.051934954 0.25099966 -0.004019361 -0.43801466 0.052807946 -0.039344426 0.08384193
0.07139236 -0.17850451 -0.09040051 0.24710765 0.238702 0.059688974 0.23259956 -0.13117118
-0.1402645 0.06653822 -0.14325884 0.041026473 0.095850244 0.017248878 0.24206607 0.018369656
0.062705256 0.024691308 0.25797766 0.19076966 0.020912895 -0.35755444 -0.086281165 -0.095658176
-0.084891446 0.2740251 0.005019105 -0.023082089 -0.18009265 -0.034257665 -0.0119737 -0.057810243
-0.0017570268 -0.00031675852 -0.16622694 0.008182216 0.120634615 0.03187164 0.23947231 -0.26334703
-0.04476859 0.02357756 0.017571839 -0.041675467 0.34439346 0.008993221 0.13759114 0.022127837
-0.26159054 -0.0872323 0.03370315 0.12615308 0.16548645 -0.21330942 -0.052034654 -0.14940326
-0.18722586 0.24300285 0.058922455 -0.093218416 -0.14297217 -0.18904202 0.024707844 -0.03084638
00000000: fa58 323c 6d99 46bd 4a45 2abe eabd 183e
00000010: 5be1 923d 1f51 ae3d 6ded 373e c82e 14bd
00000020: a365 9b3c 5f4d 833e 3214 c8bd cec6 88bd
00000030: 0cec 963e 4dce 0b3e 8301 8a3e bc59 62be
00000040: 8635 57be 3e7a a63c 9f22 d53d 2ffd ae3d
00000050: b5dd 213e fef9 1dbe 91b7 773d 5182 e7bd
00000060: 62ab babc 2cab 653e f149 043e 6638 8abe
00000070: af04 3ebe e455 7cbe fe14 bdbb 2754 b13c
00000080: b23f 423d dc9e afbc bdb5 8abd aaa6 313e
00000090: 114a 553e 58cd e33d eda9 743e ff9c babe
000000a0: 6398 4fbd 198c 623e c9a4 393d 5602 1abe
000000b0: 74a1 6a3d 37c4 293e 2e6c d43d 3bb2 05be
000000c0: 08af 38be f805 30bd be1e 553e 8747 c3bb
000000d0: 5a63 963e af00 f0bd 9e63 ccbd 4ce7 81be
000000e0: 087a 18be f3c5 963e 6ca6 633e 13c5 b8bd
000000f0: 6178 47be b11c 87be dfc6 333e ba7b 43bd
00000100: 1045 9d3d c1f8 14be f049 febc 26a6 733a
00000110: 3b16 c33c 50d0 bc3a 512d 8939 0ca6 88be
00000120: 35fc 02be 9c68 aa3e 5ea7 f3bb bfaa ab3d
00000130: 44d6 103e 51f0 6fbc 6c23 0d3e 85d3 07be
00000140: 45d1 853d 73b4 0a3d 8321 4b3e 3676 853d
00000150: 9db9 023e 32ba 72be cd35 893d 988e ee3c
00000160: a0a4 b5bb ab07 9b3d 8b6d 3dbc a8e0 6bbe
00000170: 00c3 8abe 7d49 b0bd 7785 613e ba83 983d
00000180: 716c e1bb 695d 52bc b18a fe3c 191b 0d3e
00000190: efe3 6c3e 742d 20bd daa9 4abd 154b b6be
000001a0: f59f 2bbd 7eb4 0c3e 7d93 f0bd d503 4abd
000001b0: b811 77bd a282 2d3c 49d5 903d 7e7e 92bd
000001c0: 5b50 ffbd 321e 30bd bf13 223d c536 4cbd
000001d0: edf2 1b3e b77f b5be 4c78 43be 6a70 cebc
000001e0: 73f5 8bbe 9a67 cf3b 4389 293e 7249 17be
000001f0: 5703 afbe a032 203c 7cc7 043e 0ba8 c63d
00000200: 5ba4 d23c 131e cf3c 09ef 80bc 7aaa b63d
00000210: d0d5 243e a206 813e 9f84 e23c 885d 66be
00000220: c397 9dbe 6dab f83d b4f6 8ebe 7546 07be
00000230: 7157 52bc 9c54 e03d 698e 963d 3a9e 54be
00000240: d2cb 4abe 536b 4b3d 0a59 86bd 2174 483e
00000250: c2f6 903d 29a6 abbe 9ae8 2ebe e421 96bc
00000260: ef71 95be 2366 46bd 7021 883e a960 c6bd
00000270: baaa 36bd 326c d6bd cb68 133e 7934 5b3d
00000280: 9535 ef3d 7f65 26be 39cc 33be 18a4 3ebd
00000290: 852e 043e 0e01 1e3d 3e9b 98bd 98b2 98be
000002a0: 6c40 b2bd c60e 723e d832 43be 4897 4c3e
000002b0: a542 1e3e 9584 163d e4a9 093e 354b 7cbc
000002c0: 5f17 84be 4233 0bbe f813 ae3e 259e 393e
000002d0: 97e6 c73d 9d7c 03be 08ab cdbd 230a dcbd
000002e0: a5a7 f3bd bfb9 543d 0783 803e d8b4 83bb
000002f0: 7543 e0be 254d 583d 9f27 21bd 51b5 ab3d
00000300: 2836 923d e3c9 36be e723 b9bd ca09 7d3e
00000310: 4c6e 743e 6d7c 743d 942e 6e3e bd51 06be
00000320: 7fa1 0fbe 3145 883d 72b2 12be 600b 283d
00000330: 224d c43d 854d 8d3c 2be0 773e f67b 963c
00000340: 9d6b 803d 6d45 ca3c a615 843e 1f59 433e
00000350: 8551 ab3c 6011 b7be 2eb4 b0bd 6fe8 c3bd
00000360: 91db adbd 054d 8c3e 4e77 a43b a616 bdbc
00000370: 356a 38be c451 0cbd 562d 44bc 6fca 6cbd
00000380: 094c e6ba 9c12 a6b9 6537 2abe b40e 063c
00000390: 480f f73d d68b 023d 3b38 753e 6cd5 86be
000003a0: 455f 37bd ba25 c13c d1f2 8f3c e5b3 2abd
000003b0: 5754 b03e 4e58 133c b1e4 0c3e 7045 b53c
000003c0: 32ef 85be d9a6 b2bd 500c 0a3d 462e 013e
000003d0: 4875 293e c96d 5abe 4a22 55bd 2bfd 18be
000003e0: 23b8 3fbe bdd5 783e ac58 713d 4ce9 bebd
000003f0: 4c67 12be 3b94 41be 1b68 ca3c 8cb1 fcbc

lstm_cell.bias_ih f4 [128]
0.010086065 0.21803899 0.19344725 0.33257326 0.12099899 0.022372946 0.16961607 0.2442608
0.26174203 0.30147496 0.07240559 0.1384489 0.0658741 0.23956905 0.23137376 0.2009723
0.05961511 0.23085867 0.27670547 0.20102695 0.07444731 0.050765928 0.08356503 -0.0028821654
0.23126383 0.24048181 0.29955286 0.034800503 0.16851822 0.12662907 0.21291684 0.061353322
-0.05397509 0.26191399 0.04900395 -0.047761567 0.21384755 0.2044106 0.2168774 0.04981672
0.03661575 0.28443658 -0.028710224 0.053080987 0.062311422 0.099505775 0.15731233 0.11536057
0.1302377 0.06440541 0.15777421 0.1808405 -0.027625328 0.18410502 0.21498339 0.15995929
-0.024377003 0.16996695 0.08379844 0.15200934 -0.052043933 0.099732384 0.08229087 0.05317943
0.2564311 -0.2504331 -0.30450746 0.17232366 0.31007782 0.18173265 0.26403835 -0.23360609
-0.3224352 0.1331757 -0.24590501 0.026782539 0.03397871 0.17387323 0.2562984 -0.02140864
-0.27973127 -0.24971087 0.07282902 0.22509281 0.33107638 -0.36109027 -0.28134683 -0.2999571
-0.2678795 0.2585549 0.34132066 -0.18475299 -0.05910257 -0.33757278 0.15236792 0.19034387
0.32954738 0.20133068 0.17228594 0.29654014 0.18175577 0.14008385 0.2638702 0.2649912
0.22806314 0.2088308 0.2633964 0.071904846 0.036670446 0.28205627 0.20452163 0.27788845
0.26910967 0.053637877 0.28343123 0.10434035 0.19883549 0.32872775 0.28275645 0.057395495
0.035234492 0.1540627 0.33937284 0.33891723 0.1859593 0.2623943 0.25745246 0.005029415
00000000: 0640 253c 9d45 5f3e 0917 463e 0b47 aa3e
00000010: 52ce f73d 7847 b73c d6af 2d3e 811f 7a3e
00000020: 0d03 863e ed5a 9a3e 6249 943d 8cc5 0d3e
00000030: 00e9 863d 9751 753e 3eed 6c3e afcb 4d3e
00000040: f92e 743d 3766 6c3e 57ac 8d3e 02da 4d3e
00000050: d577 983d efef 4f3d 2424 ab3d b6e2 3cbb
00000060: 6dd0 6c3e dd40 763e fe5e 993e f98a 0e3d
00000070: 0a90 2c3e 0dab 013e df06 5a3e 9f4d 7b3d
00000080: fc14 5dbd 9719 863e 5eb8 483d a2a1 43bd
00000090: dafa 5a3e 0351 513e 1c15 5e3e 9e0c 4c3d
000000a0: 66fa 153d aca1 913e b431 ebbc 736b 593d
000000b0: 433a 7f3d afc9 cb3d 7c16 213e 2a42 ec3d
000000c0: 085d 053e fce6 833d 908f 213e 412e 393e
000000d0: 834e e2bc 0786 3c3e 9b24 5c3e 5ecc 233e
000000e0: 48b2 c7bc d10b 2e3e 849e ab3d 56a8 1b3e
000000f0: 052c 55bd 7e40 cc3d 1e88 a83d add2 593d
00000100: f04a 833e c438 80be 67e8 9bbe 9d75 303e
00000110: 85c2 9e3e 2018 3a3e 0930 873e 6f36 6fbe
00000120: 3a16 a5be 365f 083e 86ce 7bbe 0e67 db3c
00000130: 432d 0b3d d30b 323e 8b39 833e 2c61 afbc
00000140: f038 8fbe 35b4 7fbe 6227 953d bb7e 663e
00000150: d882 a93e d3e0 b8be b10c 90be fa93 99be
00000160: 8027 89be 4f61 843e 95c1 ae3e e32f 3dbe
00000170: 8915 72bd 57d6 acbe 5606 1c3e 81e9 423e
00000180: 6fba a83e a129 4e3e ba6b 303e 1cd4 973e
00000190: 2f1e 3a3e 2472 0f3e ff19 873e edac 873e
000001a0: 6289 693e bed7 553e e5db 863e d942 933d
000001b0: c033 163d ae69 903e 1e6e 513e 6547 8e3e
000001c0: bec8 893e 64b3 5b3d e61d 913e 65b0 d53d
000001d0: 889b 4b3e 014f a83e 74c5 903e 8a17 6b3d
000001e0: 0b52 103d 9dc2 1d3e 47c2 ad3e 8f86 ad3e
000001f0: 1d6c 3e3e 8c58 863e cfd0 833e cacd a43b

lstm_cell.bias_hh f4 [128]
0.061185908 0.24761775 0.18005483 0.21393189 0.08246418 0.31388053 0.057859175 0.32709858
0.1974485 0.061396804 0.2927887 -0.07464617 0.14278929 0.1866415 0.21896182 0.29748335
0.16017005 0.05527043 0.025362767 0.08103556 0.1983362 0.2625103 0.032179646 0.23422313
0.17657895 0.15947922 0.30147234 0.26450172 0.10406529 0.27833986 0.20554097 0.35157824
0.17394051 0.24697615 0.21668994 0.037034694 0.09212383 0.0056385747 0.1126886 0.18876714
0.18547158 0.2361315 0.19000155 0.1671677 0.09439441 0.008734748 0.12897153 0.22048578
-0.0262981 0.06688813 -0.025530802 0.20206726 0.1354182 0.08860734 0.17796026 0.10818109
0.08154755 0.12967108 0.01643096 0.062906854 -0.08692348 0.15063646 0.2846132 -0.033376943
0.026380796 -0.27850404 -0.25009397 0.30277663 0.22948216 0.15054601 0.32350284 -0.35141993
0.014713151 0.3298802 -0.10301632 -0.008577483 0.13884336 -0.05438831 0.09056354 -0.30537504
-0.26370925 -0.2253945 0.2761598 0.12642208 0.06542141 -0.20079541 -0.07878137 -0.057793334
-0.22072761 0.22022949 0.18056646 -0.30893162 -0.3690618 -0.24594294 0.34585 0.10163606
0.33071253 0.048269022 0.08188481 0.249821 0.17641298 0.034772042 0.24685366 0.18338095
0.28377467 0.1656981 0.05895292 0.19730157 0.119525656 0.23348528 0.13072044 0.29535878
0.17734702 0.086770825 0.050494988 0.21828629 0.07819827 0.047442187 0.18405943 0.053749554
0.17199692 0.13254881 0.096755624 0.33314243 0.3330795 0.21311648 0.022588652 -0.037764277
00000000: 139e 7a3d 828f 7d3e 4b60 383e f610 5b3e
00000010: fbe2 a83d f3b4 a03e befd 6c3d 7779 a73e
00000020: f12f 4a3e 377b 7b3d 67e8 953e 17e0 98bd
00000030: 5b37 123e f31e 3f3e 8737 603e bd4f 983e
00000040: 9e03 243e 3f63 623d 94c5 cf3c f9f5 a53d
00000050: a518 4b3e c067 863e cece 033d 30d8 6f3e
00000060: 1dd1 343e 854e 233e 955a 9a3e c56c 873e
00000070: 2f20 d53d 9082 8e3e 5579 523e 1002 b43e
00000080: 761d 323e 51e7 7c3e f8e3 5d3e b1b1 173d
00000090: 6bab bc3d cbc3 b83b 48c9 e63d 2c4c 413e
000000a0: 43ec 3d3e 75cc 713e c48f 423e 022e 2b3e
000000b0: db51 c13d 301c 0f3c 1d11 043e 06c7 613e
000000c0: 1d6f d7bc a5fc 883d f925 d1bc b8ea 4e3e
000000d0: 12ab 0a3e c477 b53d 373b 363e 0c8e dd3d
000000e0: 6702 a73d 7fc8 043e 389a 863c 4fd5 803d
000000f0: f004 b2bd 7240 1a3e d2b8 913e 43b6 08bd
00000100: 8a1c d83c 1598 8ebe 510c 80be 8a05 9b3e
00000110: 5ffd 6a3e bc28 1a3e 2aa2 a53e 50ed b3be
00000120: 6e0f 713c 0fe6 a83e 38fa d2bd 9288 0cbc
00000130: f42c 0e3e 47c6 5ebd 6179 b93d 1e5a 9cbe
00000140: e604 87be d1cd 66be d164 8d3e ca74 013e
00000150: a9fb 853d 509d 4dbe 2058 a1bd b4b8 6cbd
00000160: 6b06 62be d783 613e 6ae6 383e 492c 9ebe
00000170: abf5 bcbe 77d8 7bbe 4013 b13e 9126 d03d
00000180: 2753 a93e bdb5 453d 39b3 a73d 14d1 7f3e
00000190: 9ba5 343e 216d 0e3d 35c7 7c3e 37c8 3b3e
000001a0: ea4a 913e c3ac 293e 9e78 713d 6c09 4a3e
000001b0: dec9 f43d c416 6f3e 94db 053e 4439 973e
000001c0: 759a 353e e7b4 b13d d5d3 4e3d 7186 5f3e
000001d0: 6a26 a03d bd52 423d 137a 3c3e 7e28 5c3d
000001e0: f61f 303e e0ba 073e d027 c63d a591 aa3e
000001f0: 6589 aa3e 353b 5a3e d60b b93c b7ae 1abd

action_head.weight f4 [2, 32]
0.10438156 -0.03855959 0.16270812 0.14596082 0.05945265 -0.07466616 0.0014189553 0.036512777
0.03380156 -0.17206915 -0.084748164 0.07269603 0.1254587 0.08870645 -0.052828975 -0.16277213
0.061648283 0.046533365 -0.017141059 0.14664558 -0.097842194 0.13768111 -0.1289704 -0.022545397
0.010341973 0.026597643 0.011824368 -0.12016623 -0.16673335 -0.106805295 -0.043034066 -0.027974186
-0.042768877 0.15970248 0.03996784 0.19358082 0.07154215 0.02433499 0.15639819 0.108283415
-0.14827016 -0.088735744 0.11064045 0.0395591 0.15998705 0.09903834 -0.10197545 0.092421606
-0.12531874 -0.15503457 0.03444913 -0.09774801 0.11056795 -0.11412164 -0.13648336 -0.13859718
0.0009276123 -0.109369956 -0.118173234 -0.18952358 -0.073222175 -0.076986976 -0.014030037 0.037949193
00000000: 00c6 d53d a9f0 1dbd f59c 263e c176 153e
00000010: 9f84 733d 92ea 98bd 3dfc b93a 6c8e 153d
00000020: 8173 0a3d e532 30be 7290 adbd a8e1 943d
00000030: 3f78 003e baab b53d 3263 58bd bdad 26be
00000040: e982 7c3d c599 3e3d 686b 8cbc 422a 163e
00000050: 7d61 c8bd 47fc 0c3e d110 04be 20b1 b8bc
00000060: 6171 293c 4de3 d93c feba 413c b619 f6bd
00000070: 26bc 2abe bcbc dabd 7d44 30bd 1f2a e5bc
00000080: 6b2e 2fbd 0c89 233e 51b5 233d 0d3a 463e
00000090: b184 923d 2c5a c73c d926 203e b2c3 dd3d
000000a0: 22d4 17be 16bb b5bd 7697 e23d b908 223d
000000b0: a5d3 233e 9dd4 ca3d 81d8 d0bd 8a47 bd3d
000000c0: 8e53 00be 62c1 1ebe 881a 0d3d 1c30 c8bd
000000d0: 7371 e23d 9bb8 e9bd 4bc2 0bbe 6bec 0dbe
000000e0: 022b 733a 5bfd dfbd cf04 f2bd 7812 42be
000000f0: 82f5 95bd 59ab 9dbd 3ede 65bc 9d70 1b3d

action_head.bias f4 [2]
-0.05072088 -0.11769797
00000000: b3c0 4fbd a20b f1bd

value_head.weight f4 [1, 32]
0.29842895 -0.21238594 -0.23641878 0.3036816 0.2800617 0.22360466 0.24670866 -0.26282808
-0.2039214 0.18330416 -0.3194004 0.31730798 0.29661205 0.1511609 0.28592417 -0.19365197
-0.33010775 -0.20637617 0.30227828 0.342747 0.24780963 -0.28815937 -0.33602613 -0.28566325
-0.3567445 0.30227888 0.21505827 -0.35817415 -0.27544528 -0.22016278 0.26675323 0.31701168
00000000: aecb 983e b37b 59be c417 72be 287c 9b3e
00000010: 3f64 8f3e 9ff8 643e 32a1 7c3e 6791 86be
00000020: c5d0 50be 16b4 3b3e 7388 a3be 3176 a23e
00000030: 89dd 973e ecc9 1a3e a764 923e b44c 46be
00000040: e203 a9be 4654 53be 38c4 9a3e 897c af3e
00000050: cfc1 7d3e a089 93be 9e0b acbe 7442 92be
00000060: 37a7 b6be 4cc4 9a3e 3c38 5c3e 9a62 b7be
00000070: 2a07 8dbe 5a72 61be e193 883e 5b4f a23e

exp_avg f4 [128, 2]
-0.003540108 -0.004415178 -0.0014259417 -0.0016191561 -0.0018258295 -0.0028428303 -0.0019165579 -0.0025300898
-0.0022561601 -0.0028067522 -0.0019018465 -0.0023281728 -0.0021130438 -0.0026488763 -0.0018201864 -0.0024018227
-0.0017756547 -0.0019065716 -0.0018849323 -0.0024683003 -0.0023980713 -0.0032488417 -0.0035233588 -0.0046478105
-0.002984515 -0.003760424 -0.0011890754 -0.001238674 -0.0023878154 -0.0032161686 -0.0012389908 -0.0018457628
-0.0029073746 -0.0034660161 -0.0015760281 -0.0019531028 -0.0029708694 -0.0039925785 -0.003585832 -0.004323435
-0.002205388 -0.0027770703 -0.0029638356 -0.0036368198 -0.003608079 -0.0044109197 -0.002830088 -0.0035308695
-0.002582058 -0.0034250948 -0.0023717142 -0.0031277249 -0.0015314746 -0.0019527074 -0.0025692447 -0.0034466397
-0.0037760586 -0.0041822745 -0.001740403 -0.0018586324 -0.0018027166 -0.002550702 -0.002073072 -0.0025627275
-0.001094459 -0.0013066848 -0.0007178033 -0.00077220285 -0.0007626916 -0.0011600818 -0.0010885026 -0.001467602
-0.00088388706 -0.0010860155 -0.00064369745 -0.0008017802 -0.0010895107 -0.0011620967 -0.0009335738 -0.0012239676
-0.00069374044 -0.0009069908 -0.00079097535 -0.0009746634 -0.0012490414 -0.0016650745 -0.00044101203 -0.0006110637
-0.00077200826 -0.0009290168 -0.0002472427 -0.00033280958 -0.0009291266 -0.0011693469 -0.00059719954 -0.0007076773
-0.0014903805 -0.0016145079 -0.0007407442 -0.0009141483 -0.0011532264 -0.0014074714 -0.0010009544 -0.0012019227
-0.0008128944 -0.001173034 -0.0013879722 -0.0016120163 -0.0011322569 -0.0013917538 -0.0009150229 -0.0010766012
-0.0014433686 -0.0019345791 -0.0011257845 -0.0016411707 -0.000899884 -0.001015042 -0.0011779106 -0.0016761112
-0.0015745454 -0.0017281404 -0.0009557592 -0.0010065489 -0.0010615588 -0.0012406628 -0.0007973864 -0.0010263964
-0.0051665287 -0.0061590145 0.002485829 0.0025623138 0.0019321408 0.0026357349 -0.0030488404 -0.0048971456
-0.0036622877 -0.003583083 -0.003770605 -0.0048374375 -0.0038965999 -0.0053995037 0.0030347856 0.0044135167
0.005100218 0.0088991225 -0.003459352 -0.00528461 0.0072369054 0.009246728 -0.006658033 -0.010121335
-0.008321396 -0.00772959 -0.004473294 -0.0070229406 -0.0068702446 -0.007183815 0.004497082 0.005496189
0.0043076985 0.004190677 0.0030985398 0.0040388606 -0.0052588796 -0.0061069843 -0.0067210183 -0.008802493
-0.0047561117 -0.007820797 0.0042417143 0.0043105823 0.004306413 0.006353973 0.0051502073 0.004856483
0.004706869 0.009665839 -0.005728253 -0.0068942104 -0.0020598914 -0.0029597646 0.0043933396 0.006403614
0.005613282 0.0057676667 0.003700073 0.003299103 -0.003730935 -0.004098591 -0.0034099973 -0.0057219896
-0.0024126999 -0.0032488832 -0.0026441405 -0.0037940678 -0.0033873687 -0.0039292662 -0.0034535588 -0.003986928
-0.0034136449 -0.0047863973 -0.0028476096 -0.0035177886 -0.002564705 -0.0036031909 -0.0038945915 -0.004083232
-0.0020455613 -0.0024038972 -0.002146354 -0.0030181226 -0.0031540203 -0.0039034972 -0.0030835737 -0.003118704
-0.0028247596 -0.0041402383 -0.0017167951 -0.0022764045 -0.003412673 -0.0039957175 -0.0023409175 -0.0023905737
-0.002854156 -0.0044959188 -0.0030711722 -0.0037434136 -0.003607713 -0.004025775 -0.003725842 -0.0041807797
-0.0031437012 -0.0036450385 -0.003609982 -0.0044730706 -0.003251765 -0.0042366553 -0.0034067396 -0.004725173
-0.0045364196 -0.0051435567 -0.003346357 -0.004340611 -0.0033592747 -0.004101557 -0.0034659354 -0.0042601326
-0.0026531958 -0.0035960448 -0.0028604944 -0.003679162 -0.0037127037 -0.004184261 -0.0047055674 -0.005184473
00000000: 2801 68bb 33ad 90bb aae6 baba dd39 d4ba
00000010: ac50 efba c74e 3abb 0335 fbba ddcf 25bb
00000020: 16dc 13bb 7df1 37bb 6147 f9ba 4294 18bb
00000030: fe7a 0abb c598 2dbb 5293 eeba e667 1dbb
00000040: 16bd e8ba ede5 f9ba d50f f7ba 35c3 21bb
00000050: f628 1dbb 85ea 54bb 27e8 66bb a94c 98bb
00000060: da97 43bb 7271 76bb c0da 9bba 015b a2ba
00000070: e57c 1cbb 5bc6 52bb a265 a2ba 86ed f1ba
00000080: a789 3ebb 1a26 63bb ba92 ceba 41ff ffba
00000090: ebb2 42bb 2dd4 82bb 4700 6bbb 9aab 8dbb
000000a0: 4588 10bb 82ff 35bb e93c 42bb b657 6ebb
000000b0: 8575 6cbb 7a89 90bb ff78 39bb 2966 67bb
000000c0: bf37 29bb 8e77 60bb c36e 1bbb 84fa 4cbb
000000d0: c3bb c8ba fdf1 ffba c660 28bb 05e1 61bb
000000e0: c077 77bb 760b 89bb 3c1e e4ba 5b9d f3ba
000000f0: 2249 ecba ae29 27bb 60dc 07bb 6ff3 27bb
00000100: f373 8fba 1145 abba f72a 3cba a86d 4aba
00000110: 5eef 47ba e30d 98ba 16ac 8eba 8d5c c0ba
00000120: a8b4 67ba a258 8eba cebd 28ba 8f2e 52ba
00000130: eacd 8eba 7f51 98ba 14bb 74ba 8a6d a0ba
00000140: 22dc 35ba 1fc3 6dba 7559 4fba 8e80 7fba
00000150: e0b6 a3ba a13e daba a237 e7b9 ca2f 20ba
00000160: 9960 4aba 4389 73ba 5aa0 81b9 f27c aeb9
00000170: a190 73ba c544 99ba 628d 1cba 6b83 39ba
00000180: df58 c3ba e59d d3ba 802e 42ba 74a3 6fba
00000190: db27 97ba e77a b8ba 7532 83ba d589 9dba
000001a0: 6b18 55ba 7dc0 99ba 9eec b5ba 4b4a d3ba
000001b0: 3d68 94ba 826b b6ba 26de 6fba be1c 8dba
000001c0: 6a2f bdba b491 fdba 0f8f 93ba 8d1c d7ba
000001d0: 31e6 6bba 280b 85ba 1f64 9aba f6b0 dbba
000001e0: fa60 ceba c582 e2ba ea8b 7aba 2dee 83ba
000001f0: 0124 8bba bc9d a2ba b207 51ba 2688 86ba
00000200: fc4b a9bb 8fd1 c9bb 4ae9 223b 7eec 273b
00000210: e33f fd3a 4bbc 2c3b 0ecf 47bb 3c78 a0bb
00000220: fe02 70bb 28d2 6abb 411c 77bb 5e83 9ebb
00000230: 195e 7fbb 52ee b0bb 41e3 463b 439f 903b
00000240: bb1f a73b a0cd 113c 4cb6 62bb 862a adbb
00000250: 9023 ed3b 977f 173c a12b dabb f5d3 25bc
00000260: 7756 08bc 8048 fdbb b694 92bb b220 e6bb
00000270: ca1f e1bb 3566 ebbb 425c 933b 6019 b43b
00000280: 9827 8d3b f251 893b df10 4b3b 6b58 843b
00000290: ae52 acbb 191d c8bb fd3b dcbb 5538 10bc
000002a0: 28d9 9bbb cd22 00bc 14fe 8a3b c93f 8d3b
000002b0: cf1c 8d3b fd34 d03b 12c3 a83b 2223 9f3b
000002c0: 143c 9a3b 785d 1e3c 12b4 bbbb d4e8 e1bb
000002d0: 3eff 06bb 9cf8 41bb 01f6 8f3b 68d5 d13b
000002e0: 9fef b73b b2fe bc3b ed7c 723b c335 583b
000002f0: b482 74bb 794d 86bb 437a 5fbb 877f bbbb
00000300: 631e 1ebb 37eb 54bb 5149 2dbb e5a5 78bb
00000310: 9efe 5dbb 13c1 80bb 1a55 62bb c7a4 82bb
00000320: 75b7 5fbb 36d7 9cbb f69e 3abb b38a 66bb
00000330: 9c14 28bb 8323 6cbb 673c 7fbb a2cc 85bb
00000340: d30e 06bb b48a 1dbb d8a9 0cbb b2cb 45bb
00000350: aeb3 4ebb d1d1 7fbb c815 4abb 2c63 4cbb
00000360: 9a1f 39bb d6aa 87bb 1606 e1ba bb2f 15bb
00000370: 27a7 5fbb 82ee 82bb 146a 19bb 2cab 1cbb
00000380: cb0c 3bbb 8052 93bb b845 49bb 0f54 75bb
00000390: 616f 6cbb a6ea 83bb 422d 74bb ecfe 88bb
000003a0: 8e06 4ebb 99e1 6ebb 7395 6cbb d692 92bb
000003b0: 901b 55bb a4d3 8abb 9b43 5fbb a0d5 9abb
000003c0: 3fa6 94bb 488b a8bb 8e4e 5bbb af3b 8ebb
000003d0: 4727 5cbb 5b66 86bb bf24 63bb 9598 8bbb
000003e0: 3de1 2dbb 9fab 6bbb 2277 3bbb 181e 71bb
000003f0: d550 73bb 201c 89bb 2931 9abb 83e2 a9bb

exp_avg_sq f4 [128, 2]
0.00027200903 0.00012582977 4.5527384e-05 3.1466498e-05 0.00015031618 9.357805e-05 0.00013643064 6.716054e-05
0.000110496105 9.180011e-05 4.8558817e-05 2.5286647e-05 0.00020687436 8.67984e-05 2.5359515e-05 1.2068303e-05
9.64396e-05 1.45000895e-05 7.695616e-05 1.6315214e-05 0.00020921434 0.000117492906 6.801099e-05 3.8483944e-05
4.3667118e-05 1.5516296e-05 5.0060125e-06 1.1390442e-06 8.844625e-05 7.212127e-05 2.0745792e-05 1.7627186e-05
0.00031043895 0.0002084822 4.0752137e-05 2.3837289e-05 4.0715153e-05 2.0865627e-05 0.0003229638 0.0001801955
8.841347e-05 2.2026674e-05 9.5820855e-05 4.3535856e-05 0.0003921667 0.00016893836 8.758412e-05 3.9690145e-05
0.0002523001 4.1313426e-05 0.00012715445 7.7382545e-05 5.059734e-05 1.993794e-05 0.00019921992 0.000107386055
7.26816e-05 3.0218984e-05 4.8056187e-05 3.918081e-05 5.655143e-05 3.845414e-05 2.8793635e-05 1.1199495e-05
0.00028502563 0.00010078417 8.6327054e-05 4.179512e-05 0.0001780049 0.00011222722 0.00021870699 0.0001223818
0.00021299718 0.000109227614 5.2550804e-05 2.0933048e-05 0.00033590282 0.00012987907 1.9834593e-05 8.477732e-06
0.00014210267 6.0774593e-05 7.304423e-05 2.2912716e-05 0.00046168122 0.000225317 5.319119e-05 2.4303521e-05
2.7002423e-05 1.1430754e-05 1.1259848e-06 6.129771e-07 0.00015413579 5.987253e-05 5.2061776e-05 2.6231e-05
0.00046799827 0.00018776953 6.557343e-05 2.9231931e-05 2.4049428e-05 9.8407045e-06 0.00044138168 0.00019881446
9.137582e-05 4.2505464e-05 0.000105271014 3.01438e-05 0.0004320895 0.00020728182 8.878174e-05 2.4192508e-05
0.00034365358 0.0001575116 0.00020948215 0.00011463723 5.8903413e-05 2.2074482e-05 0.00025657378 0.00014775468
4.5037246e-05 1.2578508e-05 0.00013266363 4.876747e-05 0.000104114915 3.8389764e-05 4.098941e-05 1.3864483e-05
0.0021416878 0.0012741591 0.0007114606 0.00040897456 0.0007136307 0.00043749512 0.0014640735 0.0013547047
0.0020707254 0.00103117 0.00083527534 0.00063694647 0.0028883745 0.0019383776 0.00069415825 0.00043549907
0.0060491855 0.004383473 0.0023218943 0.00092497445 0.009229162 0.005464 0.0020863477 0.0015685259
0.0009697314 0.0007554847 0.0009528565 0.0006787678 0.003423154 0.0020275002 0.0020116663 0.0012249561
0.003610378 0.0019262433 0.0008890232 0.0006554088 0.0003950793 0.00031429413 0.0063038007 0.005411461
0.0029881604 0.0017482059 0.00068985496 0.00026795734 0.0031622855 0.0024856993 0.0010448833 0.00057526573
0.005740268 0.0040937723 0.0039723855 0.0023988404 0.00046102685 0.00030648801 0.00296559 0.0022989998
0.00047626917 0.00041245585 0.0014671576 0.00075184094 0.0010886183 0.0006110963 0.00042425698 0.00036268868
0.0003331026 0.00014614908 0.0002265589 0.00013388328 0.000670353 0.00024666594 0.0005025136 0.00018341793
0.0008209063 0.00038314823 0.00022489377 8.29569e-05 0.00048283083 0.00024489578 0.00019980724 7.1270515e-05
0.00012285654 3.7556492e-05 7.311953e-05 3.1931122e-05 0.0005046685 0.00021692656 0.0003129174 0.00010263205
0.00011761804 5.6136294e-05 2.1565025e-05 9.357631e-06 0.00046076957 0.00015516032 0.00011498582 4.754523e-05
0.0004610656 0.00033713217 0.00044208503 0.00016409114 0.00016718994 5.7879628e-05 0.0009984219 0.0003255552
0.0005501713 0.00016626371 0.00015962304 6.0920713e-05 0.0006406952 0.00028034573 0.00031055682 0.00012513124
0.0011542866 0.00033977866 0.00047282668 0.00019953756 0.00031096238 0.00012397373 0.0006296456 0.00024075917
3.7561404e-05 2.0945346e-05 0.00035996726 0.00016928167 0.00052713294 0.000181245 0.00068229384 0.00019089453
00000000: 6f9c 8e39 2cf1 0339 a8f4 3e38 e5fa 0338
00000010: 319e 1d39 553f c438 d20e 0f39 8ad8 8c38
00000020: 25ba e738 cf84 c038 a2ab 4b38 a91e d437
00000030: 6aec 5839 8907 b638 25bb d437 f778 4a37
00000040: 9e3f ca38 6945 7337 8663 a138 a8dc 8837
00000050: 8c60 5b39 8666 f638 1fa1 8e38 d269 2138
00000060: 3627 3738 fe28 8237 52f9 a736 43e1 9835
00000070: 387c b938 d03f 9738 4007 ae37 18de 9337
00000080: 69c2 a239 049c 5a39 46ed 2a38 30f6 c737
00000090: 90c5 2a38 9808 af37 7853 a939 dcf2 3c39
000000a0: 9f6a b938 ecc5 b837 6ef3 c838 459a 3638
000000b0: b99b cd39 0c25 3139 5ead b738 f878 2638
000000c0: 2547 8439 f447 2d38 c354 0539 7048 a238
000000d0: 7b38 5438 6640 a737 b1e5 5039 7334 e138
000000e0: a36c 9838 c67e fd37 f08f 4938 1356 2438
000000f0: a331 6d38 d249 2138 dc89 f137 77e5 3b37
00000100: 7e6f 9539 175c d338 7c0a b538 2b4d 2f38
00000110: d4a6 3a39 885b eb38 b654 6539 9d53 0039
00000120: ff57 5f39 2111 e538 ff69 5c38 6199 af37
00000130: 1d1c b039 2630 0839 7762 a637 953b 0e37
00000140: 6501 1539 39e8 7e38 532f 9938 af34 c037
00000150: ce0d f239 1243 6c39 9b19 5f38 6adf cb37
00000160: 4383 e237 b7c6 3f37 8b20 9735 778b 2435
00000170: 839f 2139 a41f 7b38 e85c 5a38 a50a dc37
00000180: aa5d f539 00e4 4439 7884 8938 1837 f537
00000190: c1bd c937 8119 2537 3f69 e739 da78 5039
000001a0: 05a1 bf38 e547 3238 f2c4 dc38 51dd fc37
000001b0: 128a e239 ca59 5939 5530 ba38 04f1 ca37
000001c0: 672c b439 b329 2539 70a8 5b39 6569 f038
000001d0: 0f0f 7738 972c b937 c084 8639 98ee 1a39
000001e0: 60e6 3c38 4808 5337 9f1b 0b39 ac8b 4c38
000001f0: 4558 da38 b204 2138 0bec 2b38 809b 6837
00000200: 8f5b 0c3b af01 a73a 5081 3a3a a36b d639
00000210: f212 3b3a 9a5f e539 28e6 bf3a 5990 b13a
00000220: 02b5 073b 5328 873a 61f6 5a3a c1f8 263a
00000230: e24a 3d3b 2911 fe3a 2cf8 353a b253 e439
00000240: 3f38 c63b 3da3 8f3b ec2a 183b fc79 723a
00000250: e935 173c 5b0b b33b 1bbb 083b ff96 cd3a
00000260: 9335 7e3a b80b 463a 1ec9 793a 56ef 313a
00000270: fe56 603b cfdf 043b 29d6 033b b58e a03a
00000280: 179c 6c3b 007a fc3a 560d 693a bdcf 2b3a
00000290: a522 cf39 d8c7 a439 1d90 ce3b a052 b13b
000002a0: 03d5 433b 0e24 e53a 62d7 343a a07c 8c39
000002b0: 593e 4f3b 1de7 223b 77f4 883a 6ecd 163a
000002c0: dc18 bc3b 0d25 863b c92a 823b dd35 1d3b
000002d0: fab5 f139 20b0 a039 585a 423b d1aa 163b
000002e0: c4b3 f939 e33e d839 a44d c03a 3117 453a
000002f0: f8af 8e3a fa31 203a cf6e de39 4027 be39
00000300: 46a4 ae39 983f 1939 7190 6d39 0563 0c39
00000310: a1ba 2f3a f152 8139 1ebb 033a e053 4039
00000320: 1732 573a 49e1 c839 76d1 6b39 26f9 ad38
00000330: 7524 fd39 5b65 8039 5983 5139 1177 9538
00000340: 0dd3 0039 fa85 1d38 c057 9938 c8ed 0538
00000350: bb4b 043a c876 6339 100f a439 2a3c d738
00000360: b4a9 f638 e373 6b38 8ae6 b437 b8fe 1c37
00000370: 7293 f139 88b2 2239 8b24 f138 4d6b 4738
00000380: 2dbb f139 1dc1 b039 a6c7 e739 e10f 2c39
00000390: b54f 2f39 c7c3 7238 7bdd 823a 47af aa39
000003a0: 5f39 103a 1357 2e39 7c60 2739 1e85 7f38
000003b0: 54f4 273a 5efb 9239 3bd2 a239 a935 0339
000003c0: 6e4b 973a 5224 b239 b9e5 f739 f53a 5139
000003d0: aa08 a339 f2fe 0139 cd0e 253a 4c74 7c39
000003e0: 408b 1d38 cab3 af37 fdb9 bc39 3481 3139
000003f0: 4b2f 0a3a 960c 3e39 f7db 323a dc2a 4839

exp_avg f4 [128, 32]
-0.001126699 0.0016966132 0.0016825123 -0.0017832662 -0.0016405651 -0.0011647244 -0.0017811226 0.0019201067
0.0012691226 -0.0015433378 0.0012861679 -0.00036588774 -0.00070470676 -0.00074830704 -0.0012736522 0.001387259
0.0016946583 0.001413088 -0.0011854321 -0.0012339528 -0.0012919048 0.0016786036 0.0012489277 0.0011106317
0.0015028383 -0.0015343002 -0.0017979931 0.0017429852 0.0014441265 0.0018695131 -0.0015944855 -0.0010282473
-0.00035680056 0.00057153846 0.00057030894 -0.00060399924 -0.00055210973 -0.00037369467 -0.00061342237 0.0006631025
0.00041478852 -0.0005186129 0.00042018274 -7.6753604e-05 -0.00020773322 -0.00020747846 -0.00042018053 0.00045254335
0.0005746597 0.00047072215 -0.00038766995 -0.00040446926 -0.0004286622 0.0005737881 0.0004082404 0.00036138343
0.00051100366 -0.00051997486 -0.0006172396 0.00059219793 0.00048237926 0.000643042 -0.00053824607 -0.00031981524
-0.0006356087 0.00096793193 0.0009613726 -0.0010185993 -0.0009360471 -0.0006592878 -0.001021356 0.0011018787
0.00072063087 -0.0008798213 0.00072998303 -0.0001942265 -0.00039429095 -0.00041140354 -0.00072577316 0.0007870481
0.0009687855 0.00080559537 -0.000674092 -0.00070216856 -0.0007357018 0.0009620902 0.00070911786 0.0006310539
0.0008595488 -0.0008774029 -0.0010300562 0.0009963791 0.0008238619 0.0010725583 -0.00091130985 -0.0005786118
-0.0005862339 0.0009022225 0.0008969352 -0.00095028203 -0.0008722524 -0.000609216 -0.0009553364 0.0010311566
0.00066800637 -0.00081981136 0.0006766977 -0.00016824562 -0.00035892113 -0.00037179337 -0.0006734528 0.0007295167
0.00090378016 0.0007491079 -0.0006247279 -0.000650859 -0.0006837129 0.0008985129 0.00065735437 0.0005842519
0.0008022198 -0.0008183093 -0.0009630975 0.0009299761 0.0007664877 0.0010028069 -0.00084934896 -0.0005319728
-0.0006328846 0.0009916516 0.0009874157 -0.0010459796 -0.000958317 -0.0006597329 -0.0010563161 0.0011405806
0.0007275101 -0.00090062147 0.0007370904 -0.00016146833 -0.00037848495 -0.00038693135 -0.0007345246 0.00079412
0.000994872 0.0008200022 -0.000679642 -0.0007087349 -0.000747814 0.0009904875 0.0007160099 0.000634852
0.0008838972 -0.00090043485 -0.0010638983 0.0010244913 0.00083930866 0.00110772 -0.00093323283 -0.0005709753
-0.000544494 0.00084542116 0.0008409084 -0.00089103554 -0.0008170895 -0.0005661728 -0.00089714985 0.0009682238
0.0006226775 -0.0007679463 0.00063112023 -0.00014750412 -0.00032825943 -0.00033979912 -0.0006273745 0.00068018714
0.0008470953 0.00069979904 -0.0005811037 -0.00060601794 -0.00063849526 0.0008418074 0.00061284896 0.0005432592
0.0007520357 -0.00076639955 -0.0009041279 0.0008721297 0.00071571267 0.0009409137 -0.000794933 -0.00049238873
-0.0006470183 0.0009867065 0.0009798703 -0.0010383573 -0.0009540305 -0.000670747 -0.001040937 0.0011227377
0.0007336138 -0.00089692615 0.0007434014 -0.00019593377 -0.00039937126 -0.00041857068 -0.0007379621 0.00080151454
0.0009871896 0.00082014845 -0.0006853095 -0.00071404065 -0.00074907875 0.0009795341 0.0007219496 0.0006415507
0.00087583024 -0.00089366914 -0.0010498666 0.0010155988 0.00083844585 0.0010925219 -0.0009280173 -0.0005884128
-0.00053930737 0.00083891326 0.00083479774 -0.0008843867 -0.0008109086 -0.00056136254 -0.0008914379 0.00096213585
0.00061771227 -0.0007619545 0.0006259195 -0.00014451156 -0.0003253242 -0.00033454687 -0.0006231689 0.0006743819
0.00084116205 0.00069474743 -0.0005768977 -0.0006017818 -0.0006337716 0.00083661015 0.0006079462 0.00053934765
0.0007469719 -0.00076131755 -0.0008980169 0.0008658848 0.0007106437 0.0009351276 -0.0007894853 -0.00048758043
00000000: bfad 93ba e460 de3a bf87 dc3a 7cbc e9ba
00000010: 3b08 d7ba aaa9 98ba 8f74 e9ba 17ac fb3a
00000020: b058 a63a d349 caba a294 a83a 9fd4 bfb9
00000030: 12bc 38ba 092a 44ba adf0 a6ba b0d4 b53a
00000040: 4c1f de3a 5d37 b93a 8060 9bba 96bc a1ba
00000050: 2255 a9ba 9704 dc3a 0fb3 a33a 9e92 913a
00000060: e3fa c43a 921a c9ba a3aa ebba e174 e43a
00000070: d848 bd3a 730a f53a 0efe d0ba 41c6 86ba
00000080: f610 bbb9 4cd3 153a c980 153a b455 1eba
00000090: 75bb 10ba 73ec c3b9 14ce 20ba 0ed4 2d3a
000000a0: f977 d939 86f3 07ba f94b dc39 c7f6 a0b8
000000b0: f6d2 59b9 938e 59b9 ad4b dcb9 5743 ed39
000000c0: c2a4 163a 42cb f639 2e40 cbb9 f20e d4b9
000000d0: 11be e0b9 446a 163a 1909 d639 1078 bd39
000000e0: e0f4 053a ec4e 08ba 40ce 21ba bb3d 1b3a
000000f0: d9e7 fc39 d191 283a 1519 0dba e0ac a7b9
00000100: fa9e 26ba d0bc 7d3a a004 7c3a 8582 85ba
00000110: 0f61 75ba 0ed4 2cba 05df 85ba ea6c 903a
00000120: b8e8 3c3a cfa3 66ba 555c 3f3a 47a9 4bb9
00000130: d6b8 ceb9 a6b1 d7b9 d041 3eba e751 4e3a
00000140: 18f6 7d3a 972e 533a 8cb5 30ba bc11 38ba
00000150: 1ddc 40ba c834 7c3a 18e4 393a 4f6d 253a
00000160: 5853 613a 8301 66ba f302 87ba ef98 823a
00000170: 70f8 573a 1695 8c3a f8e4 6eba fbad 17ba
00000180: 7ead 19ba 2183 6c3a 4d20 6b3a 591c 79ba
00000190: dea7 64ba cbb3 1fba 8a6f 7aba e027 873a
000001a0: 261d 2f3a 9ce8 56ba 6a64 313a 176b 30b9
000001b0: 942d bcb9 43ed c2b9 a78a 30ba 093d 3f3a
000001c0: a9eb 6c3a c85f 443a c8c4 23ba 689e 2aba
000001d0: 323b 33ba 2e8a 6b3a 4e52 2c3a 7b28 193a
000001e0: 0f4c 523a cf83 56ba 6178 7cba a4c9 733a
000001f0: 1eee 483a 9e70 833a d8a6 5eba 1774 0bba
00000200: 2be8 25ba 4efa 813a 2c6c 813a 4019 89ba
00000210: 9137 7bba edf1 2cba 1674 8aba 897f 953a
00000220: 60b6 3e3a af17 6cba 4d39 413a d34f 29b9
00000230: 646f c6b9 0cdd cab9 1d8d 40ba 7e2c 503a
00000240: 5d66 823a 6bf5 563a 012a 32ba 65ca 39ba
00000250: f308 44ba 3fd3 813a 9cb2 3b3a 326c 263a
00000260: 56b5 673a 290b 6cba 8172 8bba 3948 863a
00000270: 0d05 5c3a ea30 913a 32a4 74ba 81ad 15ba
00000280: 60bc 0eba 419f 5d3a 6870 5c3a 6294 69ba
00000290: f331 56ba 376b 14ba b52e 6bba 66d0 7d3a
000002a0: 2e3b 233a 0150 49ba c371 253a 56ab 1ab9
000002b0: 3c1a acb9 1127 b2b9 6476 24ba 964e 323a
000002c0: 9a0f 5e3a b872 373a 3655 18ba 2ddd 1eba
000002d0: b160 27ba bdac 5c3a 99a7 203a 8269 0e3a
000002e0: 4324 453a 34e8 48ba ff02 6dba a29f 643a
000002f0: aa9e 3b3a a6a7 763a 0d63 50ba a613 01ba
00000300: aa9c 29ba 6054 813a fe6e 803a 7d19 88ba
00000310: e717 7aba 12d5 2fba 0d70 88ba d328 933a
00000320: fd4f 403a b21f 6bba d3e0 423a 9273 4db9
00000330: b462 d1b9 9b73 dbb9 cc73 41ba bb1c 523a
00000340: 9664 813a 3bff 563a 58a6 33ba 752e 3bba
00000350: d35d 44ba b663 803a 3841 3d3a bd2d 283a
00000360: f997 653a 1f45 6aba ad9b 89ba d71d 853a
00000370: 26cb 5b3a f432 8f3a 3046 73ba b73f 1aba
00000380: 4e60 0dba 84ea 5b3a 54d6 5a3a 30d6 67ba
00000390: 2893 54ba 6728 13ba 63af 69ba d837 7c3a
000003a0: f8ed 213a e7bd 47ba bf14 243a 0788 17b9
000003b0: 4690 aab9 1f66 afb9 285c 23ba 01c9 303a
000003c0: 6e81 5c3a b61f 363a f33a 17ba e5c0 1dba
000003d0: b123 26ba f54f 5b3a 945e 1f3a 0263 0d3a
000003e0: 70d0 433a 2893 47ba e568 6bba 8cfc 623a
000003f0: 7e4a 3a3a 5a23 753a 76f5 4eba f0a1 ffb9

exp_avg_sq f4 [128, 32]
0.00011072186 0.0001630159 0.00013572624 0.00019405749 0.00015720614 6.813293e-05 0.00017878486 1.0281867e-05
9.1632435e-05 2.6206719e-05 0.00014319672 5.0908893e-06 4.224274e-07 6.6301736e-06 6.879209e-05 9.801438e-05
0.00019107321 7.228573e-05 2.2939134e-06 0.00013917993 3.8905353e-05 7.4264535e-06 0.0001703814 2.3281766e-05
7.495743e-05 0.0001285432 5.7453173e-05 0.00018209836 1.1365746e-06 0.00012482905 6.968237e-05 3.5905083e-05
7.044024e-06 1.5096214e-05 1.3005645e-05 1.7585768e-05 1.434905e-05 3.8957924e-06 1.537825e-05 6.910261e-07
3.623971e-06 1.1319895e-06 9.408163e-06 2.043236e-07 1.2840323e-07 5.845544e-08 3.296789e-06 5.298384e-06
1.6533497e-05 5.2457544e-06 1.8586624e-07 9.2000155e-06 1.5877625e-06 3.5259194e-07 1.2611496e-05 9.932555e-07
4.372043e-06 8.303806e-06 4.344813e-06 1.5712942e-05 1.238498e-07 1.0129621e-05 5.321624e-06 1.6195556e-06
3.7870686e-05 6.859877e-05 5.7164027e-05 8.073596e-05 6.571094e-05 2.1989894e-05 7.2985444e-05 2.8019995e-06
2.2758444e-05 5.7465904e-06 4.9128e-05 1.2130001e-06 2.6367104e-07 7.019769e-07 1.9736035e-05 3.1353768e-05
7.754327e-05 2.6749047e-05 8.028119e-07 5.0049624e-05 9.464299e-06 1.5446273e-06 6.440252e-05 5.9440113e-06
2.2802691e-05 4.4483997e-05 2.1064287e-05 7.42801e-05 4.1669688e-07 4.831029e-05 2.6148868e-05 1.00441675e-05
3.019405e-05 5.4411328e-05 4.556499e-05 6.389351e-05 5.2003372e-05 1.7626517e-05 5.742385e-05 2.2839477e-06
1.8873647e-05 4.7860144e-06 3.9241684e-05 1.0789818e-06 3.607989e-07 6.850184e-07 1.6019574e-05 2.5098889e-05
6.1318766e-05 2.1169428e-05 7.210102e-07 3.9604667e-05 7.853216e-06 1.3032648e-06 5.101746e-05 4.8901506e-06
1.8408418e-05 3.5316385e-05 1.6709879e-05 5.8461344e-05 3.634953e-07 3.832399e-05 2.0659609e-05 8.175935e-06
2.0129297e-05 4.238791e-05 3.622066e-05 4.9338378e-05 4.0203024e-05 1.1218183e-05 4.3327564e-05 1.8633684e-06
9.904646e-06 3.0340366e-06 2.640378e-05 6.064298e-07 3.495913e-07 1.6617264e-07 9.29303e-06 1.510895e-05
4.642365e-05 1.4921455e-05 5.517709e-07 2.643194e-05 4.315504e-06 9.605039e-07 3.592662e-05 2.8036177e-06
1.1975229e-05 2.3530743e-05 1.222685e-05 4.4382e-05 3.6160264e-07 2.8298304e-05 1.5028662e-05 4.673381e-06
1.7787432e-05 2.7482673e-05 2.282663e-05 3.256122e-05 2.6473655e-05 1.0784126e-05 2.9947127e-05 1.7459733e-06
1.3810558e-05 3.9585434e-06 2.301664e-05 7.4839403e-07 6.792837e-08 8.436969e-07 1.05798945e-05 1.5468728e-05
3.1881304e-05 1.1840942e-05 3.907421e-07 2.2460858e-05 5.896915e-06 1.1807601e-06 2.7924742e-05 3.504752e-06
1.1850622e-05 2.072178e-05 9.5166015e-06 3.0526557e-05 2.46288e-07 2.0595558e-05 1.1473113e-05 5.506218e-06
3.8810565e-05 7.4571086e-05 6.240862e-05 8.703917e-05 7.083973e-05 2.2122478e-05 7.783246e-05 2.8192662e-06
2.1139118e-05 5.5477003e-06 5.0110953e-05 1.1664074e-06 3.010323e-07 5.279678e-07 1.8950957e-05 3.050161e-05
8.2993116e-05 2.775516e-05 8.1732384e-07 5.0944942e-05 8.857654e-06 1.4415604e-06 6.718858e-05 5.6873964e-06
2.267071e-05 4.5153625e-05 2.2071545e-05 7.969668e-05 4.2683303e-07 5.0804876e-05 2.7341257e-05 9.676762e-06
1.2667335e-05 1.5539006e-05 1.3721203e-05 1.852449e-05 1.51802005e-05 8.30583e-06 1.711307e-05 2.6113414e-06
1.3599029e-05 6.3615053e-06 1.6231583e-05 9.977236e-07 1.0290794e-07 1.9038674e-06 9.416606e-06 1.0945572e-05
1.8709672e-05 7.824846e-06 4.122072e-07 1.4007475e-05 6.4277006e-06 2.358714e-06 1.6598924e-05 4.232377e-06
1.057871e-05 1.431014e-05 7.0033134e-06 1.7552706e-05 3.5314133e-07 1.3306117e-05 7.993513e-06 5.1248944e-06
00000000: 5933 e838 3fef 2a39 bc51 0e39 e97b 4b39
00000010: b4d7 2439 97e2 8e38 3278 3b39 4880 2c37
00000020: ca2a c038 80d6 db37 1427 1639 68d2 aa36
00000030: fbc9 e234 c278 de36 7944 9038 128d cd38
00000040: d35a 4839 1b98 9738 22f1 1936 d4f0 1139
00000050: 4e2e 2338 c030 f936 69a8 3239 364d c337
00000060: 7732 9d38 8dc9 0639 e0f9 7038 a8f1 3e39
00000070: 688c 9835 8be4 0239 7022 9238 ca98 1638
00000080: b55b ec36 bf45 7d37 d232 5a37 2685 9337
00000090: b3bc 7037 9ab8 8236 8a00 8137 f47e 3935
000000a0: 5933 7336 ddee 9735 c1d7 1d37 0b64 5b34
000000b0: 36df 0934 7010 7b33 673e 5d36 c6c8 b136
000000c0: 6ab1 8a37 b004 b036 8692 4734 c459 1a37
000000d0: 1b1b d535 de4b bd34 f695 5337 0050 8535
000000e0: 90b3 9236 9350 0b37 a9c9 9136 49cf 8337
000000f0: 93fb 0434 64f2 2937 6790 b236 825f d935
00000100: 57d7 1e38 afdc 8f38 68c3 6f38 ca50 a938
00000110: 4bce 8938 f076 b837 c30f 9938 fc09 3c36
00000120: 63e9 be37 d6d2 c036 ca0e 4e38 5ece a235
00000130: ac8e 8d34 7c6f 3c35 d08e a537 da81 0338
00000140: ba9e a238 2463 e037 d080 5735 60ec 5138
00000150: dbc8 1e37 fd50 cf35 d70f 8738 ab72 c736
00000160: 6848 bf37 5494 3a38 36b3 b037 d3c6 9b38
00000170: 62b6 df34 c7a0 4a38 445a db37 5f83 2837
00000180: 3b49 fd37 b837 6438 091d 3f38 91fe 8538
00000190: 321e 5a38 a8dc 9337 64da 7038 ec45 1936
000001a0: d952 9e37 8d97 a036 7097 2438 88d1 9035
000001b0: d3b3 c134 1be2 3735 c661 8637 748b d237
000001c0: 4398 8038 0095 b137 728b 4135 301d 2638
000001d0: 4ec1 0337 d6eb ae35 95fb 5538 1316 a436
000001e0: c76b 9a37 ae20 1438 312c 8c37 6434 7538
000001f0: 6a26 c334 12be 2038 2c4e ad37 602b 0937
00000200: 56db a837 acc9 3138 a3eb 1738 aef0 4e38
00000210: ab9f 2838 bb35 3c37 9eba 3538 da18 fa35
00000220: 212c 2637 5a9c 4b36 b07d dd37 8ac9 2235
00000230: 76af bb34 306d 3234 43e9 1b37 727c 7d37
00000240: 04b7 4238 2957 7a37 681d 1435 29ba dd37
00000250: e6cd 9036 aaea 8035 eaaf 1638 c925 3c36
00000260: 38e9 4837 e363 c537 ec21 4d37 cf26 3a38
00000270: 4a22 c234 2562 ed37 9d23 7c37 0ad0 9c36
00000280: 3836 9537 978a e637 d17b bf37 5892 0838
00000290: be13 de37 78ed 3437 f736 fb37 3057 ea35
000002a0: e5b3 6737 a1d3 8436 dc13 c137 3fe5 4835
000002b0: 04e0 9133 697a 6235 4d80 3137 d7c2 8137
000002c0: 4ab8 0538 75a8 4637 2fc7 d134 536a bc37
000002d0: 1dde c536 9c7a 9e35 ed3f ea37 2e33 6b36
000002e0: 09d2 4637 afd3 ad37 7ea9 1f37 a409 0038
000002f0: 9139 8434 a0c4 ac37 a57c 4037 0dc2 b836
00000300: 87c8 2238 0c63 9c38 5fe1 8238 cc88 b638
00000310: ca8f 9438 a993 b937 fc39 a338 a032 3d36
00000320: e953 b137 6226 ba36 3a2e 5238 748d 9c35
00000330: 909d a134 acb9 0d35 dff8 9e37 b5dd ff37
00000340: 970c ae38 c1d3 e837 1166 5b35 b7ad 5538
00000350: 569b 1437 a37b c135 98e7 8c38 5dd6 be36
00000360: fb2c be37 5663 3d38 4826 b937 d422 a738
00000370: 7c27 e534 5217 5538 e75a e537 6059 2237
00000380: ca85 5437 c359 8237 1e34 6637 0a65 9b37
00000390: 77ae 7e37 4559 0b37 0a8e 8f37 813e 2f36
000003a0: 6327 6437 ea74 d536 0f29 8837 86e9 8535
000003b0: 3dfe dc33 6388 ff35 04fc 1d37 e0a2 3737
000003c0: b7f2 9c37 7547 0337 544d dd34 a601 6b37
000003d0: 87ad d736 664a 1e36 eb3d 8b37 d703 8e36
000003e0: 377b 3137 9515 7037 01fe ea36 263e 9337
000003f0: 6097 bd34 563d 5f37 e01b 0637 82f6 ab36
