a2c_agent_10000epi.pth (torch, 157826 bytes, 21 tensors)

lstm_cell.weight_ih f4 [128, 3]
0	0x3e09e829	0.13467468
1	0x3daa0dc0	0.08303404
2	0x3e1d2003	0.15344243
3	0x3e9f464e	0.31108326
4	0x3e926355	0.2859141
5	0x3e821497	0.25406334
6	0x3ebcd908	0.36884332
7	0x3ead1e3d	0.33812132
8	0x3e555309	0.20832457
9	0x3e7ad99c	0.24497074
10	0x3e86ba45	0.26313987
11	0x3d1171f1	0.035509054
12	0x3e07c5e1	0.13259079
13	0x3c281ef0	0.010261282
14	0x3d56e32b	0.052462738
15	0x3e077d7e	0.13231465
16	0x3e8fbbfb	0.28073105
17	0x3ea778c2	0.32709318
18	0x3dda64f2	0.10663785
19	0x3e3b6fea	0.1830441
20	0x3e90662b	0.28202948
21	0x3eb61af5	0.35567442
22	0x3e69df26	0.2283903
23	0xbc5b7fcf	-0.013397171
24	0x3e99542c	0.2994703
25	0x3e581366	0.2110115
26	0x3e04009f	0.12890862
27	0x3d515916	0.05111035
28	0xbc8cd0fb	-0.017189493
29	0x3e64024b	0.222665
30	0x3e025ce7	0.12730752
31	0x3e8fa91c	0.28058708
32	0xbb837e16	-0.0040128333
33	0x3e7718a5	0.24130495
34	0x3e0812b9	0.13288392
35	0x3c3af708	0.011411436
36	0x3b0efa93	0.0021816834
37	0x3e93fdd4	0.28904593
38	0x3e021f0d	0.12707157
39	0x3e08c868	0.13357699
40	0x3d03e704	0.032202736
41	0x3e6de7ba	0.23232928
42	0x3e619ce2	0.22032502
43	0x3d2ccda2	0.042188294
44	0x3e4f80b3	0.20263939
45	0x3e622167	0.22083054
46	0x3e10db36	0.14146122
47	0x3e3e9542	0.18611625
48	0x3eb14f43	0.34630784
49	0x3e25abac	0.16178769
50	0xbd1540ea	-0.03643886
51	0x3dad58f3	0.08464231
52	0x3e838d61	0.256938
53	0x3e90d5da	0.28288156
54	0x3d165295	0.03669985
55	0x3e2ba3eb	0.16761748
56	0x3cd771bd	0.026299352
57	0x3e93e8b7	0.28888485
58	0x3de758e3	0.11296251
59	0xbc450062	-0.012024017
60	0x3eb61653	0.35563907
61	0x3e48122a	0.19538179
62	0x3e42589e	0.18979117
63	0x3e35ac80	0.17741585
64	0x3dbd3ff1	0.092407115
65	0x3e9735c4	0.29533207
66	0x3e283607	0.1642686
67	0x3eac1932	0.33612972
68	0x3e83ae5d	0.25718966
69	0x3e86b4c8	0.263098
70	0x3db728ea	0.089433506
71	0x3d675950	0.05648166
72	0x3dcfa8f4	0.10139647
73	0x3e792ac7	0.24332725
74	0x3e8f0b5d	0.27938357
75	0x3e37464a	0.17897907
76	0x3e83a1b4	0.25709307
77	0x3d7cef3e	0.061751597
78	0x3ea4304f	0.32068107
79	0x3e396db7	0.18108259
80	0x3e40bbeb	0.18821685
81	0x3e59d621	0.2127309
82	0x3ec6163f	0.38688847
83	0x3e4ab205	0.19794472
84	0x3e2a8af8	0.16654575
85	0x3e975fa0	0.29565144
86	0x3e467470	0.19380355
87	0x3e1ef7e8	0.15524256
88	0x3e607341	0.21918966
89	0x3d9b858a	0.0759383
90	0x3e517ba4	0.20457321
91	0x3cfb9c62	0.030714218
92	0x3e933e05	0.28758255
93	0x3e0f88ed	0.14017077
94	0x3e9d35b6	0.3070504
95	0xbcc484c7	-0.023989094
96	0x3d7ae6ec	0.06125538
97	0x3e0d656a	0.13808218
98	0x3e914ad7	0.2837741
99	0x3df4b2a0	0.119481325
100	0x3dd4cc02	0.10390474
101	0x3e880f47	0.26574156
102	0x3ef3316f	0.47498652
103	0x3eac5b59	0.33663443
104	0x3e813015	0.25231996
105	0x3e3c1998	0.18369138
106	0x3e3a0d72	0.18169191
107	0xbd3efe3a	-0.046629168
108	0x3c939a36	0.01801787
109	0x3d945926	0.07243566
110	0xbd674786	-0.056464694
111	0x3d1520df	0.0364083
112	0x3d175478	0.03694579
113	0x3e902fc3	0.2816144
114	0x3e77f3f3	0.24214153
115	0x3e4362f1	0.19080712
116	0x3e4de20f	0.20105766
117	0x3eb1d471	0.34732392
118	0x3ea5fea0	0.32420826
119	0x3d64434f	0.055728253
120	0x3e620e67	0.22075807
121	0x3e6373df	0.2221217
122	0x3bf79ba3	0.007556395
123	0x3e3d56e0	0.18490171
124	0x3e01c5b3	0.12673073
125	0xbd120f6d	-0.035659242
126	0x3e1d6df6	0.15373978
127	0x3cc8616a	0.024460513
128	0xbcdc70db	-0.026909282
129	0x3eb4e714	0.3533255
130	0x3e2df64d	0.16988488
131	0x3ddc0d11	0.1074468
132	0x3e8c3db2	0.2739082
133	0x3de146c6	0.10999827
134	0x3db2a026	0.08721952
135	0x3e55136c	0.2080819
136	0x3e762856	0.24038824
137	0x3dfe698b	0.124224745
138	0x3ea81e94	0.3283583
139	0x3eb1eba3	0.3475009
140	0x3e83b3bf	0.25723073
141	0x3ee1ea7e	0.44124216
142	0x3e4e1783	0.20126157
143	0x3e693501	0.22774126
144	0x3e931377	0.28725788
145	0x3e0e2bf8	0.1388396
146	0x3d6b42cf	0.05743676
147	0x3bb80eba	0.00561699
148	0x3e58c3a9	0.21168388
149	0x3d2a79be	0.04162001
150	0x3e92e60c	0.28691137
151	0x3d7ea2ff	0.062167164
152	0x3e9fd79d	0.31219187
153	0x3e16b1e9	0.14716305
154	0x3da81bad	0.08208404
155	0x3d8c0614	0.06837097
156	0x3db5c028	0.088745415
157	0x3d4ad172	0.04951615
158	0x3e8b87c7	0.27252027
159	0x3da835e1	0.082134016
160	0x3da44598	0.080210865
161	0x3d3d705e	0.04624974
162	0x3e449b91	0.19199969
163	0x3e3b0cdc	0.18266624
164	0x3de8ade0	0.11361289
165	0x3e60d8f5	0.21957763
166	0x3c1f105b	0.009708489
167	0x3ddd92b5	0.10818998
168	0x3e8963f5	0.26834074
169	0x3cce124c	0.025155209
170	0x3e0612b8	0.13093078
171	0x3eb46bc4	0.3523847
172	0x3d87af2e	0.0662521
173	0x3c8f742c	0.01751145
174	0x3d99c354	0.07507959
175	0x3db47226	0.088108346
176	0x3ddd3880	0.10801792
177	0x3ee300a7	0.44336435
178	0x3e496441	0.1966715
179	0x3e382523	0.17982917
180	0x3de8a548	0.1135965
181	0x3e6009b3	0.218787
182	0x3ba5f5c0	0.005064696
183	0x3e7d058e	0.2470915
184	0xbc438585	-0.011933689
185	0x3e5d705d	0.21624894
186	0x3e83cb6b	0.25741133
187	0x3e67963a	0.226159
188	0x3df12cba	0.11776109
189	0x3db9bfe1	0.09069801
190	0x3e134869	0.14383091
191	0x3cf2e916	0.02965216
192	0x3e3d6129	0.18494095
193	0x3e13c206	0.14429483
194	0x3c97e71c	0.018542819
195	0x3c5ee79b	0.013605024
196	0x3ce3c204	0.027802475
197	0x3dc9e3e1	0.098579176
198	0xbe3eee63	-0.18645625
199	0xbe53486a	-0.20633093
200	0xbd58529f	-0.05281317
201	0x3d12ffff	0.03588867
202	0xbdfc0544	-0.12305692
203	0xbdacda32	-0.08440055
204	0x3d755e39	0.05990431
205	0xbd31781e	-0.043327443
206	0xbe4a26c9	-0.19741358
207	0x3cf7fff8	0.030273423
208	0xba8e4b44	-0.0010856171
209	0xbd84637d	-0.064642884
210	0x3d378c87	0.04481175
211	0xbe8bc78a	-0.27300674
212	0xbcab4e1a	-0.020911265
213	0xbcb428ba	-0.021992076
214	0xbb9d758f	-0.004805274
215	0xbc11633b	-0.008873756
216	0x3d609882	0.054832943
217	0xbe6407b1	-0.22268559
218	0xbd9469cd	-0.072467424
219	0x3e872392	0.26394325
220	0x3e8fbf72	0.2807575
221	0x3d044ea7	0.03230157
222	0x3e00f711	0.12594248
223	0x3e05a499	0.1305107
224	0x3def82b3	0.11694851
225	0xbe332adf	-0.17496823
226	0x3b630f02	0.0034646397
227	0xbe805fd7	-0.2507312
228	0xbe7805b4	-0.24220926
229	0xbda98b3e	-0.082785115
230	0x3d6409ea	0.055673517
231	0xbbbfef74	-0.0058574025
232	0xbde8207e	-0.113343224
233	0x3cec36e2	0.028834764
234	0x3e89fbb9	0.26949862
235	0x3e46c77a	0.19412032
236	0x3e81ec20	0.25375462
237	0xbd8c5694	-0.06852451
238	0xbe93794c	-0.2880348
239	0xbd5f7f0e	-0.05456453
240	0x3d103db0	0.03521508
241	0x3e336335	0.17518313
242	0xbc9ac268	-0.018891528
243	0x3e622468	0.220842
244	0x3e12c047	0.1433116
245	0xbcdc1148	-0.02686371
246	0x3e8a50a0	0.27014637
247	0x3e26062b	0.1621329
248	0x3e3030be	0.17206094
249	0x3e1aa638	0.1510247
250	0x3d836e45	0.064175166
251	0x3e011504	0.12605673
252	0x3e810763	0.25200948
253	0x3e4cedeb	0.20012634
254	0xbd4e70c2	-0.050400503
255	0x3e68fd2d	0.22752829

lstm_cell.weight_hh f4 [128, 32]
0	0x3e390110	0.18066812
1	0x3e89b804	0.26898205
2	0xbf58eeb5	-0.8473924
3	0x3d17c86b	0.037056368
4	0xbe877f73	-0.26464424
5	0xbea5aec1	-0.3235989
6	0xbe618054	-0.2202161
7	0xbd87379b	-0.06602403
8	0xbe104e5c	-0.14092392
9	0x3dc5658c	0.09638509
10	0x3ccaca6c	0.024754725
11	0xbe871e43	-0.26390275
12	0xbe7f1bf7	-0.24913011
13	0xbdb3ca60	-0.08778834
14	0x3ee9f285	0.4569284
15	0xbf6bdda1	-0.92135054
16	0x3edb7f60	0.42870617
17	0x3de3f1b0	0.111300826
18	0x3e965d30	0.2936797
19	0x3e876587	0.26444647
20	0x3dcb2110	0.099184155
21	0x3ddde854	0.10835329
22	0x3ea3e1d2	0.32008225
23	0x3e573602	0.21016696
24	0x3e239561	0.15974952
25	0x3e84a309	0.25905636
26	0xbe0fe7de	-0.14053294
27	0xbe8eeb56	-0.27913922
28	0x3f15ec13	0.58563346
29	0xbe5c81f6	-0.21533951
30	0x3af93383	0.0019012544
31	0x3e4efeb7	0.20214354
32	0x3e9d35c1	0.30705073
33	0x3d6c32c5	0.057665605
34	0xbf61895b	-0.8810021
35	0xbe47bb19	-0.19504966
36	0xbe8556b2	-0.26042706
37	0xbe453cb0	-0.19261432
38	0xbd818874	-0.063248545
39	0x3ea7d612	0.3278051
40	0xbe952cae	-0.2913565
41	0x3e9cf361	0.30654433
42	0x3e82b4b9	0.25528505
43	0xbe9cf97f	-0.306591
44	0xbd3fd52a	-0.04683415
45	0xbe445ef5	-0.19176848
46	0x3ee3687a	0.44415647
47	0xbf1fcf22	-0.62425435
48	0x3f03c042	0.5146524
49	0x3e97f065	0.29675594
50	0x3e9964aa	0.29959613
51	0x3e25ae19	0.16179694
52	0x3d9abbfb	0.07555386
53	0x3e808928	0.25104642
54	0x3e1df0f5	0.15423949
55	0x3cf436f9	0.02981137
56	0x3e931258	0.28724933
57	0x3e1a324f	0.15058254
58	0xbc946d02	-0.018118385
59	0xbf0a51a6	-0.54030836
60	0x3ebc4402	0.36770636
61	0xbe989374	-0.29799998
62	0x3c6adb8a	0.014334569
63	0x3d1bf677	0.038076844
64	0x3d0bb8ca	0.034111775
65	0x3de1be37	0.11022609
66	0xbec9676e	-0.39336723
67	0xbe84646d	-0.2585787
68	0xbd3b5ddd	-0.045743812
69	0x3c347ea8	0.011016525
70	0x3d3d9a8e	0.046289973
71	0x3f3f600d	0.74755937
72	0xbe752524	-0.2393995
73	0x3e8378aa	0.25677997
74	0x3e997e84	0.29979336
75	0xbe659d40	-0.22423267
76	0xbd8a60c7	-0.0675674
77	0xbe8b8c45	-0.27255455
78	0x3ebcbd24	0.36863053
79	0xbee2d844	-0.44305623
80	0x3ef85dbc	0.48509014
81	0x3e62c822	0.22146657
82	0x3e920ca1	0.2852526
83	0x3e0d0f1c	0.13775295
84	0x3da69e02	0.08135606
85	0xbc5d8999	-0.013521575
86	0x3df7caae	0.12099205
87	0x37a6a429	1.9865185e-05
88	0x3e961676	0.2931401
89	0x3c9f7bd2	0.019468222
90	0x3ccd714b	0.025078436
91	0xbf42d9d3	-0.76113623
92	0x3ebda58b	0.37040362
93	0xbe821456	-0.2540614
94	0x3e8348ff	0.2564163
95	0x3dfa3de7	0.12218838
96	0x3dfd41ff	0.123661034
97	0x3e7caf23	0.24676184
98	0xbf63f49e	-0.8904513
99	0xbe43da1d	-0.19126172
100	0xbe73565d	-0.23763414
101	0xbe1507b5	-0.14553721
102	0xbcbdbed8	-0.02316229
103	0xbd002c9b	-0.03129254
104	0xbe18fa9e	-0.14939353
105	0x3d0c76d4	0.03429301
106	0x3e34e024	0.17663628
107	0xbe2a0d38	-0.16606605
108	0xbe9b7d25	-0.30368915
109	0xbe1adccd	-0.15123291
110	0x3ea93f37	0.33056042
111	0xbf1ed082	-0.6203691
112	0x3ef99c72	0.4875217
113	0x3d9736f3	0.073835276
114	0x3e9782cd	0.2959198
115	0x3e8187df	0.25298974
116	0x3e970501	0.29496005
117	0x3eb24f87	0.348263
118	0x3eb11dc9	0.34593037
119	0x3dc0a48f	0.09406387
120	0x3e45fd2d	0.1933486
121	0x3ead5c71	0.3385959
122	0xbe42ad2c	-0.19011372
123	0xbee12f4f	-0.43981406
124	0x3eaad400	0.33364868
125	0xbd4c0bff	-0.049816128
126	0xbcb213cd	-0.021737957
127	0x3e8dadc2	0.2767163
128	0x3d7acba3	0.06122936
129	0x3e2854e0	0.16438627
130	0xbf455711	-0.7708598
131	0xbe6b2217	-0.22962223
132	0xbe8a530b	-0.27016482
133	0xbe18e26f	-0.14930128
134	0xbd860bc4	-0.06545213
135	0x3e699531	0.22810818
136	0xbe9a60bd	-0.3015193
137	0x3d45cdc5	0.04829194
138	0x3d8e0c77	0.06935971
139	0xbdbeed94	-0.09322658
140	0xbe9f1508	-0.31070733
141	0xbecce243	-0.40016374
142	0x3f0aaab3	0.54166716
143	0xbf284e8b	-0.6574485
144	0x3ee78ef8	0.45226264
145	0x3e2e8012	0.17041042
146	0x3e6f3e66	0.23363647
147	0x3eb05f49	0.34447697
148	0x3e914d6b	0.28379378
149	0x3ed1ae67	0.4095337
150	0x3e1b17f1	0.15145852
151	0x3e9b4132	0.30323178
152	0x3d8427e5	0.06452922
153	0x3ebceaf1	0.36897996
154	0x3c449993	0.011999506
155	0xbee62492	-0.44949776
156	0x3f1732fc	0.5906217
157	0xbe129d2c	-0.14317769
158	0x3dffe7e7	0.12495404
159	0x3e9b5904	0.3034135
160	0x3d12fecd	0.03588753
161	0x3db38c6a	0.08767016
162	0xbf303e45	-0.68845016
163	0xbc10a725	-0.008828913
164	0x3c3de8c6	0.011591142
165	0xbd73124a	-0.059343614
166	0x3c4acbe8	0.012377717
167	0x3db5ee66	0.088833615
168	0xbe85f389	-0.26162365
169	0x3e9d7ee2	0.30760866
170	0x3e93d960	0.2887678
171	0xbc194e90	-0.00935711
172	0xbe44b3c6	-0.19209203
173	0xbea61584	-0.3243829
174	0x3e8592f6	0.26088685
175	0xbf661fc1	-0.898922
176	0x3f2dfcd5	0.67963916
177	0x3e3443b0	0.17603946
178	0x3e093dc0	0.13402462
179	0x3e2cdafc	0.16880411
180	0x3e9b643b	0.30349907
181	0x3ebad1de	0.3648824
182	0x3d842117	0.06451624
183	0x3e5d63a0	0.21620035
184	0x3de3dc5b	0.11126014
185	0x3e2b15ac	0.16707486
186	0xbd815a25	-0.06316022
187	0xbf1fedb4	-0.6247208
188	0x3e4b73ec	0.1986844
189	0xbd66f35e	-0.056384437
190	0xbcaf7043	-0.021415835
191	0x3de61d44	0.11236051
192	0x3d932c9e	0.071862444
193	0xbc02c206	-0.007980829
194	0xbf794b8f	-0.9738092
195	0xbba395ef	-0.0049922387
196	0x3d164b5a	0.036692955
197	0xbe8be8f5	-0.2732617
198	0xbe8682eb	-0.26271757
199	0x3ea30dd8	0.318465
200	0xbe848d3e	-0.2588901
201	0x3e0daaf1	0.1383474
202	0x3c74e78e	0.014947785
203	0xbd4815ca	-0.048848905
204	0xbe99d1ac	-0.3004278
205	0xbe516c02	-0.20451358
206	0x3e9667d4	0.2937609
207	0xbf30ead3	-0.69108313
208	0x3f49009b	0.7851655
209	0x3e85bfc3	0.26122865
210	0x3d15cad4	0.036570385
211	0x3dce69b6	0.100787565
212	0x3defbe89	0.117062636
213	0x3ebc2ecd	0.36754456
214	0x3e5c32b1	0.21503712
215	0x3e7703c6	0.24122533
216	0x3d99d583	0.07511427
217	0x3ee6d6ce	0.45085758
218	0xbdcf3d31	-0.10119093
219	0xbead5a2d	-0.3385786
220	0x3ee3775f	0.4442701
221	0xbe46968a	-0.19393364
222	0x3e057126	0.13031444
223	0x3d5aece5	0.053448576
224	0x3da19d1f	0.078912966
225	0x3e05cade	0.13065669
226	0xbe114454	-0.14186221
227	0xbe2566d3	-0.16152506
228	0xbd2fb8d0	-0.04290086
229	0xbea41ac8	-0.32051682
230	0xbb584089	-0.003299745
231	0x3df2ee11	0.11861814
232	0xbd4ec547	-0.050481107
233	0x3e8180ca	0.2529357
234	0x3e047e46	0.12938794
235	0xbdecc3b6	-0.115607664
236	0xbe7e0bd4	-0.248092
237	0xbde5124a	-0.11185129
238	0x3e5f4762	0.21804574
239	0xbdee6905	-0.11641125
240	0x3f302842	0.6881143
241	0x3e267b72	0.16258028
242	0x3a33b486	0.0006855208
243	0x3e9af0dd	0.3026189
244	0x3e9336d8	0.2875278
245	0x3eac4bf4	0.33651698
246	0x3d5cb8c6	0.05388715
247	0x3e115ef4	0.14196378
248	0x3dde750f	0.10862171
249	0x3e9d3d6b	0.3071092
250	0xbe518208	-0.20459759
251	0xbebe844a	-0.37210304
252	0x3e239cde	0.15977809
253	0xbddafae5	-0.106923856
254	0x3e2adc04	0.16685492
255	0x3ea31f6d	0.31859913

lstm_cell.bias_ih f4 [128]
0	0x402203f1	2.5314906
1	0x404673a8	3.100809
2	0x40343e45	2.8163006
3	0x401bd939	2.4351332
4	0x4020418d	2.504001
5	0x4020ed3d	2.5144799
6	0x402b2e6e	2.6747088
7	0x403b9744	2.9311075
8	0x40267b2d	2.601268
9	0x40153da6	2.3318877
10	0x402aedfb	2.6707752
11	0x402b1ce2	2.6736379
12	0x401ebe89	2.4803793
13	0x403606cf	2.8441656
14	0x402981af	2.6485403
15	0x40330a76	2.7975135
16	0x402cec59	2.7019255
17	0x402c22b2	2.6896176
18	0x401bad8d	2.4324677
19	0x403ccd72	2.9500394
20	0x402720fe	2.6113887
21	0x4026b532	2.6048093
22	0x402f14a3	2.7356346
23	0x401c4e7e	2.4422908
24	0x40422fc7	3.034166
25	0x4023d7bc	2.5600424
26	0x4020e822	2.5141683
27	0x40399c65	2.9001706
28	0x40287815	2.6323292
29	0x4034ddb2	2.8260312
30	0x4019e5d4	2.4046526
31	0x4023c4c6	2.558885
32	0x3e545b51	0.2073796
33	0x3ea419e2	0.32050997
34	0x3e88a079	0.2668493
35	0x3e3e167c	0.18563265
36	0x3e5b01a8	0.2138735
37	0x3c6a2d30	0.014293
38	0x3d877e4a	0.066158846
39	0x3d71b934	0.059014514
40	0x3dcd6260	0.10028529
41	0x3b642816	0.0034813932
42	0x3bf4e6a6	0.0074737845
43	0x3d97509b	0.07388421
44	0x3da9fd83	0.08300307
45	0x3e81148f	0.25210997
46	0x3ec06f2f	0.37584826
47	0x3edbfab4	0.4296471
48	0x3e903611	0.2816625
49	0x3e905b39	0.28194597
50	0x3e1ce7fa	0.15322867
51	0x3e3d2384	0.1847058
52	0x3e49049f	0.19630669
53	0x3e85be71	0.26121858
54	0x3e02ca66	0.12772521
55	0x3cce3171	0.02517006
56	0x3dee38ad	0.11631904
57	0x3e1a71de	0.150825
58	0x3e57a53c	0.21059126
59	0x3ead3cc5	0.33835426
60	0x3db45f8d	0.08807287
61	0x3e18ad53	0.14909868
62	0x3e2872ec	0.16450089
63	0x3d396ddc	0.045270786
64	0x3fbf7195	1.4956537
65	0x3fc35a20	1.5261879
66	0xbfe28889	-1.7697917
67	0xbfaac338	-1.3340826
68	0xbfae23c0	-1.360466
69	0xbfbef74e	-1.4919221
70	0xbf9fab0b	-1.2474073
71	0x3fc43669	1.5329105
72	0xbfbf7759	-1.4958297
73	0x3fb5095f	1.4143485
74	0x3fb3d462	1.4049189
75	0xbfbbe2fc	-1.4678645
76	0xbfade0ec	-1.3584266
77	0xbfc76de2	-1.5580409
78	0x3fca7d90	1.5819569
79	0xbfdf1477	-1.742812
80	0x3fbbe08b	1.46779
81	0x3fae102c	1.3598685
82	0x3fc65020	1.5493202
83	0x3fca0377	1.5782307
84	0x3facac3a	1.3490059
85	0x3fa422c5	1.2823111
86	0x3fa15ec8	1.260705
87	0x3fc76240	1.5576859
88	0x3fbf73dc	1.4957232
89	0x3fb62f40	1.423317
90	0xbfb9f0b1	-1.4526578
91	0xbfcdf6d2	-1.6090949
92	0x3fcdf775	1.6091143
93	0xbfb8b258	-1.4429426
94	0x3fbad870	1.4597301
95	0x3fcb9698	1.5905333
96	0x401406fe	2.3129268
97	0x40218a70	2.5240746
98	0x4038cd84	2.8875437
99	0x4008526f	2.1300313
100	0x4013eb7b	2.3112476
101	0x4023a755	2.5570881
102	0x4023cc75	2.559354
103	0x403f7f60	2.9921494
104	0x40217a9d	2.5231087
105	0x4013efb6	2.3115058
106	0x40266a4b	2.6002376
107	0x4025266f	2.5804708
108	0x401779f4	2.3668184
109	0x402e753a	2.725905
110	0x4030557f	2.7552183
111	0x404120bf	3.0176237
112	0x4027261f	2.6117017
113	0x401ea55d	2.478843
114	0x4024c794	2.5746813
115	0x40349447	2.8215501
116	0x402484fc	2.5706167
117	0x4021b02e	2.5263782
118	0x4024ed3b	2.5769794
119	0x401aaf09	2.4169333
120	0x403dd934	2.966382
121	0x40333125	2.7998745
122	0x400f9b34	2.2438478
123	0x4030a915	2.76032
124	0x40406462	3.0061269
125	0x4025c12a	2.5899148
126	0x400f9564	2.243493
127	0x4018d2ea	2.3878732

lstm_cell.bias_hh f4 [128]
0	0x4015dd1b	2.3416202
1	0x40337190	2.8038063
2	0x4043cc23	3.0593345
3	0x401b8f42	2.4306188
4	0x401ba88e	2.4321628
5	0x40254c86	2.5827956
6	0x401e626e	2.4747577
7	0x403592e3	2.8370903
8	0x402c425d	2.6915505
9	0x40195ada	2.3961701
10	0x40330743	2.7973182
11	0x402597c0	2.587387
12	0x40284c10	2.6296425
13	0x40248b47	2.5710008
14	0x40330fa6	2.79783
15	0x403e2c95	2.971471
16	0x40257a2e	2.5855823
17	0x402ce4a9	2.7014563
18	0x40200375	2.500211
19	0x40338dc6	2.8055282
20	0x40195092	2.3955426
21	0x401d2f70	2.4560204
22	0x402af9ca	2.671496
23	0x40228da9	2.5398962
24	0x403483d2	2.8205457
25	0x4028e38e	2.6388888
26	0x402c3a97	2.691076
27	0x404d4985	3.2076123
28	0x402ba17b	2.681731
29	0x4034071b	2.8129337
30	0x4015c731	2.3402827
31	0x401cebc7	2.4518907
32	0x3d2c5385	0.042071838
33	0x3e9b9414	0.30386412
34	0x3ed5ad51	0.41733792
35	0x3e942b80	0.28939438
36	0x3e921ed3	0.28539142
37	0x3e937f6d	0.28808156
38	0x3e95680b	0.2918094
39	0x3e92e3cf	0.2868943
40	0x3e4d2a9f	0.2003579
41	0x3e070421	0.13185169
42	0x3e9f2735	0.310846
43	0x3e61a673	0.22036152
44	0x3e1a4d0d	0.15068455
45	0x3e35894d	0.17728157
46	0x3e01ac94	0.1266349
47	0x3ee7aafa	0.45247632
48	0x3d883242	0.06650211
49	0xbc709f1d	-0.014686373
50	0x3d97cf67	0.07412606
51	0x3e4ad67c	0.19808382
52	0x3cdd6e53	0.027030146
53	0x3e968240	0.29396248
54	0x3e2982ad	0.16553755
55	0x3e86e5dd	0.26347247
56	0x3e8b116b	0.27161726
57	0x3db1689f	0.08662533
58	0xbc9e5b6f	-0.019330708
59	0x3e5b8b02	0.21439746
60	0x3ebfd9e1	0.37470916
61	0x3df7e384	0.12103942
62	0x3e346e41	0.17620184
63	0x3da5673c	0.08076331
64	0x3fbcfb67	1.4764222
65	0x3fc1cf08	1.5141306
66	0xbfc20369	-1.5157291
67	0xbfba0cdf	-1.4535178
68	0xbfbbd15f	-1.467327
69	0xbfbbefe2	-1.4682581
70	0xbfb5b8b2	-1.419699
71	0x3fdb1737	1.711646
72	0xbfb0294b	-1.3762602
73	0x3fb9da37	1.4519719
74	0x3fd04bc8	1.6273127
75	0xbfd5273f	-1.6652602
76	0xbfb9241f	-1.4464148
77	0xbfb9df6c	-1.4521308
78	0x3fc30e4e	1.523874
79	0xbfcbc74b	-1.5920194
80	0x3fbfb141	1.4975969
81	0x3fbd3332	1.4781249
82	0x3fc58da2	1.5433848
83	0x3fd40a69	1.6565677
84	0x3fa9f4fd	1.327789
85	0x3fca3182	1.5796359
86	0x3fa6e2be	1.3037946
87	0x3fbcd74a	1.4753201
88	0x3fdabdea	1.7089207
89	0x3fa7c992	1.3108389
90	0xbf9aba48	-1.2088099
91	0xbfd44ac7	-1.658532
92	0x3fc4d589	1.5377666
93	0xbfbc9377	-1.4732503
94	0x3fbe171d	1.4850804
95	0x3faeb504	1.3648992
96	0x40163283	2.346833
97	0x40199ada	2.4000764
98	0x40435760	3.052208
99	0x401390da	2.305716
100	0x401f4b42	2.4889684
101	0x401a7ec6	2.4139876
102	0x401927d3	2.3930557
103	0x4042cd2a	3.0437722
104	0x401132ba	2.268721
105	0x4011959d	2.2747567
106	0x4028072f	2.6254385
107	0x40311b47	2.7672899
108	0x40169596	2.35288
109	0x4038ebc2	2.8893895
110	0x4033c161	2.808678
111	0x4038d38f	2.8879125
112	0x402b4d3f	2.6765897
113	0x4018b1ec	2.3858595
114	0x40148a64	2.3209467
115	0x403cb503	2.948548
116	0x4017203b	2.3613422
117	0x402474f0	2.5696373
118	0x401dcf1f	2.4657667
119	0x402249e9	2.535761
120	0x40395a66	2.8961425
121	0x402d1870	2.7046165
122	0x4012aec9	2.291918
123	0x40377f3d	2.867141
124	0x4045b5f9	3.0892317
125	0x402e808e	2.7265964
126	0x4010f278	2.264799
127	0x40190970	2.391201

action_head.weight f4 [2, 32]
0	0xbdcf7665	-0.10130004
1	0x3db1a8a6	0.08674745
2	0x3d4302e8	0.047610193
3	0x3dd6c5f2	0.10486974
4	0xbc039c66	-0.008032894
5	0x3e0a4820	0.13504076
6	0xbd4c6ca6	-0.049908303
7	0xbbcd4019	-0.0062637446
8	0x3d8d87ef	0.06910693
9	0xbdc34b6b	-0.09535869
10	0x3e166567	0.1468712
11	0xbd21d89d	-0.03951322
12	0xbe06836c	-0.13136071
13	0xbce9e16d	-0.028549874
14	0xbe1327b9	-0.14370622
15	0xbe336635	-0.17519458
16	0xbd607567	-0.054799464
17	0xbe1670ce	-0.14691469
18	0xbd896e24	-0.06710461
19	0xbd1d9903	-0.038476
20	0xbe05f52b	-0.13081805
21	0x3db05c05	0.08611301
22	0xbc6e343d	-0.014538822
23	0xbddb7c68	-0.10717088
24	0x3e303337	0.17207037
25	0x3df3bc43	0.119011424
26	0xbe3986d9	-0.18117847
27	0x3dca5fe2	0.098815694
28	0x3da3f1ef	0.080051295
29	0x3deed9f3	0.11662664
30	0xbcc0aadb	-0.02351897
31	0x3e1ada8a	0.15122429
32	0x3d313b2c	0.04326932
33	0x3e0adeff	0.13561629
34	0x3d9e92e0	0.07742858
35	0xbd045c65	-0.032314677
36	0x3df26cca	0.11837156
37	0x3e15e202	0.14636996
38	0x3ca73469	0.020410733
39	0x3dc13b5f	0.09435152
40	0x3e4b05bf	0.1982641
41	0x3def1c4c	0.11675319
42	0xbdc325ee	-0.09528719
43	0xbe08e137	-0.13367163
44	0xbcfe0337	-0.031007392
45	0x3da4e13a	0.08050771
46	0xbc8fc1b0	-0.017548412
47	0x3dfcab1a	0.123373225
48	0x3c863a77	0.0163853
49	0xbd4d2e02	-0.050092705
50	0x3d712d3d	0.058881033
51	0xbdd18f6e	-0.10232435
52	0xbdd3dd7e	-0.10344981
53	0x3c841ba3	0.01612646
54	0x3dee91ea	0.11648925
55	0x3de16281	0.11005116
56	0xbe269c3f	-0.1627054
57	0x3dbacf74	0.091216
58	0xbdda0665	-0.10645751
59	0x3d136830	0.035988033
60	0x3e16d49a	0.14729539
61	0x3dba8317	0.09107035
62	0xbdb3be53	-0.08776536
63	0x3e058de6	0.13042411

action_head.bias f4 [2]
0	0x3e3b0c03	0.18266301
1	0x3e0967a9	0.1341845

value_head.weight f4 [1, 32]
0	0x3e796295	0.24354012
1	0x3ebc7885	0.368107
2	0xbe8af336	-0.2713868
3	0xbe2ef233	-0.17084579
4	0xbe946d2f	-0.2898955
5	0xbe85db61	-0.26143935
6	0xbea1fe0f	-0.31639144
7	0x3e76d2d1	0.24103858
8	0xbe8a2c1f	-0.26986787
9	0x3e4a0622	0.19728902
10	0x3e905f8a	0.2819789
11	0xbe98ad5b	-0.2981976
12	0xbe57bcc3	-0.210681
13	0xbea30684	-0.3184091
14	0x3e868f89	0.26281384
15	0xbe91ff5e	-0.28515142
16	0x3ddb554a	0.10709627
17	0x3eb522ce	0.35378116
18	0x3eb5282f	0.3538222
19	0x3e9cc2a4	0.3061725
20	0x3e77185f	0.2413039
21	0x3e25273d	0.1612825
22	0x3e665047	0.22491561
23	0x3eab7087	0.3348429
24	0x3ea74df8	0.32676673
25	0x3e480e4f	0.19536708
26	0xbeab6881	-0.33478168
27	0xbe9fac9b	-0.31186375
28	0x3e7f5ac0	0.24936962
29	0xbe76300d	-0.24041767
30	0x3e805b4b	0.2506965
31	0x3ea7ea77	0.3279607

exp_avg f4 [128, 3]
0	0xb23a0649	-1.0828054e-08
1	0xb2791731	-1.4498981e-08
2	0xb0b51098	-1.31742e-09
3	0xb185ac7c	-3.8904187e-09
4	0xb1ad19f1	-5.037912e-09
5	0xafdb1dd9	-3.9857076e-10
6	0xb1ef6ebf	-6.968406e-09
7	0xb21a99d5	-8.998957e-09
8	0xb048f82f	-7.3112266e-10
9	0xb206b004	-7.839848e-09
10	0xb22690b3	-9.6953725e-09
11	0xb0960e42	-1.0917989e-09
12	0xb1f70f1c	-7.190364e-09
13	0xb22d3638	-1.0082253e-08
14	0xb05b17cd	-7.970556e-10
15	0xb2b3d132	-2.0933474e-08
16	0xb2c483fa	-2.2877419e-08
17	0xb1071b6e	-1.9660678e-09
18	0xb269cc32	-1.3608814e-08
19	0xb2890ecd	-1.595563e-08
20	0xb0aebb99	-1.2713485e-09
21	0xb28b4461	-1.6212825e-08
22	0xb2c29737	-2.2653337e-08
23	0xb12090ef	-2.336545e-09
24	0xb1968457	-4.38062e-09
25	0xb1cf5846	-6.0345284e-09
26	0xaff73345	-4.4965467e-10
27	0xb29b5a23	-1.8085364e-08
28	0xb2d61372	-2.4921722e-08
29	0xb11c454a	-2.2740374e-09
30	0xb20bff41	-8.148903e-09
31	0xb2127f0e	-8.527207e-09
32	0xb0732bb0	-8.846497e-10
33	0xb2b53bfd	-2.1098453e-08
34	0xb2fa12c3	-2.9112362e-08
35	0xb1457254	-2.873226e-09
36	0xb22a38af	-9.908191e-09
37	0xb21ed984	-9.246268e-09
38	0xb08b2b3e	-1.0125871e-09
39	0xb29484cd	-1.7289858e-08
40	0xb2ce1e21	-2.3995257e-08
41	0xb0ec3fb8	-1.718937e-09
42	0xb2d1a061	-2.4403734e-08
43	0xb31dc8f6	-3.6737184e-08
44	0xb14a9bb2	-2.9483371e-09
45	0xb2265c99	-9.683526e-09
46	0xb25eb4ca	-1.2963207e-08
47	0xb074a030	-8.8994323e-10
48	0xb1c1ed34	-5.644006e-09
49	0xb21027f3	-8.390987e-09
50	0xb06a6e15	-8.528514e-10
51	0xb24d164b	-1.1937639e-08
52	0xb25c7b7a	-1.2833761e-08
53	0xb0a52a9a	-1.2017438e-09
54	0xb2c16dfa	-2.2518169e-08
55	0xb2d3c043	-2.4651063e-08
56	0xb1488d3a	-2.9184108e-09
57	0xb25c757f	-1.2832401e-08
58	0xb2a1165e	-1.8753038e-08
59	0xb0e2f09e	-1.6512052e-09
60	0xb247007b	-1.1583434e-08
61	0xb2936c1b	-1.7162213e-08
62	0xb0b0ce6a	-1.2864352e-09
63	0xb249e9b8	-1.1752881e-08
64	0xb28a1e8c	-1.6079206e-08
65	0xb0957e8d	-1.0877145e-09
66	0xb23e7577	-1.1086164e-08
67	0xb24ccd5b	-1.1921055e-08
68	0xb0a86f9a	-1.2255328e-09
69	0xb22d41c2	-1.0084877e-08
70	0xb28216a6	-1.5144291e-08
71	0xb0baea20	-1.3599823e-09
72	0xb1fae1e1	-7.301637e-09
73	0xb2084a47	-7.933131e-09
74	0xb0266330	-6.05314e-10
75	0xb289df5e	-1.6050475e-08
76	0xb29d8793	-1.8338858e-08
77	0xb1033ce9	-1.9097632e-09
78	0xb2000e33	-7.453809e-09
79	0xb239342a	-1.0780278e-08
80	0xb0547239	-7.728747e-10
81	0xb287c499	-1.580547e-08
82	0xb28f16fd	-1.6657845e-08
83	0xb0f2fb42	-1.7679229e-09
84	0xb2fc16e7	-2.9347076e-08
85	0xb30ae664	-3.2340168e-08
86	0xb1669954	-3.3556562e-09
87	0xb2131c8e	-8.563019e-09
88	0xb22becb9	-1.00073345e-08
89	0xb08e64c2	-1.0360497e-09
90	0xb25f9d65	-1.3016096e-08
91	0xb2a8815f	-1.9616605e-08
92	0xb0a96569	-1.2325191e-09
93	0xb2c9f390	-2.3510239e-08
94	0xb2d21966	-2.4458767e-08
95	0xb14d6bd4	-2.989272e-09
96	0xb492e945	-2.7364345e-07
97	0xb4ad620b	-3.2295097e-07
98	0xb3024041	-3.0326422e-08
99	0xb457cd54	-2.0098133e-07
100	0xb48aac92	-2.5830064e-07
101	0xb2b4151b	-2.0964356e-08
102	0xb3ec32b8	-1.0998832e-07
103	0xb42a7028	-1.5873286e-07
104	0xb243251f	-1.1358934e-08
105	0xb4461666	-1.8448335e-07
106	0xb47416af	-2.2732523e-07
107	0xb2f7b32a	-2.8836059e-08
108	0xb4a99996	-3.1590451e-07
109	0xb4c268e3	-3.621163e-07
110	0xb32df11e	-4.0498996e-08
111	0xb4d42889	-3.951757e-07
112	0xb5050779	-4.9557235e-07
113	0xb32d37c9	-4.0330438e-08
114	0xb4e326f1	-4.2310378e-07
115	0xb51459f6	-5.5265207e-07
116	0xb3439fce	-4.5547317e-08
117	0xb4ad8e7a	-3.2327426e-07
118	0xb4db56c6	-4.0855065e-07
119	0xb33c5af9	-4.38549e-08
120	0xb474a73b	-2.2785109e-07
121	0xb4952ea5	-2.778735e-07
122	0xb2ea6577	-2.7287326e-08
123	0xb4a7ff94	-3.1292132e-07
124	0xb4dc2900	-4.1008025e-07
125	0xb35adde4	-5.095889e-08
126	0xb4924a50	-2.724869e-07
127	0xb4c97878	-3.752682e-07
128	0xb30a3ae3	-3.2184186e-08
129	0xb501b8fb	-4.8325427e-07
130	0xb540c488	-7.1811564e-07
131	0xb387bc05	-6.320628e-08
132	0xb456e62f	-2.0014043e-07
133	0xb49b863b	-2.8968665e-07
134	0xb2c408e8	-2.2821453e-08
135	0xb4b8f3c7	-3.4450042e-07
136	0xb4dcb156	-4.1107222e-07
137	0xb324e8f4	-3.8396095e-08
138	0xb4ecf68a	-4.4137806e-07
139	0xb511e571	-5.435059e-07
140	0xb35c2a27	-5.126108e-08
141	0xb4216361	-1.5030447e-07
142	0xb47c899f	-2.3519395e-07
143	0xb26fd81c	-1.39607685e-08
144	0xb3d35f96	-9.84284e-08
145	0xb41887e2	-1.4205537e-07
146	0xb26ea33c	-1.38905385e-08
147	0xb4cd1da0	-3.820578e-07
148	0xb4cec180	-3.851128e-07
149	0xb3531e27	-4.915469e-08
150	0xb5151d2b	-5.554927e-07
151	0xb56c2c01	-8.7980885e-07
152	0xb3828e60	-6.0794946e-08
153	0xb4ca016d	-3.762647e-07
154	0xb5045fbe	-4.9313155e-07
155	0xb3435bc2	-4.548543e-08
156	0xb4c0bfcd	-3.590234e-07
157	0xb4fc239b	-4.6964564e-07
158	0xb3233e72	-3.800819e-08
159	0xb486cac7	-2.5106985e-07
160	0xb4a41eba	-3.0569737e-07
161	0xb301b42e	-3.0199026e-08
162	0xb4b65e33	-3.396868e-07
163	0xb4e56d60	-4.2734155e-07
164	0xb340af30	-4.4862816e-08
165	0xb4bf2bce	-3.5608394e-07
166	0xb513af78	-5.501711e-07
167	0xb34f3063	-4.823995e-08
168	0xb48d62a5	-2.633507e-07
169	0xb4dccdcc	-4.112793e-07
170	0xb2e44d80	-2.6577936e-08
171	0xb483ff45	-2.4586384e-07
172	0xb4d6989e	-3.997165e-07
173	0xb30afc81	-3.236028e-08
174	0xb50c4c9d	-5.226555e-07
175	0xb52abadb	-6.3601846e-07
176	0xb381943d	-6.033995e-08
177	0xb47cc577	-2.3541166e-07
178	0xb4ca374e	-3.7665671e-07
179	0xb2f0e0a5	-2.8041834e-08
180	0xb4cb1ecb	-3.78341e-07
181	0xb4dfdb36	-4.1696484e-07
182	0xb35eca1a	-5.1872213e-08
183	0xb491dbec	-2.716837e-07
184	0xb4ecae54	-4.4085266e-07
185	0xb304a563	-3.0884063e-08
186	0xb4b1504e	-3.3027248e-07
187	0xb4e1373e	-4.194971e-07
188	0xb3234737	-3.8016164e-08
189	0xb53385cf	-6.6877413e-07
190	0xb5503595	-7.756401e-07
191	0xb3b72713	-8.528709e-08
192	0xb227032a	-9.721399e-09
193	0xb263f6cb	-1.3269253e-08
194	0xb0b36165	-1.3051645e-09
195	0xb20167f4	-7.5324245e-09
196	0xb2207337	-9.339423e-09
197	0xb058e121	-7.890027e-10
198	0x31e4e28b	6.6614283e-09
199	0x3209ade9	8.013992e-09
200	0x304c1a5c	7.4252227e-10
201	0x31765f78	3.585198e-09
202	0x3168048e	3.3763032e-09
203	0x2fe45588	4.1533732e-10
204	0x3170633a	3.4981e-09
205	0x317ae991	3.6512555e-09
206	0x2f94fb83	2.7099753e-10
207	0x3277bccd	1.4420221e-08
208	0x32928dfa	1.70612e-08
209	0x30d90029	1.5788874e-09
210	0x33342632	4.1944254e-08
211	0x32ed3c82	2.7617947e-08
212	0x31a103f0	4.6861643e-09
213	0xb047c333	-7.2673173e-10
214	0xb0806227	-9.341122e-10
215	0xaec2c3ba	-8.8568666e-11
216	0x32251fb6	9.611474e-09
217	0x31ee7d8c	6.9409847e-09
218	0x307dbda1	9.231034e-10
219	0xb2182af9	-8.857335e-09
220	0xb23af1de	-1.0881619e-08
221	0xb0ab4225	-1.2460687e-09
222	0xb1c0d61c	-5.612277e-09
223	0xb1f15e96	-7.0247763e-09
224	0xb005741b	-4.8550114e-10
225	0x310dbcfb	2.0625623e-09
226	0x318588a8	3.8863455e-09
227	0x2f4185e0	1.760081e-10
228	0x322430c1	9.557142e-09
229	0x328a13df	1.607435e-08
230	0x30ad1c6e	1.2595487e-09
231	0x32f4650a	2.8451286e-08
232	0x32f14bd0	2.8090568e-08
233	0x31728117	3.5289014e-09
234	0xb171833d	-3.5144716e-09
235	0xb1b7dbd0	-5.3509908e-09
236	0xafa4dc1d	-2.9987826e-10
237	0x32a73b4f	1.946833e-08
238	0x32845a35	1.5407844e-08
239	0x310002e9	1.8628106e-09
240	0xb2e6cece	-2.6869568e-08
241	0xb2d67960	-2.4968074e-08
242	0xb187f738	-3.9571226e-09
243	0xb1b24e2d	-5.1893694e-09
244	0xb201606e	-7.530714e-09
245	0xb03f4feb	-6.9598965e-10
246	0xb104fd52	-1.9352524e-09
247	0xb15d6021	-3.2214376e-09
248	0xaf4c5287	-1.8583012e-10
249	0xb01dc179	-5.739121e-10
250	0xb06e506b	-8.6698176e-10
251	0xae6df5db	-5.4105925e-11
252	0xb294b406	-1.7311333e-08
253	0xb2cadfb4	-2.3617623e-08
254	0xb1278181	-2.4375313e-09
255	0xb1a74949	-4.8686712e-09

exp_avg_sq f4 [128, 3]
0	0x3250a9fc	1.2145843e-08
1	0x3274b5a0	1.4243966e-08
2	0x31e14508	6.55621e-09
3	0x3118b477	2.2221494e-09
4	0x3148eb7d	2.923769e-09
5	0x30ba0ceb	1.3536953e-09
6	0x30376f27	6.673297e-10
7	0x305df8fe	8.075317e-10
8	0x2fb621f8	3.3129743e-10
9	0x319ee003	4.6238724e-09
10	0x32207a6e	9.341063e-09
11	0x318cfe97	4.10348e-09
12	0x3258506b	1.259114e-08
13	0x32d3f496	2.4674858e-08
14	0x3276129e	1.4323318e-08
15	0x31f7ddaf	7.2138486e-09
16	0x3238c4b3	1.0754934e-08
17	0x318ec86d	4.1555297e-09
18	0x319a5935	4.4921316e-09
19	0x33183e1c	3.5446746e-08
20	0x3208ba95	7.958666e-09
21	0x30e23a76	1.646028e-09
22	0x31132440	2.1411921e-09
23	0x30b237ab	1.2967026e-09
24	0x3148e21c	2.9232359e-09
25	0x325690f4	1.2489398e-08
26	0x318fcc8c	4.185102e-09
27	0x324197af	1.1268567e-08
28	0x328959d5	1.598975e-08
29	0x31f2407a	7.050457e-09
30	0x318a9a2b	4.0338555e-09
31	0x31ba5337	5.422773e-09
32	0x314e5009	3.002244e-09
33	0x320eb504	8.306646e-09
34	0x323e1f69	1.1066597e-08
35	0x31dde369	6.4578e-09
36	0x32043386	7.695126e-09
37	0x31a5ba6b	4.8233253e-09
38	0x31222439	2.3594693e-09
39	0x3186ce26	3.9233496e-09
40	0x322af8a7	9.951839e-09
41	0x312a06e3	2.474217e-09
42	0x318acf40	4.03989e-09
43	0x31d83eee	6.2935817e-09
44	0x316d2bf2	3.451302e-09
45	0x30181c14	5.533718e-10
46	0x3083c796	9.58823e-10
47	0x2fab1c1b	3.112469e-10
48	0x2f95b9a5	2.723485e-10
49	0x302692fc	6.0599326e-10
50	0x2f573f66	1.957666e-10
51	0x32505e8e	1.2128693e-08
52	0x323af85b	1.0883094e-08
53	0x319c71a5	4.5531174e-09
54	0x32d4d904	2.4778736e-08
55	0x33026eb7	3.036868e-08
56	0x328d3091	1.6436646e-08
57	0x31405ee5	2.7993619e-09
58	0x3190d6af	4.2153583e-09
59	0x31171ffa	2.1991569e-09
60	0x3235b6b5	1.0577129e-08
61	0x324cae77	1.19140315e-08
62	0x3189056b	3.9878407e-09
63	0x3183dbac	3.8375756e-09
64	0x3190c3e4	4.2132218e-09
65	0x3113373f	2.142272e-09
66	0x3114201e	2.155509e-09
67	0x317c576d	3.6720522e-09
68	0x307dd6d4	9.2346153e-10
69	0x32b75e81	2.134698e-08
70	0x32ba9c3b	2.1724295e-08
71	0x327a7578	1.45786245e-08
72	0x31837c27	3.8267163e-09
73	0x3126297f	2.4179767e-09
74	0x30f1dd57	1.7597966e-09
75	0x31907b5d	4.2049764e-09
76	0x3134da9d	2.6317715e-09
77	0x311b2a4c	2.2579512e-09
78	0x3207d163	7.905643e-09
79	0x32c52575	2.2950852e-08
80	0x3267025f	1.3446509e-08
81	0x309f9597	1.1611289e-09
82	0x30b19499	1.2920679e-09
83	0x304126c1	7.0268064e-10
84	0x316b425f	3.4234728e-09
85	0x31f33363	7.078073e-09
86	0x3169f51f	3.4045298e-09
87	0x3157f7f4	3.1427563e-09
88	0x318272e5	3.79656e-09
89	0x3132ca85	2.6017528e-09
90	0x324960c6	1.1721744e-08
91	0x32ec7eaf	2.7531625e-08
92	0x32235146	9.506328e-09
93	0x3295df95	1.7447556e-08
94	0x32e47713	2.6596842e-08
95	0x3275e9af	1.431401e-08
96	0x328e60d8	1.6575015e-08
97	0x32b475c4	2.1008312e-08
98	0x322a7007	9.920774e-09
99	0x31941cda	4.310647e-09
100	0x31c570ed	5.7462928e-09
101	0x311f213c	2.3156437e-09
102	0x2f898884	2.5017155e-10
103	0x2fdf800a	4.065444e-10
104	0x2f594ce9	1.9763359e-10
105	0x324b7e98	1.1844939e-08
106	0x326812f7	1.3508489e-08
107	0x3205381d	7.754378e-09
108	0x32d00f0e	2.4221233e-08
109	0x32f7f00e	2.8863749e-08
110	0x328835fe	1.5857037e-08
111	0x3258f611	1.2628804e-08
112	0x32a3a676	1.9051395e-08
113	0x31fdf1f3	7.3907755e-09
114	0x32e69508	2.6843296e-08
115	0x33128050	3.4109974e-08
116	0x3284499f	1.5400301e-08
117	0x309dbd1e	1.1477004e-09
118	0x30d10d63	1.5210556e-09
119	0x305a55c5	7.9429824e-10
120	0x32755fc8	1.4282655e-08
121	0x328206b6	1.5137044e-08
122	0x32142c4d	8.624807e-09
123	0x32880f9e	1.5839586e-08
124	0x32c61fec	2.306475e-08
125	0x3240c17d	1.1219865e-08
126	0x31d0cf44	6.07716e-09
127	0x32302db3	1.0254939e-08
128	0x319eefec	4.625681e-09
129	0x31d97885	6.3292327e-09
130	0x3261f8e1	1.3153312e-08
131	0x31c7261f	5.795996e-09
132	0x32283eaa	9.793135e-09
133	0x3297f781	1.7691265e-08
134	0x32186a73	8.871768e-09
135	0x320f02cf	8.324334e-09
136	0x325a74cf	1.2715829e-08
137	0x31baa846	5.432443e-09
138	0x3129b2b5	2.469432e-09
139	0x31a60ede	4.832926e-09
140	0x310fd8a9	2.0932396e-09
141	0x2fcc2198	3.7131254e-10
142	0x300964eb	4.998372e-10
143	0x2f7f0db3	2.3196982e-10
144	0x2fac9274	3.139068e-10
145	0x2f92673e	2.6630603e-10
146	0x2f35e5f4	1.654355e-10
147	0x329073a3	1.6816392e-08
148	0x32c8da49	2.3382329e-08
149	0x32494956	1.17164145e-08
150	0x32ae06ad	2.0259302e-08
151	0x33180049	3.5390517e-08
152	0x32701437	1.3974435e-08
153	0x3129b7f9	2.4697313e-09
154	0x319587ec	4.3519233e-09
155	0x3115423a	2.172e-09
156	0x3281a158	1.5090947e-08
157	0x32d04686	2.4246457e-08
158	0x323502df	1.0536239e-08
159	0x311d9dd7	2.2936228e-09
160	0x3168e958	3.3893084e-09
161	0x30c551a2	1.4356838e-09
162	0x3217e3e3	8.841172e-09
163	0x3286cb57	1.5692121e-08
164	0x31d89cca	6.3042522e-09
165	0x32a2459c	1.8890937e-08
166	0x331a4f86	3.5928245e-08
167	0x32892273	1.5964565e-08
168	0x3132f90e	2.604398e-09
169	0x31a3ff5d	4.772956e-09
170	0x30f58a5c	1.786542e-09
171	0x3172e214	3.5344145e-09
172	0x31fb2d05	7.3101796e-09
173	0x313ff48b	2.7933165e-09
174	0x3316844f	3.504493e-08
175	0x33412e77	4.4978574e-08
176	0x32aafab3	1.990461e-08
177	0x3020e9f0	5.8540106e-10
178	0x305b0ca1	7.968968e-10
179	0x2fcf4622	3.7702913e-10
180	0x3150a3f1	3.0361174e-09
181	0x3186dbfb	3.924922e-09
182	0x3110cd13	2.107133e-09
183	0x317878db	3.6157448e-09
184	0x32049b2d	7.718694e-09
185	0x313b42a6	2.7249967e-09
186	0x32ba52a6	2.1690834e-08
187	0x32f721ba	2.8769922e-08
188	0x326f48b1	1.3928159e-08
189	0x32e1c923	2.6284914e-08
190	0x33234529	3.8014296e-08
191	0x329b397a	1.8070512e-08
192	0x3410c583	1.34829e-07
193	0x34462521	1.8453694e-07
194	0x33d4d86a	9.911385e-08
195	0x34815e33	2.409666e-07
196	0x348ab65e	2.5837193e-07
197	0x3418405b	1.4179516e-07
198	0x32a2e824	1.8964847e-08
199	0x32a7639f	1.9486661e-08
200	0x322fb4d6	1.0227458e-08
201	0x34290e4a	1.574455e-07
202	0x341985f7	1.4297972e-07
203	0x33a99f08	7.8986034e-08
204	0x34e6314e	4.2876712e-07
205	0x34d1b14b	3.905828e-07
206	0x34604d92	2.0889846e-07
207	0x3428ea47	1.5731449e-07
208	0x3482eb98	2.4385804e-07
209	0x340288e8	1.2157e-07
210	0x3582e244	9.751607e-07
211	0x358e03b1	1.0580899e-06
212	0x35313ddb	6.602765e-07
213	0x3340e4a9	4.491145e-08
214	0x33405747	4.4782862e-08
215	0x32ba599f	2.1694005e-08
216	0x34b70c36	3.409529e-07
217	0x34874a96	2.5199978e-07
218	0x34306bb2	1.6430457e-07
219	0x3415ecbe	1.3962833e-07
220	0x34303772	1.6411448e-07
221	0x33cc3048	9.5082726e-08
222	0x33ff9d41	1.1902967e-07
223	0x34438b81	1.8211541e-07
224	0x33a850c8	7.837804e-08
225	0x33cb9849	9.4806246e-08
226	0x33efb3db	1.116202e-07
227	0x335a7d11	5.0870828e-08
228	0x34131e85	1.3701545e-07
229	0x34b5c2f0	3.3855713e-07
230	0x342b4817	1.5951842e-07
231	0x3462df0c	2.1129034e-07
232	0x348bfc29	2.6074238e-07
233	0x3419215b	1.426137e-07
234	0x3392ac9a	6.830051e-08
235	0x33b0505c	8.210256e-08
236	0x3333f26e	4.1897174e-08
237	0x32b7b954	2.1388281e-08
238	0x327de33b	1.4778204e-08
239	0x32255c77	9.625288e-09
240	0x32ef696f	2.7871208e-08
241	0x32ad81db	2.0198902e-08
242	0x325a2722	1.2698168e-08
243	0x34dd8f9b	4.1268945e-07
244	0x3543ed0e	7.298812e-07
245	0x34d0e171	3.890705e-07
246	0x340c29be	1.3053702e-07
247	0x34861480	2.497436e-07
248	0x33bb51e2	8.7227605e-08
249	0x3380063b	5.961598e-08
250	0x337c9f2a	5.881808e-08
251	0x3306c85f	3.1381543e-08
252	0x34fdd407	4.7279192e-07
253	0x35225cba	6.048464e-07
254	0x34bb36c3	3.487131e-07
255	0x33a48b33	7.662165e-08

exp_avg f4 [128, 32]
0	0xb2a43e87	-1.9120547e-08
1	0xb2a5171e	-1.921904e-08
2	0x32a5fba3	1.932296e-08
3	0x32a3a7ef	1.9052065e-08
4	0x32a45312	1.9129889e-08
5	0x32a4c530	1.9181783e-08
6	0x32a464ba	1.9137918e-08
7	0xb2a5f8bf	-1.9321645e-08
8	0x32a48ef3	1.9157119e-08
9	0xb2a3ea02	-1.9082112e-08
10	0xb2a5406b	-1.9237822e-08
11	0x32a55704	1.9248098e-08
12	0x32a449b1	1.9125624e-08
13	0x32a57d59	1.926553e-08
14	0xb2a58c0b	-1.9272212e-08
15	0x32a5f6a4	1.9320687e-08
16	0xb2a52b67	-1.9228265e-08
17	0xb2a4a706	-1.9168066e-08
18	0xb2a4b2e1	-1.9173457e-08
19	0xb2a5d886	-1.9306992e-08
20	0xb2a44ec5	-1.9127933e-08
21	0xb2a4c64e	-1.9182291e-08
22	0xb2a46926	-1.9139929e-08
23	0xb2a4bfba	-1.91793e-08
24	0xb2a5e63f	-1.9313232e-08
25	0xb2a500f0	-1.9208954e-08
26	0x32a3d5c9	1.9072916e-08
27	0x32a5deed	1.9309903e-08
28	0xb2a5c632	-1.9298657e-08
29	0x32a546cb	1.9240721e-08
30	0xb2a3e17e	-1.907824e-08
31	0xb2a47bdb	-1.9148436e-08
32	0xb1e7788e	-6.7366903e-09
33	0xb1e8aa82	-6.771473e-09
34	0x31e9ed56	6.8081745e-09
35	0x31e6a3d2	6.712505e-09
36	0x31e79595	6.7399903e-09
37	0x31e836cc	6.7583183e-09
38	0x31e7ae8c	6.7428285e-09
39	0xb1e9e943	-6.8077113e-09
40	0x31e7ea29	6.7496058e-09
41	0xb1e7012d	-6.7231185e-09
42	0xb1e8e4df	-6.7781083e-09
43	0x31e904cc	6.781738e-09
44	0x31e78856	6.7384844e-09
45	0x31e93af3	6.7878942e-09
46	0xb1e94fb7	-6.790255e-09
47	0x31e9e64b	6.8073738e-09
48	0xb1e8c732	-6.7747346e-09
49	0xb1e80c2f	-6.753474e-09
50	0xb1e81cec	-6.7553767e-09
51	0xb1e9bbc0	-6.802537e-09
52	0xb1e78f88	-6.7393024e-09
53	0xb1e83863	-6.758499e-09
54	0xb1e7b4d0	-6.743541e-09
55	0xb1e82f13	-6.7574404e-09
56	0xb1e9cf22	-6.8047408e-09
57	0xb1e88b3a	-6.767917e-09
58	0x31e6e498	6.719869e-09
59	0x31e9c4c7	6.8035635e-09
60	0xb1e9a1e0	-6.7995956e-09
61	0x31e8ede3	6.7791333e-09
62	0xb1e6f523	-6.72175e-09
63	0xb1e7cf30	-6.7465393e-09
64	0xb24f5e20	-1.2070387e-08
65	0xb2506e08	-1.2132212e-08
66	0x32518cd8	1.2197425e-08
67	0x324ea118	1.2027407e-08
68	0x324f77e0	1.2076242e-08
69	0x32500724	1.2108817e-08
70	0x324f8e01	1.2081274e-08
71	0xb2518933	-1.2196597e-08
72	0x324fc315	1.2093342e-08
73	0xb24ef402	-1.2046259e-08
74	0xb250a1d7	-1.2143992e-08
75	0x3250be2f	1.2150436e-08
76	0x324f6c20	1.2073571e-08
77	0x3250ee49	1.2161373e-08
78	0xb25100be	-1.216557e-08
79	0x32518695	1.21960015e-08
80	0xb250876c	-1.2137985e-08
81	0xb24fe149	-1.210021e-08
82	0xb24ff027	-1.210359e-08
83	0xb25160c7	-1.2187406e-08
84	0xb24f726e	-1.2075004e-08
85	0xb2500882	-1.2109128e-08
86	0xb24f9388	-1.20825305e-08
87	0xb250004b	-1.210726e-08
88	0xb25171ff	-1.2191321e-08
89	0xb250520f	-1.2125851e-08
90	0x324eda9e	1.2040486e-08
91	0x325168d1	1.2189234e-08
92	0xb25149b8	-1.2182163e-08
93	0x3250a9d4	1.2145808e-08
94	0xb24ee95b	-1.2043837e-08
95	0xb24fab18	-1.2087888e-08
96	0xb26398fa	-1.3247922e-08
97	0xb264c431	-1.33159554e-08
98	0x3265ffd9	1.3387727e-08
99	0x3262c8f3	1.3200622e-08
100	0x3263b555	1.3254369e-08
101	0x326452fd	1.3290216e-08
102	0x3263cdb3	1.325991e-08
103	0xb265fbd8	-1.3386817e-08
104	0x32640812	1.3273182e-08
105	0xb2632435	-1.32213716e-08
106	0xb264fd39	-1.3328923e-08
107	0x32651c6d	1.3336018e-08
108	0x3263a862	1.3251425e-08
109	0x3265515e	1.3348055e-08
110	0xb26565ad	-1.3352673e-08
111	0x3265f8f3	1.3386159e-08
112	0xb264e02b	-1.3322317e-08
113	0xb2642953	-1.3280743e-08
114	0xb26439b1	-1.3284464e-08
115	0xb265cf58	-1.3376699e-08
116	0xb263af5d	-1.3253012e-08
117	0xb2645482	-1.32905615e-08
118	0xb263d3cc	-1.3261296e-08
119	0xb2644b71	-1.32885e-08
120	0xb265e24b	-1.3381007e-08
121	0xb264a578	-1.330897e-08
122	0x32630843	1.32150175e-08
123	0x3265d831	1.3378711e-08
124	0xb265b5ff	-1.33709355e-08
125	0x32650605	1.3330923e-08
126	0xb2631877	-1.3218702e-08
127	0xb263edb0	-1.3267183e-08
128	0xb25fb2e0	-1.302098e-08
129	0xb260dba9	-1.3088461e-08
130	0x326214de	1.3159676e-08
131	0x325ee481	1.29740565e-08
132	0x325fcf12	1.3027391e-08
133	0x32606b73	1.3062947e-08
134	0x325fe74f	1.3032902e-08
135	0xb26210ef	-1.3158782e-08
136	0x32602115	1.3046038e-08
137	0xb25f3f14	-1.2994651e-08
138	0xb2611450	-1.3101342e-08
139	0x3261334b	1.3108386e-08
140	0x325fc233	1.3024464e-08
141	0x326167d6	1.3120333e-08
142	0xb2617bf9	-1.3124912e-08
143	0x32620e08	1.3158122e-08
144	0xb260f78d	-1.3094803e-08
145	0xb260421a	-1.3053546e-08
146	0xb2605258	-1.3057239e-08
147	0xb261e4c2	-1.3148737e-08
148	0xb25fc939	-1.3026061e-08
149	0xb2606d03	-1.3063302e-08
150	0xb25fed67	-1.3034287e-08
151	0xb26063f5	-1.3061244e-08
152	0xb261f790	-1.3153013e-08
153	0xb260bd69	-1.3081583e-08
154	0x325f235b	1.2988347e-08
155	0x3261ed83	1.3150728e-08
156	0xb261cbb2	-1.3143039e-08
157	0x32611d11	1.3103333e-08
158	0xb25f3362	-1.29919915e-08
159	0xb26006f0	-1.30400934e-08
160	0xb30e4e51	-3.313318e-08
161	0xb30f0893	-3.330258e-08
162	0x330fcd05	3.3481246e-08
163	0x330dccd6	3.3015418e-08
164	0x330e5ff3	3.3149217e-08
165	0x330ec213	3.323846e-08
166	0x330e6f17	3.3162987e-08
167	0xb30fca85	-3.3478972e-08
168	0x330e9377	3.319607e-08
169	0xb30e059f	-3.3067064e-08
170	0xb30f2c0d	-3.3334846e-08
171	0x330f3f76	3.33525e-08
172	0x330e57e5	3.314189e-08
173	0x330f6068	3.3382463e-08
174	0xb30f6d0c	-3.339396e-08
175	0x330fc8bc	3.347735e-08
176	0xb30f19f3	-3.3318383e-08
177	0xb30ea827	-3.3214885e-08
178	0xb30eb256	-3.3224147e-08
179	0xb30faed5	-3.345379e-08
180	0xb30e5c36	-3.3145817e-08
181	0xb30ec301	-3.3239306e-08
182	0xb30e72e1	-3.3166433e-08
183	0xb30ebd63	-3.3234198e-08
184	0xb30fbaa0	-3.3464516e-08
185	0xb30ef562	-3.3285126e-08
186	0x330df43c	3.305125e-08
187	0x330fb458	3.3458804e-08
188	0xb30f9f06	-3.3439413e-08
189	0x330f3184	3.3339816e-08
190	0xb30dfe54	-3.306043e-08
191	0xb30e830a	-3.318113e-08
192	0xb2bfbfc0	-2.2322524e-08
193	0xb2c0bc75	-2.2437442e-08
194	0x32c1c713	2.2558686e-08
195	0x32bf100d	2.2242626e-08
196	0x32bfd7b8	2.2333424e-08
197	0x32c05cdf	2.2393975e-08
198	0x32bfec50	2.2342789e-08
199	0xb2c1c3b4	-2.2557153e-08
200	0x32c01d96	2.2365196e-08
201	0xb2bf5d23	-2.227768e-08
202	0xb2c0eca5	-2.2459355e-08
203	0x32c10702	2.2471344e-08
204	0x32bfccc6	2.2328447e-08
205	0x32c133ba	2.249168e-08
206	0xb2c144e0	-2.2499478e-08
207	0x32c1c140	2.2556037e-08
208	0xb2c0d41f	-2.2448203e-08
209	0xb2c039ad	-2.237797e-08
210	0xb2c0477f	-2.2384254e-08
211	0xb2c19e1e	-2.254006e-08
212	0xb2bfd2b0	-2.2331136e-08
213	0xb2c05e2a	-2.2394563e-08
214	0xb2bff179	-2.2345136e-08
215	0xb2c0567e	-2.2391074e-08
216	0xb2c1ae1f	-2.2547338e-08
217	0xb2c0a291	-2.2425668e-08
218	0x32bf458a	2.226695e-08
219	0x32c1a594	2.2543453e-08
220	0xb2c188b8	-2.253033e-08
221	0x32c0f415	2.2462737e-08
222	0xb2bf5337	-2.2273168e-08
223	0xb2c0074c	-2.235506e-08
224	0xb2fd0d2e	-2.945907e-08
225	0xb2fe553b	-2.960825e-08
226	0x32ffaf17	2.9765529e-08
227	0x32fc2928	2.9355377e-08
228	0x32fd2c27	2.9473155e-08
229	0x32fdd8fd	2.9551751e-08
230	0x32fd46bf	2.9485248e-08
231	0xb2ffaaa7	-2.976351e-08
232	0x32fd86f4	2.9514446e-08
233	0xb2fc8d1f	-2.9400836e-08
234	0xb2fe939d	-2.9636618e-08
235	0x32feb5c2	2.9652146e-08
236	0x32fd1e00	2.9466719e-08
237	0x32feefc1	2.967852e-08
238	0xb2ff060a	-2.9688653e-08
239	0x32ffa789	2.9762093e-08
240	0xb2fe73aa	-2.962209e-08
241	0xb2fdab5d	-2.9531003e-08
242	0xb2fdbd45	-2.9539146e-08
243	0xb2ff79ea	-2.9741347e-08
244	0xb2fd257a	-2.9470119e-08
245	0xb2fdda90	-2.9552467e-08
246	0xb2fd4d5c	-2.9488255e-08
247	0xb2fdd0bd	-2.9548e-08
248	0xb2ff8eb1	-2.9750796e-08
249	0xb2fe332b	-2.959276e-08
250	0x32fc6e7d	2.9386905e-08
251	0x32ff83a9	2.974578e-08
252	0xb2ff5e01	-2.9728655e-08
253	0x32fe9d35	2.9640981e-08
254	0xb2fc8056	-2.9395022e-08
255	0xb2fd69fd	-2.9501274e-08
