a2c_agent_10000epi_old.pth (torch, 157826 bytes, 21 tensors)

lstm_cell.weight_ih f4 [128, 3]
000000 8a 4e 55 3d 87 e6 a3 3e c2 ff 23 3e e2 ce 0e 3e
       0.052076854 0.32011816 0.16015533 0.13946107
000010 7c 6d ef 3d fa 3e 66 3e c4 3c 78 3e 02 5f e0 3d
       0.11690804 0.22484961 0.2424193 0.10955621
000020 cd e2 97 3d d5 82 7f 3e 21 74 b1 3e c1 08 9c 3e
       0.07416306 0.24952252 0.34658912 0.3047543
000030 d7 cb a9 3d 14 82 8e 3e 86 39 d2 3d 77 b2 aa 3e
       0.082908325 0.27833617 0.10264878 0.33339283
000040 59 fb 7d 3e 39 61 9d 3e f7 ed 12 3e 76 7d 9c 3e
       0.24802913 0.30738238 0.14348589 0.3056447
000050 a0 c1 d2 3d 94 a9 99 3e 83 bb 4d 3e da a0 20 3e
       0.10290837 0.3001219 0.20091061 0.1568636
000060 9d 41 db 3d 3b e0 30 3e b1 0f 8e 3e 0b 11 26 3e
       0.10705874 0.17273037 0.27746347 0.16217439
000070 de f6 ec 3d 39 c7 60 3e e6 c0 a2 3e 12 34 97 3d
       0.11570524 0.21950997 0.31787795 0.073829785
000080 6c 53 92 3e 94 09 9b 3e 8a dc 29 3e e2 a9 78 3e
       0.2857927 0.30280745 0.16588035 0.24283555
000090 49 ee 8a 3d c9 65 2b 3e 35 bb 22 3d 97 55 cb 3d
       0.067837305 0.16738047 0.039729316 0.09928434
0000a0 f7 c5 6c 3e 5d a1 48 3e dd 4d 16 3e f0 f3 73 3e
       0.23122393 0.19592805 0.1467814 0.23823524
0000b0 32 13 7e bb 74 21 46 3e 86 c1 21 3e 9e 40 7b 3d
       -0.0038768766 0.19348699 0.1579648 0.06134092
0000c0 28 0f 8b 3e c3 6a 07 3e 5f 71 4d 3e 9e a4 7d 3e
       0.2716 0.1322432 0.20062779 0.24769828
0000d0 55 ad 94 3e 79 e8 9b 3d 42 45 19 3e c1 d7 4e 3e
       0.29038492 0.076127 0.14967826 0.20199491
0000e0 99 28 d5 3d 81 e2 84 3e 94 67 71 3e cd 9b d9 3c
       0.10408134 0.2595406 0.23574668 0.02656355
0000f0 ea d7 8b 3e 4f 4c b3 3e 02 fd b2 3e ac 99 86 3c
       0.27313167 0.35019156 0.34958655 0.016430698
000100 e6 52 56 3e 36 03 48 3e 20 40 27 3e 83 3b b6 3d
       0.2093006 0.19532475 0.16333055 0.0889807
000110 14 67 12 3e 5b 48 97 3e 62 55 63 3e d2 4b 5b 3e
       0.14297134 0.2954739 0.2220054 0.21415642
000120 56 03 46 3e bd 52 1f 3e ff ee a9 3d 54 83 ae 3e
       0.1933721 0.15558906 0.08297538 0.3408457
000130 7f d3 c0 3e 32 3d 46 3d b1 d1 ae 3e 1f 6f 4a 3e
       0.3766136 0.048398204 0.34144357 0.19768952
000140 08 1f 50 3e b5 61 a0 3e ca 20 95 3e 34 fa ad 3c
       0.20324337 0.31324545 0.2912658 0.02123747
000150 5f 42 b1 3d ec 37 0a 3d c1 1c 9e 3e bd 38 12 3e
       0.086552374 0.033744738 0.30881312 0.14279456
000160 ce 55 46 3e 7d 34 2c 3e 09 a5 d3 3e 99 c3 81 3e
       0.1936867 0.16816898 0.4133685 0.25344542
000170 63 30 ac 3e cb 26 58 3e 93 ec 92 3e 42 53 38 3e
       0.33630666 0.21108548 0.28696117 0.1800051
000180 91 11 87 3e 17 03 8e 3e 21 81 89 3e f7 f9 c7 3d
       0.2638059 0.27736732 0.2685633 0.09764474
000190 1e 6c ad 3b 78 ec a9 3e 25 62 97 3e d9 d6 b0 3e
       0.0052924296 0.33188224 0.29567066 0.34538916
0001a0 c8 3e 15 3e 99 f4 85 3d 60 47 13 3e ac 99 18 3e
       0.1457473 0.06540794 0.14382696 0.14902371
0001b0 10 74 c0 3d e2 40 37 3e 1f 05 39 3e 9e cc 81 3e
       0.09397137 0.17895845 0.1806836 0.25351423
0001c0 5f 3d 49 3e c2 45 38 3e a9 7b 83 3e 96 9e 8d 3d
       0.19652317 0.1799536 0.25680283 0.069150135
0001d0 6f a4 6f 3e 4d d6 b5 3d 72 a4 88 3e 01 28 49 3e
       0.2340257 0.08878765 0.26687962 0.19644167
0001e0 8e 86 9e 3e b2 86 89 3e e6 af d2 3d 98 fc 0c 3e
       0.30962032 0.26860577 0.10287456 0.13768232
0001f0 0c b4 48 3e 6d 90 95 3e 36 86 27 3e 84 4c 90 3e
       0.19599932 0.2921175 0.16359791 0.28183377
000200 68 2d 4e 3b 99 28 b0 3d 5f 99 b9 3c 6f 62 f0 3d
       0.003146017 0.086014934 0.02265614 0.11737525
000210 3a 0b bf 3d bd 76 30 3e d7 9b 6a 3e cf 99 2d 3e
       0.09328313 0.17232795 0.2291101 0.16953205
000220 8f 34 81 3d c7 23 b3 3e 59 d5 5b 3e 4a f6 af 3c
       0.06308853 0.34988233 0.21468104 0.021479744
000230 3a 72 ee 3d 77 e6 65 3e 69 7a a4 3e 89 b9 51 3d
       0.11642881 0.22451197 0.32124642 0.05120233
000240 47 22 97 3e 31 bd 05 3f 9a c1 a7 3e cb d2 88 3e
       0.2951834 0.5224181 0.32764894 0.26723322
000250 c5 bf 9a 3e d0 42 fa 3d ba 01 9c 3e 0d a1 83 3d
       0.30224434 0.12219775 0.30470067 0.064272024
000260 47 73 f4 3d e8 43 92 3e 11 24 d5 3d 18 5e 43 3e
       0.1193605 0.28567433 0.1040727 0.19078863
000270 0e d7 fe 3d d8 1f bb 3e 91 6a 14 3e d4 bc 95 3e
       0.12443362 0.36547732 0.14493777 0.29245627
000280 56 54 08 3e bd 5e 98 3e 2a 5c a1 3d 63 f3 9a 3e
       0.13313422 0.2975978 0.07878907 0.30263814
000290 99 cf 99 3d b5 dd 41 3e 19 6d 8a 3e 98 bd f7 3d
       0.07510299 0.18932231 0.2703636 0.12096709
0002a0 43 d5 13 3d 6b 66 69 3e f5 7f 1c 3e b2 74 0d 3e
       0.036092054 0.22792976 0.15283187 0.13814047
0002b0 6a 2a 2b 3e 78 fb 97 3e 82 a2 82 3d d1 0e 97 3d
       0.16715398 0.29684043 0.06378652 0.07375873
0002c0 9f ed 47 3e 12 54 73 3e 16 17 f4 3d dc 29 99 3d
       0.19524239 0.23762539 0.11918466 0.07478687
0002d0 3e d9 9b 3e c7 dd bc 3d 33 19 e7 3d d6 4c b8 3e
       0.3043918 0.09221988 0.11284103 0.3599612
0002e0 7e 94 be 3e b4 0b a8 3e ef 51 4e 3e 94 a2 47 3e
       0.37222666 0.3282143 0.20148443 0.19495612
0002f0 a2 ee 92 3e 73 49 0e 3e fc b6 c6 3c 95 08 0c 3e
       0.28697687 0.13895206 0.024257176 0.13675149
000300 c3 bb 44 bd 20 4c b1 bc a2 d9 47 be 2a bb e6 bd
       -0.048030626 -0.021642745 -0.19516614 -0.112661675
000310 a8 04 1b bd d2 67 5c bd 5f 73 15 be 78 61 90 be
       -0.037846237 -0.05380995 -0.14594792 -0.28199363
000320 9b f9 76 be ee ec 66 3e 0b a2 65 3e 37 77 22 3e
       -0.24118654 0.22551319 0.22425096 0.1586579
000330 fd 8b 5f 3e 25 32 0d 3e ea 9e 6c 3d 57 29 33 3e
       0.21830745 0.1378866 0.05776874 0.17496239
000340 4a 3a 12 3e 42 e9 96 bd e1 8b 00 3e 34 69 c4 3d
       0.14280048 -0.07368709 0.1255336 0.095903784
000350 22 9a 80 3e f0 23 80 3d 47 08 ab 3d 79 05 56 3e
       0.25117594 0.062568545 0.08351188 0.20900525
000360 93 25 db 3d 23 ab b9 3d 59 34 8d 3e 02 d2 92 be
       0.10700526 0.09065845 0.27579 -0.28675848
000370 b0 aa b6 bd c8 42 e0 bd 8a 7d 17 3c 9a 11 89 3c
       -0.08919275 -0.109502375 0.009246239 0.016732026
000380 16 bc 4e be ec 96 ad bb ae 68 81 3d fa 23 7b 3e
       -0.20188937 -0.0052975323 0.06318794 0.24525443
000390 84 40 7d be be 04 e8 3b c5 a3 0e bd 3a b8 e8 bd
       -0.24731642 0.0070806434 -0.03482415 -0.113632634
0003a0 5c 7e 74 be 14 22 ac bd 46 9d c9 3d e8 a6 41 3e
       -0.23876327 -0.084049374 0.09844451 0.18911326
0003b0 97 8d de 3d d9 1e 75 3e 91 11 51 3e 91 8d 81 3e
       0.1086685 0.23937549 0.20416857 0.2530332
0003c0 f2 26 84 bd 65 46 e7 bd bb b2 40 bd 1e 6d 84 3e
       -0.06452741 -0.112927236 -0.04704545 0.258645
0003d0 d4 b1 ad bc a4 04 19 3d 60 c4 8b 3e c9 fb 18 bb
       -0.02120296 0.03735794 0.2729826 -0.0023343435
0003e0 c8 db 70 3e b7 46 93 3d c4 69 67 3d c7 d8 31 3e
       0.2352134 0.07191222 0.05649735 0.1736785
0003f0 eb 6f f4 bc be 55 29 be 89 c1 4a be 48 08 47 3d
       -0.029838523 -0.16536614 -0.1980039 0.048591882

lstm_cell.weight_hh f4 [128, 32]
000000 03 27 14 be b8 4c 6c be 4f 17 d5 bd 51 0d 11 3e
       -0.14468007 -0.23076141 -0.104048364 0.14165236
000010 19 82 e1 3d db c4 57 3e c0 33 ae 3e 12 07 c4 3e
       0.11011142 0.21071188 0.34023857 0.38286644
000020 f9 87 a5 3e 42 21 9d be 90 ff 9c bd f9 05 58 3d
       0.323303 -0.30689436 -0.07665932 0.05274007
000030 23 2d 12 bd 78 57 1f bf 2a 77 87 3e 21 ee b0 3e
       -0.035687577 -0.6224284 0.26458102 0.34556678
000040 c9 5a ad be 38 75 ff 3c d4 78 3f 3e bf 88 cc 3e
       -0.33858326 0.031183824 0.18698436 0.3994808
000050 ce 60 1e be c3 dd aa 3d ad 75 ff bd 13 2a 1e 3f
       -0.15466616 0.08343079 -0.12473617 0.6178295
000060 e4 85 a7 3d 33 ec aa be a2 ec 92 be 92 8e 2a bd
       0.081798345 -0.3338333 -0.28696162 -0.041639872
000070 53 dc 9c 3e 2e e1 c5 3e 7f 78 3d bf 27 1f ba be
       0.30636844 0.3864836 -0.7401199 -0.36351892
000080 fb 93 b5 bd 06 a6 22 bd 62 3b 96 be c5 30 9b 3e
       -0.08866116 -0.039709114 -0.2934218 0.30310646
000090 e0 f9 87 3e 3d c1 c6 3d 92 3b f3 3d 57 af 30 3e
       0.26557827 0.09704826 0.118765965 0.17254387
0000a0 93 a3 2c 3e 4c 0e 95 bd e1 ef 19 3c b0 c9 46 3e
       0.16859274 -0.072781175 0.0093955705 0.19412875
0000b0 e4 93 96 be 1f 04 d8 be 26 24 2f 3e 33 a0 51 3e
       -0.29409707 -0.42190644 0.17103633 0.20471267
0000c0 6e 38 f2 be 59 37 94 3e cf 5d 51 3c 6c a6 b3 3e
       -0.47308677 0.28948477 0.012778713 0.35087907
0000d0 37 60 05 bf 70 b0 3f 3e 95 6e 7f be fa eb c8 3e
       -0.5209994 0.1871965 -0.24944527 0.39242536
0000e0 f8 3f b6 3d f2 2c ce be 3e 1f b3 3c e7 48 8e 3e
       0.0889892 -0.40268666 0.021865483 0.27789995
0000f0 26 6c 92 3e be dc 20 3f a4 1c 17 bf 2f 71 3c be
       0.28598136 0.62836826 -0.5902808 -0.18402551
000100 d7 cf 4e bd ad 57 a3 be 32 72 1c be 66 0d 64 3e
       -0.05049118 -0.3190283 -0.15277937 0.22270736
000110 ca 2d 17 3e 00 06 e2 3c b1 02 83 3e f1 e2 07 3e
       0.14763561 0.027590752 0.2558799 0.13270165
000120 d2 36 53 3e 81 66 82 bb 49 03 a5 be bb 67 ce 3d
       0.20626381 -0.0039795046 -0.3222907 0.10078379
000130 93 e6 2a be 21 9f 88 be 54 e6 a6 3e b5 c5 90 3e
       -0.1668952 -0.26683906 0.325976 0.28275838
000140 cb 49 1f bf 92 a9 92 3e d3 be 0e 3e b6 67 7f 3e
       -0.62221974 0.28644997 0.13939981 0.24941906
000150 5e b9 c6 be 8b 7a ab 3d 96 09 94 be b5 e8 93 3e
       -0.388133 0.083729826 -0.28913563 0.2888848
000160 3f 41 4e 3d 95 b0 23 bf 8f b0 2a be 7a cd 34 3e
       0.050355192 -0.6394132 -0.16668914 0.17656508
000170 b9 ae 31 3e c1 2f f6 3e 15 38 e3 be 6e da 23 be
       0.17351808 0.48083308 -0.44378725 -0.16001293
000180 f1 2b 56 be 34 aa 8b bd bb a8 47 bd 99 01 e6 3c
       -0.209152 -0.06819573 -0.0487449 0.028076934
000190 f0 7a 88 3e 41 5f c7 3d 35 0a 90 3e 57 5e c4 3d
       0.26656294 0.09734965 0.28132787 0.095883064
0001a0 a7 25 06 3e ea ee ed bd a2 dd ad bd 63 ba 8c 3d
       0.131003 -0.11617835 -0.08489539 0.06871488
0001b0 60 8f 57 be 09 02 f4 be c1 a1 c0 3e cc dd a3 3e
       -0.21050787 -0.47657803 0.37623408 0.32005155
0001c0 c3 ce 21 bf a2 fb 10 3e 32 6a fa 3d 24 a9 5e 3e
       -0.6320612 0.1415849 0.122272864 0.2174421
0001d0 b4 72 e2 be 93 c1 11 3e bd a1 11 bc d3 42 a7 3e
       -0.44228137 0.14233999 -0.008888659 0.3266817
0001e0 cf d7 3f 3e 95 d5 24 bf 5f b9 2c bc e9 74 8f 3e
       0.18734668 -0.643884 -0.010542243 0.28018883
0001f0 98 33 9a 3e 8a 1d 24 3f d9 1b a0 be e1 8c ad be
       0.30117488 0.64107573 -0.31271246 -0.33896545
000200 98 af 02 be dd 9e 57 bc f3 63 ba be c1 f1 46 3e
       -0.12762296 -0.013160435 -0.3640438 0.1942816
000210 1d e5 f7 3d 06 28 9a 3d 56 78 c0 3e 54 15 31 3e
       0.12104247 0.07527165 0.3759181 0.17293292
000220 89 b9 0d 3e 88 85 ad bc 52 7d e5 bd c5 7c b3 3e
       0.13840307 -0.021181837 -0.112055436 0.3505613
000230 d3 52 84 bd 1f 31 2d bf 71 90 e0 3e 4f a7 99 3d
       -0.0646111 -0.6765308 0.438602 0.07502615
000240 c8 58 13 bf 34 23 3f 3e ed d3 f3 3d 98 df 70 3e
       -0.57557344 0.18665773 0.11905656 0.23522794
000250 13 3d d6 be ed 4b b9 bc 02 8b 9a be 57 1b b6 3e
       -0.4184347 -0.022619212 -0.3018418 0.35567734
000260 5c cf 16 3d d2 65 0f bf 8d df 33 be 27 d3 04 3e
       0.036818847 -0.5601474 -0.17565747 0.12971173
000270 88 7a 09 3f 81 99 04 3f e3 fc 03 bf 26 73 93 be
       0.5370259 0.5179673 -0.5155775 -0.2879879
000280 c3 1f 94 be a9 10 58 bd 97 5d 59 be 5b d8 57 3e
       -0.28930482 -0.052750263 -0.21227108 0.21078627
000290 f3 cb 00 bd 3b 07 50 3d 87 23 60 3e 7b 5d 4f 3e
       -0.0314445 0.050788146 0.21888553 0.20250504
0002a0 cf 54 8e 3e db fc 41 be 14 3b 04 3c c0 80 7c 3e
       0.2779908 -0.18944113 0.008070726 0.24658489
0002b0 a0 6a 40 be 6d 42 6e be 37 62 69 3e 5f a7 4a 3e
       -0.18790674 -0.23267527 0.22791372 0.1979041
0002c0 17 94 2d bf 13 95 18 3d 6e c6 99 bc 80 0b d9 3e
       -0.6780409 0.037251543 -0.018771376 0.42391586
0002d0 65 3e 01 bf 88 68 29 3e e9 69 95 be 7d 64 2f 3e
       -0.5048583 0.16543782 -0.29182366 0.17128177
0002e0 f6 16 ce 3b c8 3b 1d bf 99 38 8d be 8f 7f c5 3d
       0.0062893583 -0.61419344 -0.27582243 0.096434705
0002f0 02 c3 d9 3e 57 0a 2f 3f ec ca 03 bf 8d 35 a5 be
       0.42531592 0.6837515 -0.5148151 -0.32267419
000300 cf e6 9a be 70 44 4e bd 3a de 81 be 4e 60 59 3d
       -0.30254218 -0.050358236 -0.25364858 0.05307036
000310 a2 a6 0c bd dc aa da 3d 6f b3 4c 3e 59 28 e5 3d
       -0.0343386 0.1067712 0.19990323 0.11189336
000320 0c a5 a7 3e f8 30 9e bd 37 c4 67 be 8a 2a 05 3e
       0.32743108 -0.07724184 -0.22633444 0.13004509
000330 b7 e5 fe bd 68 88 e2 be 14 47 90 3e e4 7a 2b 3e
       -0.124461584 -0.44244695 0.28179228 0.16746098
000340 1d 18 1f bf 3d 57 0b 3e 51 72 8f 3e 72 ba d8 3d
       -0.6214617 0.13607498 0.28016904 0.105824366
000350 d8 31 f4 be 2a 1b 0c 3e d7 4d 91 bd be 5f 39 3e
       -0.47694278 0.13682237 -0.07094925 0.18102929
000360 fc 4c 00 3d 7a db 4a bf 98 06 1a 3d 30 0c 39 3e
       0.031323418 -0.79241145 0.037603945 0.18071055
000370 85 2e 70 3e 81 7b 37 3f 58 a6 b9 be a0 d2 a7 be
       0.23455246 0.71672827 -0.36259723 -0.32777882
000380 dc 5c 85 be 97 c8 65 be 1c dc 97 be b0 61 17 3e
       -0.2604741 -0.224398 -0.29660118 0.14783359
000390 b9 44 30 3e c5 5d 47 3e 4b 2a 49 3d 9d d0 9e 3e
       0.17213716 0.19469364 0.0491126 0.31018534
0003a0 0d d6 10 3d d6 2e 8e bc 55 da 8e bd 46 15 23 3e
       0.035360385 -0.017356317 -0.06975237 0.15926084
0003b0 3e fd 8b be 76 bf 8b be 20 6c 1d 3e 84 8c 88 3d
       -0.27341646 -0.2729451 0.15373278 0.06667426
0003c0 0e d7 54 bf e9 fb d5 3d 86 b6 ec 3d 47 84 e7 3d
       -0.8314065 0.10448439 0.11558251 0.11304527
0003d0 40 08 2c bf eb 03 91 3e 13 11 8a be 5a 41 d9 3d
       -0.6720009 0.28323302 -0.26966152 0.10608168
0003e0 1e 06 29 3e 33 3f ed be f3 77 76 3d 10 7d 3e 3e
       0.1650624 -0.4633728 0.060172986 0.18602395
0003f0 e5 d7 2e 3e e3 16 33 3f 18 1f 9b be 61 64 2c be
       0.17074545 0.699568 -0.3029716 -0.16835167

lstm_cell.bias_ih f4 [128]
000000 ad 9a 4b 40 d3 4f 4f 40 56 75 41 40 07 4a 5e 40
       3.1813157 3.239247 3.0227866 3.4732683
000010 8d c2 4b 40 6c 6f 55 40 b3 f7 54 40 ba 8d 5e 40
       3.1837494 3.3349257 3.3276184 3.4774003
000020 e7 9c 47 40 32 ad 4a 40 ab 5d 53 40 35 c6 56 40
       3.1189516 3.166821 3.302592 3.3558476
000030 66 93 53 40 3c 25 64 40 d3 d1 57 40 42 b7 5d 40
       3.3058715 3.5647726 3.3721817 3.4643102
000040 84 84 5c 40 e8 05 66 40 4b dd 42 40 75 d6 56 40
       3.445588 3.5941105 3.0447567 3.3568394
000050 24 27 60 40 90 56 59 40 7d 3c 44 40 1c 83 5e 40
       3.502389 3.3959084 3.066192 3.4767523
000060 f1 a4 4e 40 00 d1 63 40 cd 77 4e 40 2b 10 54 40
       3.2288172 3.5596313 3.226062 3.3134868
000070 c6 76 53 40 58 ae 6d 40 df b3 5a 40 32 90 4c 40
       3.3041244 3.713766 3.4172285 3.196301
000080 d1 a3 dc 3d d8 41 c3 3d da 7f 32 3e e2 e5 48 3e
       0.10773433 0.09534043 0.17431584 0.19618943
000090 16 33 9a 3e a3 41 72 3d 6e b9 fa 3b b2 a9 cf 3c
       0.301171 0.059144627 0.0076514995 0.025349472
0000a0 07 51 a3 3d e2 eb c1 3d 04 39 ae 3d 8d 18 72 3e
       0.07974439 0.09468819 0.085069686 0.23642178
0000b0 e2 24 73 3e 3b d3 a4 3e 8d ab 9d 3e 1d 44 36 3c
       0.23744538 0.32192406 0.30794945 0.011124638
0000c0 32 5e 82 3e 0c 66 45 3d 54 1b 88 3d 95 ab 94 3e
       0.2546249 0.048193023 0.066458374 0.29037157
0000d0 23 d5 16 3e d3 0c 78 3e 8f b7 9b 3d 19 89 a2 3d
       0.14729743 0.24223642 0.076033704 0.079363056
0000e0 c8 88 a5 3d f6 b2 c2 3d d2 0e 9f bb e0 f9 a8 3c
       0.080827296 0.0950679 -0.0048540616 0.020626962
0000f0 00 ac 8f 3e ee 54 0e 3e 85 59 7b 3e fb af af 3d
       0.28060913 0.13899586 0.24545868 0.085784875
000100 25 89 d9 bf 09 5a e2 bf 1e dc e6 bf fe 3a d8 3f
       -1.6994978 -1.7683727 -1.8035924 1.6893003
000110 5b 79 ce 3f a4 08 d9 3f ad f6 e3 3f a1 89 02 40
       1.6130785 1.6955762 1.7809654 2.0396502
000120 7e 6f ed 3f ad 10 cf bf cc eb e6 bf fe 52 ee 3f
       1.854965 -1.6176964 -1.804071 1.8619077
000130 72 c7 ee bf c6 17 fd bf a8 b1 f0 3f d1 e9 02 40
       -1.8654616 -1.977288 1.8804216 2.045521
000140 bd 4a f7 bf 7c 73 f4 3f bf da e2 3f 4f c8 e2 3f
       -1.9319683 1.9097743 1.7723006 1.7717379
000150 86 a9 fd bf 70 f4 d8 3f c0 fc d3 bf bb 9c f2 3f
       -1.981736 1.6949596 -1.6561508 1.895408
000160 08 cd d7 3f 7b 64 03 c0 c9 f1 d8 bf c4 23 e4 3f
       1.6859446 -2.0530078 -1.6948787 1.7823415
000170 27 4f f7 3f 03 97 f4 3f 33 db f1 bf 6c a0 ed bf
       1.932103 1.9108585 -1.8895019 -1.8564582
000180 47 bb 3d 40 5c 71 42 40 0e 95 49 40 6f 57 5c 40
       2.9645555 3.038169 3.1497226 3.4428365
000190 71 4a 57 40 8b 90 61 40 80 0a 59 40 1c 45 55 40
       3.3639185 3.5244472 3.3912659 3.332343
0001a0 d0 25 3f 40 f6 52 44 40 4a d1 47 40 04 e1 4a 40
       2.986683 3.0675635 3.122149 3.1699839
0001b0 df b4 57 40 b3 65 6f 40 78 48 53 40 6f b9 47 40
       3.3704145 3.7405822 3.3012981 3.120693
0001c0 70 39 55 40 1c 5a 5b 40 f8 22 43 40 c3 55 5c 40
       3.3316307 3.4273748 3.0490093 3.4427345
0001d0 a5 c4 5f 40 c2 3c 53 40 31 2a 4b 40 53 7f 5b 40
       3.4963772 3.3005834 3.1744502 3.4296463
0001e0 cc 22 3a 40 65 0f 5d 40 4d 6b 40 40 f0 73 40 40
       2.9083738 3.4540646 3.0065491 3.0070763
0001f0 d9 43 60 40 e6 58 57 40 ae 9e 62 40 ea 59 58 40
       3.504141 3.364801 3.540935 3.380488

lstm_cell.bias_hh f4 [128]
000000 ff 87 3a 40 13 1f 50 40 75 99 4f 40 a3 62 56 40
       2.9145505 3.2518966 3.2437413 3.3497703
000010 60 96 4c 40 7d fb 65 40 6f 8a 57 40 fe b5 62 40
       3.1966782 3.5934746 3.3678243 3.542358
000020 e8 99 48 40 6c de 51 40 8f 3a 42 40 58 c8 58 40
       3.1343937 3.2792006 3.0348241 3.387228
000030 14 56 52 40 8a d5 66 40 63 ff 59 40 b6 64 5e 40
       3.2865038 3.6067834 3.4062126 3.474897
000040 da 8d 68 40 26 53 5f 40 f1 2f 43 40 39 fa 5f 40
       3.633658 3.48945 3.049801 3.4996474
000050 58 b8 66 40 b8 30 4d 40 b1 5d 48 40 dc 60 50 40
       3.6050014 3.2060986 3.1307185 3.2559118
000060 cf 27 48 40 14 52 69 40 a7 56 3a 40 07 45 47 40
       3.1274297 3.6456347 2.9115388 3.113588
000070 a2 d5 5e 40 48 93 60 40 37 87 62 40 5e db 5d 40
       3.481789 3.5089893 3.5395029 3.466514
000080 72 74 e4 3d a8 67 29 3e 45 52 d1 3d 66 ee 60 3e
       0.11155023 0.16543448 0.1022077 0.21965942
000090 0b 42 6e 3e f1 7b 74 3d 8a 0d 87 3e ba 08 18 3e
       0.23267381 0.059688512 0.26377517 0.14847079
0000a0 80 36 23 3d 71 be 8c 3e bf c6 1e 3e 26 32 da 3d
       0.039846897 0.27489045 0.15505503 0.10654096
0000b0 48 31 a9 3e f6 fb 7f 3e d1 30 bf 3c 42 94 50 3e
       0.3304541 0.24998459 0.023338707 0.20369056
0000c0 e4 ae 4e 3e aa 49 e5 3d 7a 8b af 3e a2 5a 7d 3e
       0.20183903 0.11195691 0.342861 0.24741605
0000d0 69 3e 6d 3e 66 60 a8 3d d8 6d 1e 3e 2f 5a c5 3e
       0.23168339 0.082215115 0.1547159 0.38545367
0000e0 31 7e 91 3e a0 40 a6 3e 7c 05 0e 3e af 08 76 3e
       0.2841659 0.3247118 0.1386928 0.2402675
0000f0 c2 7a a2 3e 93 2a ab 3e f3 38 c1 3e fa 01 bb 3e
       0.31734282 0.3343092 0.3773876 0.36524945
000100 59 c1 dd bf 33 82 d3 bf f8 17 cf bf 22 8a f2 3f
       -1.732463 -1.6524109 -1.617919 1.8948405
000110 6b 3b f0 3f a9 9d fc 3f d6 51 d2 3f 14 87 ec 3f
       1.8768133 1.9735614 1.6431224 1.8478723
000120 01 f9 db 3f dc d7 ed bf f3 03 e2 bf 96 13 fa 3f
       1.7185365 -1.85815 -1.7657455 1.9537227
000130 44 46 de bf 48 6d da bf 4a 32 eb 3f 0d f3 f5 3f
       -1.7365193 -1.70646 1.8374722 1.9214798
000140 28 74 00 c0 54 20 e9 3f 57 0e e7 3f e1 ab 02 40
       -2.0070896 1.8212991 1.8051251 2.0417407
000150 a6 4d fe bf b0 9c e5 3f 52 8c ec bf 4a 58 d7 3f
       -1.9867446 1.7938442 -1.8480322 1.6823819
000160 e4 54 f0 3f b9 ae e8 bf ab 88 cf bf d6 84 c9 3f
       1.8775907 -1.8178321 -1.6213583 1.5743663
000170 9b eb ff 3f 4b 4a f7 3f 37 f7 e3 bf 36 ad e3 bf
       1.9993776 1.9319547 -1.7809819 -1.7787235
000180 57 af 35 40 8d 72 44 40 f8 4d 3d 40 fd 0b 54 40
       2.838827 3.0694916 2.9578838 3.3132317
000190 33 33 42 40 e5 d6 60 40 98 2d 50 40 72 05 4b 40
       3.034375 3.5131161 3.2527828 3.1722074
0001a0 dc ed 38 40 00 0c 53 40 26 99 3d 40 7b 39 4f 40
       2.8895178 3.2976074 2.9624724 3.2378833
0001b0 34 17 4a 40 69 3d 5d 40 73 d9 4c 40 4a c7 4e 40
       3.1576662 3.4568732 3.200772 3.2309136
0001c0 2d 91 68 40 9d e4 64 40 a6 f0 52 40 c3 b9 5c 40
       3.6338608 3.5764534 3.295938 3.448838
0001d0 44 99 53 40 cb d5 50 40 6a d0 52 40 6c f3 4c 40
       3.3062296 3.263049 3.2939706 3.2023573
0001e0 ad 3d 3b 40 9d 51 56 40 fd 03 4e 40 ea a1 49 40
       2.9256394 3.3487313 3.2189934 3.1505075
0001f0 05 eb 56 40 bb c4 62 40 f4 36 6c 40 5c a0 44 40
       3.3580945 3.5432575 3.690854 3.0722876

action_head.weight f4 [2, 32]
000000 52 60 8c 3c ae f1 62 bd b4 46 2f be f6 24 08 be
       0.017135773 -0.055406265 -0.17116815 -0.1329535
000010 ad 9a 58 bb 29 12 5d bc 38 a3 60 3c 95 28 d9 3d
       -0.0033051178 -0.013493099 0.013710789 0.106034435
000020 5b a2 f3 3d fa fb c9 3d 61 3a bb 3d c1 df d8 3d
       0.11896201 0.09862514 0.09141994 0.10589553
000030 3c db 2a be 95 72 03 3b fa ad ee 3d 37 f3 01 3e
       -0.16685194 0.002005731 0.11654277 0.12690435
000040 d4 14 20 3d 22 a5 3e bd 86 58 ba bc cd 17 06 3e
       0.039082363 -0.0465442 -0.02274729 0.13095017
000050 f3 37 0b be af 42 9e bc d4 d0 33 3e 0b bf ff 3d
       -0.13595562 -0.019318907 0.1756013 0.124876104
000060 c2 81 32 be 08 20 a0 3d cc 3c 13 be 6d 3b 3b 3c
       -0.17432311 0.078186095 -0.14378661 0.011427742
000070 e7 10 8a 3d 55 3b 27 bd 46 a6 b9 bd d3 4c 12 be
       0.06741505 -0.040828068 -0.09064917 -0.14287119
000080 d5 a4 d1 bc 84 8f 32 3e b4 e9 0e 3e fb e3 20 3d
       -0.025591293 0.1743756 0.13956338 0.03927992
000090 22 3d 12 3e c7 6b 3d bd 77 bd 31 be e9 c7 07 3e
       0.14281133 -0.046245363 -0.17357431 0.13259853
0000a0 5b 81 36 3d 68 ec e5 3c ec 30 c3 bd 8b 0f 2a be
       0.044556957 0.028066829 -0.095308155 -0.16607492
0000b0 5e bf 42 3d f3 2b 07 be a8 f8 44 3d e4 ad 8c bd
       0.047545783 -0.13200359 0.0480887 -0.068691045
0000c0 0d 74 3b 3e 87 42 36 bc 27 3b 00 3e 14 41 38 3d
       0.18305989 -0.01112426 0.12522565 0.04498394
0000d0 c4 5e 3e bb e9 80 25 3e 8a 7a 16 bd 6a 47 c9 bd
       -0.0029048184 0.16162457 -0.036737956 -0.09828074
0000e0 d8 77 92 3b 92 6b 80 bd bb 00 2d 3c 06 b7 c9 bd
       0.004469853 -0.062705174 0.010559256 -0.09849362
0000f0 0d 2e b1 bb f0 bf 28 bd a4 ec 1a bd 1d e3 a3 bd
       -0.005407101 -0.04119867 -0.037823334 -0.08002303

action_head.bias f4 [2]
000000 89 e9 04 bd db 2d 44 3d
       -0.03244928 0.047895294

value_head.weight f4 [1, 32]
000000 1a b8 4d be d1 10 ad be 0c 5b 76 be 5e d0 46 3e
       -0.2008976 -0.33801892 -0.24058169 0.19415423
000010 98 12 5f 3e 2f 66 74 3e 12 8c 9c 3e 32 f1 7c 3e
       0.21784437 0.23867105 0.30575615 0.24701384
000020 14 8a 4b 3e ab f4 9c be 8e 82 8b be 3b b3 87 3e
       0.19876891 -0.30655417 -0.27248043 0.2650393
000030 99 e7 94 be 73 22 58 be 47 ab 91 3e 31 6d 7b 3e
       -0.29082945 -0.21106891 0.28450987 0.24553372
000040 c9 e4 81 be 63 3e 72 3e 29 85 5d 3e 48 56 88 3e
       -0.25369862 0.23656611 0.21632828 0.26628327
000050 5d 2d 60 be d1 4a af 3e 9b 00 8d be 2d 69 57 3e
       -0.21892305 0.34236768 -0.27539524 0.21036215
000060 52 f1 8b 3e 86 89 92 be d9 ee 99 be 26 cf 99 3e
       0.2733255 -0.28620547 -0.3006504 0.30040854
000070 06 92 80 3e 0a 31 6e 3e 1c c8 49 be ad ec 6c be
       0.25111407 0.23260894 -0.19705242 -0.2313716

exp_avg f4 [128, 3]
000000 80 89 50 b1 43 51 15 b1 17 91 c4 b0 c9 59 7d b1
       -3.0346143e-09 -2.1728546e-09 -1.4302114e-09 -3.6867382e-09
000010 b6 ce 80 b1 9d bf f2 b0 3a df 77 b1 c1 09 8c b1
       -3.7487906e-09 -1.7662277e-09 -3.607012e-09 -4.075645e-09
000020 67 ef 05 b1 61 c5 d9 b0 ae 4c b9 b0 3f d6 3f b0
       -1.9490132e-09 -1.5844926e-09 -1.3482315e-09 -6.978986e-10
000030 96 a8 15 b1 02 b6 d8 b0 f3 92 92 b0 93 f5 a4 b0
       -2.1778184e-09 -1.5767798e-09 -1.0664664e-09 -1.2002367e-09
000040 ce 0e b1 b0 ae 50 14 b0 48 3c 83 b1 f7 d6 53 b1
       -1.2882653e-09 -5.395674e-10 -3.819455e-09 -3.0826734e-09
000050 ff 6e 02 b1 89 26 11 b1 60 9a 13 b1 bc 0e 93 b0
       -1.8980584e-09 -2.1122182e-09 -2.1479067e-09 -1.0699845e-09
000060 27 e6 30 b1 85 df 24 b1 66 c2 a1 b0 f9 30 4f b1
       -2.5742197e-09 -2.3992197e-09 -1.1769543e-09 -3.0150302e-09
000070 52 4d 4b b1 5c 2e c7 b0 30 0d 27 b1 7c 93 46 b1
       -2.958434e-09 -1.4492332e-09 -2.4309195e-09 -2.8896627e-09
000080 8a 6a 9e b0 58 92 11 b1 b4 51 2a b1 a7 f1 8b b0
       -1.1526293e-09 -2.1183464e-09 -2.4784699e-09 -1.0182263e-09
000090 8a 91 92 b1 a8 40 79 b1 f4 d2 17 b1 8e 9c ca b0
       -4.265705e-09 -3.6271022e-09 -2.2093305e-09 -1.474193e-09
0000a0 9c 98 a3 b0 31 71 40 b0 19 ed bb b1 90 26 9b b1
       -1.1903185e-09 -7.001005e-10 -5.469371e-09 -4.5154778e-09
0000b0 05 03 4a b1 7f ad 0c b1 f7 18 0c b1 91 41 95 b0
       -2.9396585e-09 -2.0471302e-09 -2.0386872e-09 -1.0859812e-09
0000c0 5d 6e 24 b2 2e 3f 3b b2 f7 83 a3 b1 91 99 b6 b0
       -9.57115e-09 -1.0899198e-08 -4.758927e-09 -1.3285889e-09
0000d0 0b 7a a5 b0 eb 7c 3d b0 ce f6 b6 b1 ba 3f 9a b1
       -1.2040017e-09 -6.893532e-10 -5.3249556e-09 -4.4892348e-09
0000e0 c0 5f 38 b1 dd 36 9f b1 3b 97 96 b1 72 36 2a b1
       -2.6829952e-09 -4.6337463e-09 -4.3827675e-09 -2.4769204e-09
0000f0 08 2a 9b b1 26 05 94 b1 c1 28 06 b1 c7 12 4f b1
       -4.515872e-09 -4.307952e-09 -1.9522732e-09 -3.0133138e-09
000100 62 ac 1d b1 86 6f c2 b0 21 ec a9 b1 40 c3 a3 b1
       -2.2944495e-09 -1.4147055e-09 -4.945392e-09 -4.7661217e-09
000110 e5 7c 2a b1 d8 43 30 b1 8c 65 3f b1 e9 11 aa b0
       -2.480925e-09 -2.5649936e-09 -2.785188e-09 -1.2374218e-09
000120 60 0e 2f b1 84 a1 20 b1 33 ec b5 b0 0c 50 03 b2
       -2.5474023e-09 -2.3374875e-09 -1.3236615e-09 -7.643404e-09
000130 51 a3 df b1 06 de 88 b1 18 04 b2 b1 13 78 ca b1
       -6.508721e-09 -3.983362e-09 -5.1809472e-09 -5.8926246e-09
000140 14 4b 2f b1 0c c7 21 b1 95 94 19 b1 d0 9c ae b0
       -2.5508529e-09 -2.3541729e-09 -2.234889e-09 -1.2704735e-09
000150 0d 21 2e b1 55 83 37 b1 55 94 9e b0 4e 3c c2 b1
       -2.533912e-09 -2.6704658e-09 -1.1538172e-09 -5.652999e-09
000160 3f 8d ae b1 55 83 3d b1 68 1a 12 b1 9f e8 2c b1
       -5.0801243e-09 -2.7577773e-09 -2.1260806e-09 -2.5161524e-09
000170 42 f3 84 b0 37 87 32 b1 6d 09 1e b1 7c 42 ae b0
       -9.673402e-10 -2.597927e-09 -2.2997384e-09 -1.2679062e-09
000180 a0 b2 e0 b3 da ed d4 b3 33 d9 4e b3 ce dc 38 b4
       -1.04633045e-07 -9.915284e-08 -4.8160654e-08 -1.7216664e-07
000190 94 cb 50 b4 88 83 a7 b3 e9 e8 2a b4 8b 55 24 b4
       -1.9445571e-07 -7.800469e-08 -1.5917216e-07 -1.530481e-07
0001a0 52 43 a9 b3 fd 36 87 b3 e8 0a 5e b3 6b 1b 04 b3
       -7.881921e-08 -6.29643e-08 -5.1698322e-08 -3.075858e-08
0001b0 04 a9 a4 b3 1f 91 89 b3 cc e5 1d b3 72 b9 8c b3
       -7.667589e-08 -6.405957e-08 -3.676341e-08 -6.55299e-08
0001c0 61 e8 8d b3 5b 8d 0a b3 29 7e 16 b4 ad 14 35 b4
       -6.6080936e-08 -3.225919e-08 -1.4015735e-07 -1.686446e-07
0001d0 ab d1 93 b3 95 27 b1 b3 ef f3 8b b3 9c 18 26 b3
       -6.883359e-08 -8.249405e-08 -6.517063e-08 -3.867227e-08
0001e0 50 b6 dd b3 4b 10 da b3 bc 16 64 b3 55 07 07 b4
       -1.0324277e-07 -1.015438e-07 -5.3106064e-08 -1.2575522e-07
0001f0 50 4c f6 b3 17 77 73 b3 16 08 e5 b3 4d 42 ae b3
       -1.1469149e-07 -5.6686158e-08 -1.0665114e-07 -8.1145664e-08
000200 8e 05 72 b3 3f 1b cf b3 68 3d d9 b3 7a f7 54 b3
       -5.6350068e-08 -9.644145e-08 -1.011602e-07 -4.9585175e-08
000210 97 76 17 b4 57 6d 0c b4 84 b6 8d b3 6a e9 45 b3
       -1.4106114e-07 -1.3078294e-07 -6.5990235e-08 -4.6079926e-08
000220 8d 2d 53 b3 ec 7f b0 b2 a2 62 26 b4 f5 0b 3e b4
       -4.9168694e-08 -2.0547269e-08 -1.5495837e-07 -1.7699479e-07
000230 db 25 af b3 55 9a 93 b3 cf b1 7e b3 f7 d1 18 b3
       -8.1559584e-08 -6.873294e-08 -5.93007e-08 -3.558122e-08
000240 1f 0e 5c b4 4e 7e 33 b4 59 cf bc b3 5f 14 5f b3
       -2.0494234e-07 -1.6716623e-07 -8.7921485e-08 -5.193976e-08
000250 21 07 46 b3 b3 77 df b2 a1 04 fb b3 41 6d 0e b4
       -4.610695e-08 -2.601505e-08 -1.168894e-07 -1.3264527e-07
000260 98 30 84 b3 5c 5a a4 b3 b4 97 be b3 04 17 25 b3
       -6.155568e-08 -7.6532814e-08 -8.875159e-08 -3.843799e-08
000270 0f 4d e1 b3 b2 a8 ab b3 ed c5 57 b3 71 fc 32 b4
       -1.0491396e-07 -7.9934935e-08 -5.02386e-08 -1.666938e-07
000280 18 dd 47 b4 d2 09 a7 b3 6e 14 44 b4 93 18 09 b4
       -1.8613753e-07 -7.77833e-08 -1.8261355e-07 -1.276806e-07
000290 54 21 c4 b3 cf 7e a4 b3 0b e5 95 b3 bf 19 24 b3
       -9.1330236e-08 -7.6599115e-08 -6.980016e-08 -3.820764e-08
0002a0 8c 31 0a b4 ab 01 ce b3 9b c2 84 b3 a3 2c 2b b4
       -1.2870277e-07 -9.592926e-08 -6.1821275e-08 -1.5941855e-07
0002b0 e0 a5 1e b4 71 93 9a b3 db 41 2e b4 5e 13 29 b4
       -1.4775242e-07 -7.198003e-08 -1.6228971e-07 -1.5746397e-07
0002c0 ff 5f a8 b3 fd 62 ee b3 da e2 fa b3 5a 2d 7d b3
       -7.840571e-08 -1.11007445e-07 -1.1682796e-07 -5.89474e-08
0002d0 0f b2 99 b3 0e 1c b3 b3 89 a8 22 b3 c5 9c 02 b4
       -7.1570064e-08 -8.34044e-08 -3.7871846e-08 -1.2164226e-07
0002e0 0d ae ff b3 c3 03 68 b3 bf 5f 8c b3 85 3f 8c b3
       -1.19060225e-07 -5.402013e-08 -6.536674e-08 -6.530812e-08
0002f0 0b 63 00 b3 8b 21 d8 b3 12 f1 e5 b3 cf 19 5d b3
       -2.98924e-08 -1.0064385e-07 -1.0707494e-07 -5.1479045e-08
000300 30 9e ae 31 7b e1 b5 31 b6 3b 16 31 36 14 97 31
       5.0820503e-09 5.2934275e-09 2.1861815e-09 4.396976e-09
000310 4f 08 a8 31 21 a1 1d 31 fb 90 72 32 18 bf 4c 32
       4.890388e-09 2.2938098e-09 1.4119219e-08 1.19178125e-08
000320 df 24 ba 31 95 16 88 b0 7e c7 7f b0 54 27 ef af
       5.4175042e-09 -9.90172e-10 -9.3051955e-10 -4.350179e-10
000330 73 3b b1 b0 d7 eb bd b0 4f 8a 37 b0 a0 de 68 b0
       -1.2895341e-09 -1.381859e-09 -6.677156e-10 -8.471748e-10
000340 23 9c 58 b0 19 07 0b b0 1e 1c 06 b2 b3 4a 18 b2
       -7.8802226e-10 -5.057799e-10 -7.80622e-09 -8.864549e-09
000350 e0 a2 57 b1 38 f3 c1 af fc 26 bb af 34 a0 30 af
       -3.1379201e-09 -3.5279313e-10 -3.4042802e-10 -1.6064022e-10
000360 60 d1 fd b0 0f 4c 0d b1 87 dc 43 b0 ea eb 60 31
       -1.8467681e-09 -2.0561435e-09 -7.1253975e-10 3.2730392e-09
000370 ad 80 9d 31 63 8d e9 30 9c bf ba 30 45 ae b8 30
       4.58393e-09 1.6993166e-09 1.358774e-09 1.3437292e-09
000380 dd b5 20 30 e3 9e b3 b0 5f 7e ab b0 10 9e 0a b0
       5.8466104e-10 -1.3069122e-09 -1.2477804e-09 -5.042873e-10
000390 b4 5e 42 31 67 52 99 31 66 30 e2 30 32 f0 4f 31
       2.8284548e-09 4.462254e-09 1.645742e-09 3.0259e-09
0003a0 0f 59 12 31 c6 84 c3 30 38 b7 4c b0 8d 39 25 b0
       2.129642e-09 1.4225854e-09 -7.4475137e-10 -6.0108435e-10
0003b0 f5 c6 c4 af 93 fa 33 b0 45 74 40 b0 db 06 90 af
       -3.579356e-10 -6.547591e-10 -7.001442e-10 -2.6198319e-10
0003c0 fa 01 fc 2f be 3e ca 2f 1f 01 6f 2f 64 3b 03 b0
       4.5839937e-10 3.6788167e-10 2.1737322e-10 -4.774192e-10
0003d0 db 40 52 b0 99 43 a1 af 24 45 85 b0 46 13 e4 b0
       -7.648972e-10 -2.933376e-10 -9.696675e-10 -1.6594661e-09
0003e0 0c d2 ee af 0e a4 a6 b0 4d c1 aa b0 4c d8 10 b0
       -4.3441195e-10 -1.2124717e-09 -1.2424067e-09 -5.269427e-10
0003f0 64 63 14 2f 1f 9b 9d 2e 63 80 2b 2e a5 67 94 b1
       1.3495832e-10 7.1670885e-11 3.899493e-11 -4.31915e-09

exp_avg_sq f4 [128, 3]
000000 c9 6f 87 31 b9 12 81 31 6b 7a 26 31 fa 07 b9 31
       3.9417256e-09 3.7565226e-09 2.4225766e-09 5.3851155e-09
000010 f4 01 bc 31 97 68 29 31 8a 3f 2c 31 1e d0 c4 31
       5.471742e-09 2.465219e-09 2.5065412e-09 5.728011e-09
000020 99 08 3b 31 ee 10 39 30 21 1a 6f 30 0b 3e ee 2f
       2.7216969e-09 6.7326666e-10 8.6984825e-10 4.3336032e-10
000030 81 da 36 31 4f c1 44 31 d0 10 bc 30 8d ec 49 30
       2.660869e-09 2.8631637e-09 1.3683579e-09 7.3459533e-10
000040 f7 0a 7f 30 9e 6c 92 2f bc a3 3f 31 b6 9c 57 31
       9.278404e-10 2.6634422e-10 2.788723e-09 3.1375698e-09
000050 6a 70 16 31 bd 8e 3c 30 f0 62 6a 30 54 d3 e2 2f
       2.1891773e-09 6.8596845e-10 8.52693e-10 4.1259318e-10
000060 f3 02 26 31 91 a4 4f 31 02 c2 e0 30 b3 30 cd 31
       2.4157856e-09 3.021601e-09 1.6353285e-09 5.9718217e-09
000070 62 1d 91 31 ee 2b 3d 31 1e 11 71 31 92 85 b9 31
       4.223396e-09 2.752809e-09 3.5079846e-09 5.399394e-09
000080 e0 e9 46 31 7b 4e ac 30 5d d4 f3 30 5d 46 5a 30
       2.8945735e-09 1.2536953e-09 1.7740934e-09 7.940793e-10
000090 60 be 7d 31 af cd 25 31 29 5e c4 30 bd e3 57 2f
       3.6924561e-09 2.4127578e-09 1.4287639e-09 1.9635045e-10
0000a0 ea 7e e2 2f dc 99 16 2f 9a 1d 22 31 66 ab 10 31
       4.1199338e-10 1.3697082e-10 2.359093e-09 2.1052187e-09
0000b0 04 ec ba 30 2b 2a 3f 30 11 d1 77 30 ab 6d fb 2f
       1.3600361e-09 6.954532e-10 9.015518e-10 4.5734558e-10
0000c0 83 18 52 30 71 19 0c 30 8e e3 de 2f d8 a5 5f 30
       7.643239e-10 5.096786e-10 4.0543252e-10 8.1362606e-10
0000d0 ff 56 01 30 e8 0f a2 2f 14 03 b4 31 45 4a aa 31
       4.7053555e-10 2.947893e-10 5.2390394e-09 4.9560946e-09
0000e0 36 12 5f 31 d8 6a 85 30 b8 e0 a3 30 e9 21 1f 30
       3.2461123e-09 9.70739e-10 1.192368e-09 5.789205e-10
0000f0 2e 8b 22 30 61 d2 de 2f 2b 8f 9a 2f 03 7e 62 31
       5.9133043e-10 4.0531048e-10 2.8114164e-10 3.2958958e-09
000100 2d 6c cc 31 1b 47 12 31 72 d6 92 31 ab ee 14 32
       5.9494796e-09 2.1286215e-09 4.273539e-09 8.669001e-09
000110 66 6a 86 31 ef 17 d9 2f 9d e8 d2 30 dc 77 cd 2f
       3.9120094e-09 3.9489076e-10 1.5345624e-09 3.7374448e-10
000120 52 74 a4 31 4e b2 9b 31 e4 45 43 31 39 92 6b 30
       4.7862523e-09 4.5313646e-09 2.8415963e-09 8.5700297e-10
000130 f2 7d 2b 30 7e 70 e6 2f 59 11 d5 31 e3 fd 4b 32
       6.2388417e-10 4.1916687e-10 6.201088e-09 1.1873882e-08
000140 8d 70 9d 31 83 96 01 32 3c 50 68 31 57 6c 97 31
       4.582097e-09 7.543011e-09 3.3806051e-09 4.406995e-09
000150 e8 c1 4a 30 26 ef 87 30 c3 1b ca 2f bc e9 28 30
       7.376273e-10 9.890513e-10 3.6763312e-10 6.14502e-10
000160 e7 1d cd 2f 50 7e ad 2f b8 90 45 2f cc 03 67 2f
       3.731053e-10 3.1558267e-10 1.796846e-10 2.1010677e-10
000170 8f b7 b8 2e 47 84 7d 30 b0 6c 0a 31 4b b6 3d 30
       8.399958e-11 9.222884e-10 2.0143425e-09 6.9016853e-10
000180 91 99 f5 31 01 06 17 32 9e 5b 80 31 fb d7 0f 32
       7.147897e-09 8.790722e-09 3.735706e-09 8.372804e-09
000190 51 3e 61 32 b7 39 ab 31 d2 62 e5 31 ca fc 19 32
       1.3110893e-08 4.9833164e-09 6.6760117e-09 8.96325e-09
0001a0 3e ba 76 31 0b b3 32 30 72 bf 75 30 b1 97 d8 2f
       3.5903578e-09 6.501046e-10 8.940254e-10 3.9397954e-10
0001b0 51 27 26 31 9e 65 7c 31 04 db d6 30 69 3b 44 30
       2.4178528e-09 3.672859e-09 1.5632797e-09 7.138881e-10
0001c0 86 02 94 30 77 4b 02 30 2e f9 9d 31 7e e2 05 32
       1.0769134e-09 4.7400966e-10 4.59763e-09 7.793117e-09
0001d0 eb 7c 32 31 47 45 25 30 29 a5 3e 30 05 3c b3 2f
       2.5973417e-09 6.01251e-10 6.9356304e-10 3.2602557e-10
0001e0 5c 7f 80 31 bf a6 be 31 27 3f 12 31 22 60 ca 31
       3.7397694e-09 5.5486846e-09 2.1281694e-09 5.889903e-09
0001f0 6d f5 23 32 28 f3 74 31 23 94 bb 31 85 d7 0c 32
       9.543652e-09 3.5644891e-09 5.4592575e-09 8.198076e-09
000200 18 4f 80 31 42 46 2d 31 eb bf 59 31 6c 09 a8 30
       3.734282e-09 2.521475e-09 3.1686749e-09 1.2226287e-09
000210 a6 6c a8 31 97 9d 06 32 81 99 57 31 11 9b 3c 2f
       4.9017954e-09 7.835658e-09 3.1373875e-09 1.7153591e-10
000220 08 36 61 2f 66 e9 d4 2e 88 4d e0 30 97 7b e4 30
       2.0482827e-10 9.682104e-11 1.6320181e-09 1.662431e-09
000230 a8 40 8b 30 7c 1b 67 30 68 6b a6 30 62 00 06 30
       1.0131957e-09 8.407637e-10 1.2108616e-09 4.874946e-10
000240 a4 77 33 30 e5 f0 bd 2f 77 62 ad 2f 8e 86 0d 30
       6.528984e-10 3.4550066e-10 3.153848e-10 5.1486715e-10
000250 e2 2b 5c 30 dc ce c7 2f bc 9b 6d 31 92 0b e1 31
       8.0097895e-10 3.6344872e-10 3.4576564e-09 6.5496772e-09
000260 44 73 31 31 ea da 2d 30 36 f8 79 30 42 81 d2 2f
       2.582241e-09 6.324813e-10 9.09384e-10 3.829062e-10
000270 d7 9f a5 2f df f8 3c 2f 25 5e 0e 2f 3e da c6 31
       3.0126898e-10 1.7186917e-10 1.2948272e-10 5.7873697e-09
000280 54 b7 27 32 b9 5b 84 31 20 cf d8 31 8a 33 0f 32
       9.762363e-09 3.8521333e-09 6.3099748e-09 8.335414e-09
000290 f6 c8 7d 31 9e dd 3f 30 b9 9c 46 30 c6 0c c9 2f
       3.6930579e-09 6.980033e-10 7.2254697e-10 3.6570763e-10
0002a0 7b 3b db 31 9b b6 20 32 fc f6 91 31 e5 8c 58 30
       6.380501e-09 9.354745e-09 4.2481343e-09 7.8780565e-10
0002b0 a5 b7 1a 30 6c f4 c4 2f 67 27 4d 32 7d 18 93 32
       5.628585e-10 3.5825864e-10 1.19415295e-08 1.7124188e-08
0002c0 67 38 ee 31 e9 ec fd 31 20 d8 62 32 8d 99 ba 31
       6.933124e-09 7.3902027e-09 1.32040725e-08 5.430769e-09
0002d0 44 d2 14 30 2a 98 33 30 ac eb a3 2f be ef 9a 2f
       5.414089e-10 6.533606e-10 2.9816982e-10 2.8182784e-10
0002e0 7a 40 7d 2f ec 02 11 2f 92 1a f3 2e bf 2a f6 2e
       2.3033123e-10 1.3188711e-10 1.10550805e-10 1.1194378e-10
0002f0 fd 3c 59 2e ef 8b 07 31 54 1b 41 31 62 44 a9 30
       4.9394256e-11 1.9724629e-09 2.810073e-09 1.2315804e-09
000300 d3 85 71 33 8f e0 b6 33 52 cc 09 33 55 2a 57 34
       5.6233898e-08 8.5158824e-08 3.2083626e-08 2.0038836e-07
000310 b1 8d 80 34 16 6b 0c 34 c6 e0 e8 33 d3 98 d3 33
       2.3944952e-07 1.3077474e-07 1.0844228e-07 9.853252e-08
000320 f3 f1 2b 33 5e 82 b0 32 db 44 0a 33 78 a6 71 32
       4.003409e-08 2.054838e-08 3.2193253e-08 1.4065897e-08
000330 7f 2f 30 33 ab c0 b0 33 00 67 08 33 de 03 d9 32
       4.102139e-08 8.230685e-08 3.1758645e-08 2.5263883e-08
000340 97 7a 16 33 09 4f a7 32 c8 76 12 34 ef b4 54 34
       3.503609e-08 1.94773e-08 1.3640522e-07 1.9809862e-07
000350 e7 28 96 33 9e 00 16 32 7e 05 3c 32 45 7f 8f 31
       6.9923594e-08 8.7312895e-09 1.0944289e-08 4.1763166e-09
000360 df f0 f8 32 85 b4 2d 33 60 21 6a 32 ab b0 c9 33
       2.8980535e-08 4.0443883e-08 1.3628181e-08 9.3919276e-08
000370 3d 27 3c 34 79 9a 99 33 7e e3 8f 33 80 6d a8 33
       1.7523139e-07 7.152716e-08 6.700337e-08 7.8430276e-08
000380 bc b6 21 33 e3 eb d4 32 a7 f1 a1 32 17 78 10 32
       3.765193e-08 2.4787317e-08 1.8852758e-08 8.409208e-09
000390 66 4a 39 33 c0 ee d2 33 0f 98 22 33 b8 3e 71 32
       4.3141334e-08 9.8223154e-08 3.785686e-08 1.4042307e-08
0003a0 47 6a b8 32 a5 84 1b 32 66 77 18 33 cc 7f 3d 33
       2.1468749e-08 9.052347e-09 3.549885e-08 4.4121222e-08
0003b0 69 cc a7 32 8d 74 ce 31 a1 bc 09 32 32 54 1c 31
       1.9534314e-08 6.0086394e-09 8.017339e-09 2.2748847e-09
0003c0 f0 01 1c 32 24 fe 09 32 0f 9b a4 31 37 69 6a 32
       9.080836e-09 8.032234e-09 4.7906563e-09 1.3644516e-08
0003d0 cf 10 dd 32 4c 15 33 32 7a 79 be 32 ad 1b 89 33
       2.573543e-08 1.0424014e-08 2.2174152e-08 6.384594e-08
0003e0 f7 ba 9e 32 69 f3 75 32 67 6b 9e 32 64 1c e1 31
       1.8478643e-08 1.4316222e-08 1.8442462e-08 6.5515895e-09
0003f0 9c 58 d8 31 ad af cf 31 d4 6a 70 31 a4 d5 f2 33
       6.296501e-09 6.044465e-09 3.4985321e-09 1.1307864e-07

exp_avg f4 [128, 32]
000000 26 8a 88 31 ee b1 88 31 c6 aa 88 31 50 e9 88 b1
       3.9738266e-09 3.978349e-09 3.9775356e-09 -3.9846455e-09
000010 d6 c6 88 b1 a2 f9 88 b1 d7 d6 88 b1 e9 ee 88 b1
       -3.980726e-09 -3.986501e-09 -3.9825454e-09 -3.985282e-09
000020 3a a1 88 b1 f6 c5 88 31 d2 b5 88 31 ed e1 88 b1
       -3.9764503e-09 3.9806265e-09 3.9787915e-09 -3.9838057e-09
000030 e2 da 88 31 bf 02 89 31 c4 e3 88 b1 6e e7 88 b1
       3.983005e-09 3.987537e-09 -3.984015e-09 -3.9844315e-09
000040 39 04 89 31 22 fe 88 b1 ce be 88 b1 b8 f9 88 b1
       3.987705e-09 -3.9870125e-09 -3.979813e-09 -3.9865107e-09
000050 cf ff 88 31 ba d5 88 b1 34 c5 88 31 c6 e1 88 b1
       3.987203e-09 -3.982419e-09 3.9805403e-09 -3.9837884e-09
000060 15 a0 88 b1 59 fe 88 31 cc a4 88 31 33 ae 88 b1
       -3.97632e-09 3.987037e-09 3.976856e-09 -3.977925e-09
000070 1b fb 88 b1 6a 01 89 b1 7d ff 88 31 8f da 88 31
       -3.9866683e-09 -3.9873855e-09 3.9871666e-09 3.982968e-09
000080 c0 0a c3 31 76 43 c3 31 41 39 c3 31 6c 92 c3 b1
       5.676469e-09 5.6829164e-09 5.681756e-09 -5.691893e-09
000090 42 61 c3 b1 b0 a9 c3 b1 15 78 c3 b1 67 9a c3 b1
       -5.686304e-09 -5.694538e-09 -5.6888987e-09 -5.6928005e-09
0000a0 a6 2b c3 b1 04 60 c3 31 01 49 c3 31 e3 87 c3 b1
       -5.680209e-09 5.6861627e-09 5.6835465e-09 -5.6906955e-09
0000b0 d7 7d c3 31 ae b6 c3 31 84 8a c3 b1 be 8f c3 b1
       5.6895533e-09 5.696015e-09 -5.6909943e-09 -5.6915885e-09
0000c0 ca b8 c3 31 19 b0 c3 b1 d1 55 c3 b1 cf a9 c3 b1
       5.696255e-09 -5.695267e-09 -5.685003e-09 -5.694552e-09
0000d0 7e b2 c3 31 7d 76 c3 b1 f1 5e c3 31 ab 87 c3 b1
       5.695539e-09 -5.6887175e-09 5.6860405e-09 -5.6906706e-09
0000e0 05 2a c3 b1 69 b0 c3 31 bc 30 c3 31 24 3e c3 b1
       -5.680024e-09 5.6953025e-09 5.6807874e-09 -5.6823115e-09
0000f0 c9 ab c3 b1 c9 b4 c3 b1 09 b2 c3 31 62 7d c3 31
       -5.6947767e-09 -5.6958e-09 5.695487e-09 5.6895013e-09
000100 db 86 c9 31 73 c1 c9 31 e9 b6 c9 31 08 13 ca b1
       5.865201e-09 5.8718626e-09 5.8706644e-09 -5.8811374e-09
000110 3d e0 c9 b1 11 2b ca b1 d1 f7 c9 b1 48 1b ca b1
       -5.875363e-09 -5.88387e-09 -5.8780434e-09 -5.8820753e-09
000120 da a8 c9 b1 f4 de c9 31 2e c7 c9 31 26 08 ca b1
       -5.869066e-09 5.8752168e-09 5.872514e-09 -5.8799e-09
000130 c5 fd c9 31 7e 38 ca 31 dc 0a ca b1 42 10 ca b1
       5.87872e-09 5.885396e-09 -5.8802083e-09 -5.880822e-09
000140 ab 3a ca 31 b2 31 ca b1 6a d4 c9 b1 32 2b ca b1
       5.8856435e-09 -5.8846235e-09 -5.8740186e-09 -5.8838845e-09
000150 2a 34 ca 31 2b f6 c9 b1 d8 dd c9 31 eb 07 ca b1
       5.884904e-09 -5.877856e-09 5.8750906e-09 -5.879874e-09
000160 2c a7 c9 b1 02 32 ca 31 1b ae c9 31 f3 bb c9 b1
       -5.868875e-09 5.884659e-09 5.8696634e-09 -5.8712373e-09
000170 3d 2d ca b1 87 36 ca b1 b1 33 ca 31 4a fd c9 31
       -5.8841167e-09 -5.885173e-09 5.8848504e-09 5.8786656e-09
000180 07 fc 19 31 a3 28 1a 31 9d 20 1a 31 be 66 1a b1
       2.2407691e-09 2.2433049e-09 2.2428488e-09 -2.2468352e-09
000190 13 40 1a b1 0b 79 1a b1 05 52 1a b1 09 6d 1a b1
       -2.2446371e-09 -2.2478754e-09 -2.2456572e-09 -2.2471929e-09
0001a0 ea 15 1a b1 18 3f 1a 31 02 2d 1a 31 79 5e 1a b1
       -2.2422406e-09 2.2445814e-09 2.2435533e-09 -2.246365e-09
0001b0 8f 56 1a 31 43 83 1a 31 86 60 1a b1 a6 64 1a b1
       2.2459152e-09 2.2484563e-09 -2.2464817e-09 -2.2467161e-09
0001c0 ed 84 1a 31 17 7e 1a b1 11 37 1a b1 24 79 1a b1
       2.248551e-09 -2.2481623e-09 -2.244125e-09 -2.247881e-09
0001d0 fa 7f 1a 31 c4 50 1a b1 3f 3e 1a 31 49 5e 1a b1
       2.2482696e-09 -2.245586e-09 2.2445332e-09 -2.2463544e-09
0001e0 a5 14 1a b1 57 7e 1a 31 e6 19 1a 31 73 24 1a b1
       -2.2421685e-09 2.2481765e-09 2.242467e-09 -2.2430668e-09
0001f0 b4 7a 1a b1 c7 81 1a b1 9b 7f 1a 31 33 56 1a 31
       -2.2479698e-09 -2.248372e-09 2.2482485e-09 2.2458948e-09
000200 49 f2 44 31 96 2b 45 31 49 21 45 31 60 7b 45 b1
       2.8659477e-09 2.8692049e-09 2.8686193e-09 -2.8737404e-09
000210 b3 49 45 b1 e4 92 45 b1 c4 60 45 b1 72 83 45 b1
       -2.8709166e-09 -2.875077e-09 -2.8722278e-09 -2.874199e-09
000220 87 13 45 b1 72 48 45 31 33 31 45 31 bd 70 45 b1
       -2.8678373e-09 2.8708453e-09 2.869524e-09 -2.8731357e-09
000230 97 66 45 31 04 a0 45 31 63 73 45 b1 ac 78 45 b1
       2.8725589e-09 2.8758231e-09 -2.8732863e-09 -2.8735867e-09
000240 25 a2 45 31 5d 99 45 b1 23 3e 45 b1 02 93 45 b1
       2.8759441e-09 -2.875445e-09 -2.8702594e-09 -2.8750837e-09
000250 c9 9b 45 31 27 5f 45 b1 5b 47 45 31 84 70 45 b1
       2.8755827e-09 -2.872136e-09 2.8707834e-09 -2.873123e-09
000260 e3 11 45 b1 ae 99 45 31 ab 18 45 31 38 26 45 b1
       -2.867744e-09 2.875463e-09 2.8681295e-09 -2.8688998e-09
000270 03 95 45 b1 1a 9e 45 b1 52 9b 45 31 1f 66 45 31
       -2.8751976e-09 -2.8757143e-09 2.8755562e-09 2.8725322e-09
000280 5a 91 02 31 4b b7 02 31 78 b0 02 31 21 ec 02 b1
       1.9000113e-09 1.902168e-09 1.90178e-09 -1.9051714e-09
000290 3c cb 02 b1 b2 fb 02 b1 81 da 02 b1 79 f1 02 b1
       -1.9033015e-09 -1.9060562e-09 -1.9041695e-09 -1.9054751e-09
0002a0 5e a7 02 b1 68 ca 02 31 03 bb 02 31 15 e5 02 b1
       -1.9012627e-09 1.9032544e-09 1.9023794e-09 -1.9047708e-09
0002b0 5c de 02 31 64 04 03 31 d6 e6 02 b1 56 ea 02 b1
       1.9043886e-09 1.9065505e-09 -1.9048705e-09 -1.9050694e-09
0002c0 cc 05 03 31 fb ff 02 b1 93 c3 02 b1 c8 fb 02 b1
       1.9066304e-09 -1.9062998e-09 -1.902866e-09 -1.906061e-09
0002d0 97 01 03 31 70 d9 02 b1 af c9 02 31 ef e4 02 b1
       1.9063913e-09 -1.9041089e-09 1.9032134e-09 -1.9047623e-09
0002e0 48 a6 02 b1 31 00 03 31 c4 aa 02 31 bd b3 02 b1
       -1.901201e-09 1.9063118e-09 1.9014559e-09 -1.901966e-09
0002f0 1a fd 02 b1 1f 03 03 b1 47 01 03 31 0d de 02 31
       -1.9061361e-09 -1.9064783e-09 1.9063735e-09 1.904371e-09
000300 e7 1e b5 31 7b 53 b5 31 05 4a b5 31 ae 9c b5 b1
       5.2713065e-09 5.277284e-09 5.2762084e-09 -5.2856057e-09
000310 1b 6f b5 b1 3f b2 b5 b1 40 84 b5 b1 16 a4 b5 b1
       -5.2804245e-09 -5.2880575e-09 -5.2828284e-09 -5.2864477e-09
000320 68 3d b5 b1 f4 6d b5 31 a0 58 b5 31 ea 92 b5 b1
       -5.2747744e-09 5.2802935e-09 5.277869e-09 -5.2844955e-09
000330 9b 89 b5 31 4b be b5 31 5a 95 b5 b1 31 9a b5 b1
       5.2834372e-09 5.289427e-09 -5.2847726e-09 -5.285323e-09
000340 40 c0 b5 31 31 b8 b5 b1 7e 64 b5 b1 5c b2 b5 b1
       5.2896496e-09 -5.2887335e-09 -5.279218e-09 -5.2880704e-09
000350 69 ba b5 31 c8 82 b5 b1 f4 6c b5 31 b6 92 b5 b1
       5.2889857e-09 -5.2826614e-09 5.28018e-09 -5.2844724e-09
000360 e7 3b b5 b1 7b b8 b5 31 1e 42 b5 31 8b 4e b5 b1
       -5.2746034e-09 5.2887663e-09 5.27531e-09 -5.2767226e-09
000370 32 b4 b5 b1 88 bc b5 b1 fc b9 b5 31 2d 89 b5 31
       -5.288279e-09 -5.289227e-09 5.2889373e-09 5.2833884e-09
000380 59 b9 5f 31 19 fa 5f 31 74 ee 5f 31 3f 54 60 b1
       3.255613e-09 3.2592935e-09 3.2586316e-09 -3.2644178e-09
000390 1e 1c 60 b1 d2 6e 60 b1 2b 36 60 b1 63 5d 60 b1
       -3.2612273e-09 -3.2659284e-09 -3.262708e-09 -3.2649374e-09
0003a0 ed de 5f b1 b4 1a 60 31 71 00 60 31 3d 48 60 b1
       -3.257749e-09 3.261147e-09 3.259654e-09 -3.2637353e-09
0003b0 c1 3c 60 31 a7 7d 60 31 3b 4b 60 b1 35 51 60 b1
       3.2630825e-09 3.2667715e-09 -3.2639054e-09 -3.264245e-09
0003c0 0f 80 60 31 24 76 60 b1 0d 0f 60 b1 f5 6e 60 b1
       3.2669083e-09 -3.2663445e-09 -3.2604845e-09 -3.2659362e-09
0003d0 e1 78 60 31 59 34 60 b1 76 19 60 31 f8 47 60 b1
       3.2665002e-09 -3.2626046e-09 3.2610763e-09 -3.26372e-09
0003e0 13 dd 5f b1 7f 76 60 31 b4 e4 5f 31 04 f4 5f b1
       -3.2576437e-09 3.2663647e-09 3.2580774e-09 -3.2589478e-09
0003f0 38 71 60 b1 7d 7b 60 b1 57 78 60 31 3c 3c 60 31
       -3.2660648e-09 -3.2666485e-09 3.2664695e-09 3.263053e-09
