a2c_agent_checkpoint.pth (torch, 74879 bytes, 21 tensors)

lstm_cell.weight_ih f4 [128, 2]
0	0x3e2a0c3f	0.16606234
1	0x3c720de0	0.014773816
2	0x3dd3760f	0.10325252
3	0x3e26e7b4	0.16299325
4	0x3dacca6b	0.08437046
5	0x3e54e1e4	0.20789295
6	0x3e5445cf	0.20729755
7	0x3e84bb44	0.25924122
8	0x3d9a80e7	0.075441174
9	0x3e7ddceb	0.24791305
10	0x3bc7f946	0.0061027138
11	0x3e50a9ad	0.20377226
12	0x3e8da07b	0.276615
13	0x3e726886	0.23672685
14	0x3e01b3a5	0.12666185
15	0x3e921389	0.2853053
16	0x3e40bc3d	0.18821807
17	0x3dd792d5	0.10526053
18	0x3dfe9cb8	0.124322355
19	0x3ea10bf6	0.31454438
20	0x3da9faca	0.08299787
21	0x3d8e56a5	0.0695012
22	0x3de75719	0.112959094
23	0x3e68ccca	0.22734371
24	0x3d9b7f34	0.075926214
25	0x3db09ccb	0.08623656
26	0x3e8f7dd8	0.280257
27	0x3dda43a1	0.106574304
28	0x3e812ca0	0.2522936
29	0x3e6a5d65	0.2288719
30	0x3dcc8692	0.09986605
31	0x3e82721f	0.25477692
32	0x3de0ca6c	0.10976109
33	0x3dc7d12d	0.09756694
34	0x3ea318ce	0.31854862
35	0x3e834037	0.2563493
36	0x3e418723	0.18899207
37	0x3defebe8	0.117149174
38	0x3e277990	0.16354966
39	0x3db3f900	0.08787727
40	0x3da623bc	0.081122845
41	0x3e624c8f	0.22099517
42	0x3eaebdf8	0.3412931
43	0x3eb0cc66	0.34530944
44	0x3e7948ba	0.24344149
45	0x3e2214a9	0.15828194
46	0x3e67c89b	0.22635119
47	0x3e5a8bf6	0.21342453
48	0x3e1857eb	0.14877288
49	0x3ecedb68	0.4040177
50	0x3e34464a	0.17604938
51	0xbbb17a2d	-0.005416176
52	0x3e8a264d	0.26982346
53	0x3e84c387	0.25930426
54	0x3e161174	0.14655095
55	0x3e82c7c7	0.25543043
56	0x3e3cba37	0.1843041
57	0x3e8ba4d6	0.27274197
58	0x3e95a34b	0.29226145
59	0x3eb4b42b	0.35293707
60	0x3e47a844	0.19497782
61	0x3ea5fbe2	0.32418734
62	0x3ea48119	0.32129744
63	0x3d7fb8d7	0.062432136
64	0x3e93c0d6	0.2885806
65	0x3e13c17f	0.14429282
66	0x3e8a9db8	0.27073455
67	0x3d7955c8	0.060872823
68	0xbd21998e	-0.03945308
69	0x3d46ab6f	0.048503336
70	0x3e1846e0	0.14870787
71	0x3d8d8586	0.06910233
72	0x3e2c3621	0.16817524
73	0x3bc84e79	0.0061128703
74	0x3e56b6cd	0.2096817
75	0xbc368361	-0.011139722
76	0x3e6eb31e	0.23310515
77	0x3e146dfc	0.1449508
78	0x3d1302e5	0.035891432
79	0x3e1cafbd	0.15301414
80	0x3e2c4f40	0.16827106
81	0x3dbc0a13	0.09181609
82	0x3e74129f	0.23835228
83	0x3e0bb335	0.13642581
84	0xbabdfef8	-0.0014495542
85	0x3e6eb6f6	0.23311982
86	0xba898b57	-0.0010493797
87	0x3e6fd9a7	0.23422872
88	0x3e10074e	0.14065287
89	0x3e89df3a	0.2692812
90	0x3dfebfe0	0.12438941
91	0x3e39e226	0.18152675
92	0x3d7cdd9d	0.061734784
93	0x3e876a10	0.26448107
94	0x3dfe33cc	0.12412223
95	0x3e53f388	0.20698369
96	0x3c54e2b8	0.012993507
97	0x3e069abf	0.13144968
98	0x3e1327bc	0.14370626
99	0x3e64439f	0.2229142
100	0x3c51843a	0.012787873
101	0x3d5e7d6d	0.054318834
102	0x3d9fe901	0.07808114
103	0x3e486c01	0.1957245
104	0x3e491f91	0.19640948
105	0x3e36ce09	0.17852034
106	0x3e87a9d8	0.26496768
107	0x3e995050	0.29944086
108	0xbc682ea3	-0.014171275
109	0x3e517576	0.20454964
110	0x3d8bfe52	0.06835617
111	0x3d3d68ba	0.046242453
112	0xba616fe5	-0.00085997424
113	0x3e3da1f4	0.18518811
114	0x3e74811c	0.23877376
115	0xbd8b65c3	-0.06806519
116	0x3e395bf6	0.18101487
117	0x3cf52e91	0.029929431
118	0x3d696bb7	0.05698749
119	0x3e2a74db	0.1664614
120	0x3d68e27f	0.05685663
121	0x3e4c00f4	0.19922239
122	0x3e7b4188	0.24536717
123	0x3da4d729	0.08048851
124	0xbc01332c	-0.0078857355
125	0x3e13d37c	0.14436144
126	0x3e66b451	0.22529723
127	0xbcdc99f6	-0.026928883
128	0x3d67672c	0.056494877
129	0xbe9085e9	-0.28227165
130	0x3e49d0d8	0.19708574
131	0x3e847234	0.2586838
132	0xbe3d8180	-0.18506432
133	0xbd94d8d0	-0.07267916
134	0x3c926319	0.01786952
135	0x3e81ac86	0.25326937
136	0x3e820d3b	0.2540072
137	0x3e83cf7d	0.25744238
138	0x3d70884b	0.05872373
139	0x3d5a1e6e	0.053251676
140	0xbe91ad07	-0.28452322
141	0xbe8db24d	-0.27675095
142	0x3e848451	0.258822
143	0x3e982bc9	0.29720905
144	0x3e873faf	0.26415774
145	0xbc0a6172	-0.008446084
146	0x3e2572d5	0.16157086
147	0x3dac1a76	0.084034845
148	0xbe6bd8eb	-0.23031966
149	0xbe53dee4	-0.20690495
150	0xbe718f52	-0.23589829
151	0xbdb097d0	-0.08622706
152	0x3e207aa2	0.1567178
153	0x3dfc6b61	0.123251684
154	0x3e03f435	0.12886126
155	0x3da379b9	0.07982201
156	0xbe12a50d	-0.14320774
157	0x3ce57b27	0.028012825
158	0x3e461bf3	0.193466
159	0x3e4040ae	0.18774673
160	0x3e9364bb	0.2878779
161	0x3e4be3a6	0.1991106
162	0x3e5b63ef	0.2142484
163	0x3e387837	0.18014608
164	0x3d960d38	0.0732674
165	0x3e7ef586	0.24898347
166	0xbe8ea245	-0.27858177
167	0xbe819b13	-0.25313625
168	0xbe764fb3	-0.2405384
169	0xbdea4baf	-0.11440217
170	0x3dd13fbb	0.10217234
171	0x3e03b881	0.12863351
172	0x3e6e41dd	0.23267312
173	0x3e2d1a9b	0.1690468
174	0xbe7b2889	-0.24527182
175	0xbea189d6	-0.31550473
176	0xbe9b34df	-0.30313775
177	0xbe64b1a1	-0.22333385
178	0x3d9d9899	0.07695121
179	0x3e016465	0.12635954
180	0xbe90a7b9	-0.28252962
181	0xbe7d819f	-0.24756478
182	0x3dd8c424	0.10584286
183	0x3e38f3be	0.1806173
184	0xbdb3fc3a	-0.08788343
185	0xbe3add7b	-0.1824855
186	0x3ce41899	0.02784376
187	0x3e0d1cb5	0.13780482
188	0x3b71fecc	0.0036925552
189	0xbd839d48	-0.064264834
190	0x3e3d0c01	0.1846161
191	0x3d46354b	0.048390668
192	0x3ea41409	0.32046536
193	0x3e7e8013	0.24853544
194	0x3e9029dc	0.28156936
195	0x3e84c986	0.25935
196	0x3e274806	0.16336069
197	0x3dd066bf	0.10175847
198	0x3e43fd69	0.19139637
199	0x3e91e067	0.28491518
200	0x3e906a12	0.28205925
201	0x3ec2a3f6	0.38015717
202	0x3da430a9	0.08017094
203	0x3ea6e08f	0.325932
204	0x3d315774	0.043296292
205	0x3e502761	0.20327522
206	0x3e8e565a	0.27800256
207	0x3ecaa512	0.39579064
208	0x3eaf0da7	0.34190103
209	0x3dfbc1c3	0.122928165
210	0x3bb36b57	0.0054754424
211	0x3e1218c3	0.14267258
212	0x3e19015c	0.14941925
213	0x3db2a844	0.087235
214	0x3e4c9e2f	0.19982217
215	0x3e363f11	0.17797495
216	0x3e6296e2	0.2212787
217	0x3e82f721	0.2557917
218	0x3e9954a4	0.29947388
219	0x3e53795a	0.2065176
220	0x3e1b1cf0	0.15147758
221	0x3e74646d	0.23866434
222	0x3ea651f0	0.32484388
223	0x3e7a0b62	0.24418405
224	0x3e53fa38	0.2070092
225	0x3ebb2b04	0.36556256
226	0x3d92c54f	0.0716654
227	0x3e35e4de	0.17763087
228	0x3eaa8ceb	0.33310637
229	0x3da9af83	0.08285429
230	0x3eaa7c24	0.33297837
231	0x3e893409	0.26797512
232	0x3ce026ce	0.027362254
233	0x3ec2e030	0.38061666
234	0x3e791bbb	0.24326985
235	0x3ee70f36	0.45128793
236	0x3e9953e8	0.29946828
237	0x3ddedb68	0.10881692
238	0x3d91cc92	0.07119097
239	0x3da4a71a	0.080396846
240	0x3e771d25	0.24132212
241	0x3e2931b6	0.1652287
242	0x3dfa00c1	0.12207175
243	0x3ead9e0b	0.3390964
244	0x3e5e7d57	0.21727501
245	0x3e055b9c	0.13023227
246	0x3e89c846	0.2691061
247	0x3e8172dd	0.25282946
248	0x3eae0106	0.33985156
249	0x3e60a539	0.21938027
250	0x3ea7b52f	0.3275542
251	0x3eaba363	0.33523092
252	0x3eadc10e	0.33936352
253	0x3e7d3ba0	0.24729776
254	0x3e934ff3	0.28771934
255	0x3e54a290	0.20765138

lstm_cell.weight_hh f4 [128, 32]
0	0xbe3905af	-0.18068574
1	0x3e84ebcf	0.25961158
2	0xbd3a0615	-0.045415957
3	0x3e79a0e4	0.24377781
4	0x3e7cfdae	0.24706146
5	0x3d0eeb34	0.034892276
6	0xbe65f5c7	-0.22457038
7	0x3cd46de7	0.025931312
8	0x3ec510f5	0.384895
9	0x3d3f9b11	0.046778742
10	0x3c23ef65	0.010005807
11	0xbe2c1dd7	-0.16808258
12	0x3e0c3a81	0.13694192
13	0xbdf2934c	-0.11844501
14	0xbe9602a1	-0.2929888
15	0x3dc5f019	0.096649356
16	0x3e8ec734	0.27886355
17	0x3e4923e2	0.19642594
18	0x3d5d3f2e	0.05401533
19	0xbf62f3a9	-0.88653046
20	0xbe60a60c	-0.21938342
21	0x3c61705e	0.013759701
22	0x3efdf0d8	0.49597812
23	0xbdcd7228	-0.10031539
24	0xbf11bbf2	-0.56927407
25	0x3e85e385	0.26150146
26	0xbef05db2	-0.46946484
27	0x3e5d030e	0.21583197
28	0x3c95e32f	0.018296806
29	0x3eb0729a	0.34462434
30	0xbe309c22	-0.1724706
31	0x3e8a6d5b	0.27036557
32	0xbd86bed7	-0.065793686
33	0x3e096cb8	0.13420379
34	0xbe9c851e	-0.3057031
35	0xbc2e63cf	-0.010643913
36	0x3e5c9077	0.21539484
37	0x3e1490c3	0.14508347
38	0xbdf7c6f0	-0.12098491
39	0x3e565cf3	0.20933895
40	0x3f33efda	0.7028786
41	0x3e946b87	0.28988287
42	0xbe7d215c	-0.24719757
43	0xbd9367e6	-0.071975514
44	0xbd14ec69	-0.03635827
45	0xbd32e211	-0.043672625
46	0xbebce096	-0.36890095
47	0x3eb4a4cd	0.35281983
48	0x3de267ce	0.110549554
49	0x3db8d77c	0.090254754
50	0xbc6b1076	-0.014347186
51	0xbf360593	-0.71102256
52	0xbdb17a55	-0.08665911
53	0x3deb8730	0.11500394
54	0x3eaa18d9	0.33222082
55	0xbd090cac	-0.03345935
56	0xbe4b5c67	-0.19859467
57	0x3d3ae823	0.04563154
58	0xbeb9394c	-0.36176527
59	0xbd32a5dd	-0.04361521
60	0xbdae45f3	-0.085094355
61	0x3e7b04b7	0.24513517
62	0x3c814ac3	0.01578272
63	0x3ddc8566	0.10767631
64	0xbc89deca	-0.016829867
65	0x3e01deb6	0.12682614
66	0xbe9a4b31	-0.30135491
67	0x3e7499b6	0.23886761
68	0x3c46478b	0.012102018
69	0xbbd0a508	-0.0063673295
70	0xbe6d588e	-0.23178312
71	0xbd050659	-0.032476757
72	0x3ef12690	0.47099733
73	0x3e50f65e	0.20406482
74	0xbdf81e1d	-0.12115119
75	0xbd8e1b2d	-0.06938777
76	0x3cb37546	0.021906506
77	0xbcc31232	-0.023812387
78	0xbe445150	-0.19171643
79	0x3e97d8af	0.29657504
80	0x3dd383e8	0.103278935
81	0xbd17d2c8	-0.03706625
82	0x3e0590e9	0.1304356
83	0xbf3969ab	-0.7242686
84	0xbc8500cb	-0.01623573
85	0x3e973389	0.29531506
86	0x3ee07ca0	0.4384508
87	0xbd310762	-0.04321993
88	0xbef90484	-0.48636258
89	0x3dc54c7a	0.09633727
90	0xbe09f919	-0.1347393
91	0x3e1aec69	0.15129246
92	0xbe7ca953	-0.24673967
93	0x3db2ec30	0.087364554
94	0x3caaec0f	0.020864515
95	0x3e9fe9de	0.31233114
96	0xbc947578	-0.01812242
97	0x3e87e96d	0.26545277
98	0xbde4df86	-0.11175446
99	0x3e887a5c	0.26655853
100	0x3e6a503c	0.2288217
101	0x3e8e5184	0.27796566
102	0xbdc505d6	-0.09620254
103	0x3e4418f2	0.19150141
104	0x3f046369	0.5171419
105	0x3e846aab	0.2586263
106	0xbc5a43c3	-0.01332182
107	0xbdb2d716	-0.08732431
108	0x3e53ebf0	0.20695472
109	0x3e6d4da9	0.23174156
110	0xbe2b9306	-0.16755304
111	0x3dc95556	0.0983073
112	0x3cb6ae5e	0.022299942
113	0xbba18953	-0.0049297004
114	0x3c84912d	0.016182506
115	0xbf22bb5b	-0.6356713
116	0xbd90d796	-0.0707237
117	0x3e92899f	0.28620622
118	0x3ea462de	0.3210668
119	0x3a8bc1f6	0.0010662663
120	0xbebf4ddb	-0.37364087
121	0x3e90d27e	0.28285593
122	0xbe27919e	-0.16364142
123	0xbbff57f2	-0.0077924663
124	0xbdb6656c	-0.089060634
125	0x3ed81837	0.42205974
126	0xbe5f2a14	-0.21793395
127	0x3e96d662	0.29460436
128	0xbd472798	-0.048621744
129	0x3d85abf1	0.06526936
130	0xbe4bbdef	-0.19896673
131	0x3d020655	0.03174432
132	0x3e58322c	0.21112889
133	0x3df2759a	0.11838837
134	0xbdca215e	-0.098696455
135	0x3e98f727	0.29876062
136	0x3e6263e9	0.22108425
137	0x3e689d60	0.22716284
138	0xbe4621fb	-0.193489
139	0xbeb3d39c	-0.35122383
140	0x3e76f20f	0.24115776
141	0x3e246428	0.16053832
142	0xbde5cb8b	-0.11220463
143	0x3d307478	0.043079823
144	0x3e4a93be	0.19782922
145	0x3e550760	0.20803595
146	0xbc5dc792	-0.013536351
147	0xbf3bb97a	-0.7332989
148	0xbcd1960e	-0.025584247
149	0x3ea287db	0.31744274
150	0x3eed3e9e	0.46336836
151	0xbca66d40	-0.020315766
152	0xbf03d60e	-0.51498497
153	0x3e86a828	0.26300168
154	0xbe8fc7d6	-0.2808215
155	0x3dcaef33	0.09908905
156	0xbe90dd89	-0.28294018
157	0x3e359689	0.17733206
158	0xbc73fc2a	-0.014891664
159	0xbce5f538	-0.028071031
160	0xbb8ab16f	-0.0042325775
161	0x3dd41b84	0.10356811
162	0xbdababd3	-0.08382382
163	0x3e8761fc	0.26441944
164	0x3e06eb13	0.13175611
165	0x3e14e407	0.1454011
166	0xbe8e7cb6	-0.27829522
167	0x3e819c86	0.2531473
168	0x3e7f2f6b	0.24920432
169	0x3e8c7979	0.27436426
170	0x3c20e2aa	0.009819666
171	0xbea0c554	-0.3140055
172	0x3ea4af10	0.32164812
173	0x3e12d994	0.14340812
174	0xbee427f5	-0.44561735
175	0x3e18a1cc	0.1490547
176	0xbb93cc95	-0.004510472
177	0x3d629410	0.055316985
178	0x3e008548	0.12550843
179	0xbf401beb	-0.750426
180	0xbe989ff5	-0.29809538
181	0x3e41529e	0.18879172
182	0x3f10398f	0.5633783
183	0xbe79e334	-0.24403077
184	0xbeceba04	-0.40376294
185	0x3e64c9dc	0.22342628
186	0xbebd1e17	-0.3693702
187	0x3e987777	0.29778644
188	0xbe20bfa0	-0.15698099
189	0x3e50e47b	0.20399658
190	0xbe81dc68	-0.2536347
191	0x3d0012ad	0.03126781
192	0xbe10eb4b	-0.14152257
193	0x3d766c1d	0.0601617
194	0xbe39e6f7	-0.18154512
195	0x3d13f3b1	0.036121074
196	0x3e1551de	0.14582011
197	0x3dd7c173	0.105349444
198	0xbd3691c4	-0.044572607
199	0x3cc5b2b6	0.024133068
200	0x3ed1d871	0.40985444
201	0x3e2d1014	0.16900665
202	0xbe82ba00	-0.25532532
203	0xbdf73c05	-0.12071995
204	0x3e851c37	0.2599809
205	0xbe13f209	-0.14447798
206	0xbdade5e5	-0.084911145
207	0x3e60dd1f	0.21959351
208	0x3e18c22e	0.14917824
209	0x3e297691	0.16549136
210	0x3dc09d4a	0.094050005
211	0xbf7307fb	-0.9493405
212	0x3cf4666c	0.029833995
213	0x3e25fa24	0.16208702
214	0x3eef84e9	0.4678109
215	0xbe2371ce	-0.15961382
216	0xbeaaa487	-0.3332865
217	0x3d5a8a65	0.05335464
218	0xbe1296f0	-0.1431539
219	0x3e807624	0.25090134
220	0x3d24e6f9	0.040259335
221	0x3ec81029	0.3907483
222	0x3b6bd343	0.0035984076
223	0x3e9b1501	0.30289462
224	0xbe8f7b26	-0.28023642
225	0x3e981dd7	0.29710266
226	0xbe5807a1	-0.2109666
227	0x3e2f5cea	0.17125288
228	0x3c903d88	0.017607465
229	0x3e95d9ae	0.2926764
230	0xbe5e069c	-0.21682209
231	0xbc96800f	-0.01837161
232	0x3eb4bb98	0.35299373
233	0x3df3da21	0.11906839
234	0xbe08c94a	-0.13358036
235	0xbe1a02a8	-0.15040076
236	0x3ca36490	0.019945413
237	0xbdba76cf	-0.09104692
238	0xbe8684ba	-0.26273137
239	0x3ed39a68	0.4132874
240	0x3d93d9ed	0.072193004
241	0x3d86a4b9	0.06574387
242	0x3e78ed4d	0.24309273
243	0xbf4937e5	-0.78600913
244	0xbe9e87be	-0.30962938
245	0x3e231c74	0.15928823
246	0x3e900083	0.2812539
247	0xbe4d2bfd	-0.20036311
248	0xbeee62aa	-0.4655965
249	0x3e13876b	0.14407127
250	0xbed9b9ca	-0.42524558
251	0x3e2d3d1a	0.1691784
252	0xbe90cca5	-0.2828113
253	0x3f0011e8	0.5002732
254	0xbe855f66	-0.26049346
255	0x3e62e5fd	0.22158046

lstm_cell.bias_ih f4 [128]
0	0x3f1f175a	0.62145007
1	0x3f133c0b	0.57513493
2	0x3f17110c	0.59010386
3	0x3f2d671d	0.67735463
4	0x3e8a6ccf	0.2703614
5	0x3eb6cb3b	0.35701928
6	0x3ea99b81	0.33126453
7	0x3f3f748a	0.747872
8	0x3f317aee	0.693282
9	0x3f0f9434	0.56085515
10	0x3f10e732	0.56602776
11	0x3ee3fe9a	0.44530183
12	0x3ead3c2a	0.33834964
13	0x3efaeca9	0.49008682
14	0x3f553143	0.8327829
15	0x3f2e8b6d	0.68181497
16	0x3f1b1cd7	0.6059088
17	0x3f0e70f0	0.5564108
18	0x3ee1e68f	0.44121215
19	0x3f74e749	0.95665413
20	0x3f1b702a	0.60718024
21	0x3f4ec0fa	0.8076321
22	0x3f5ad0da	0.8547493
23	0x3ee4368b	0.44572863
24	0x3f16fd86	0.58980596
25	0x3f1b19bf	0.6058616
26	0x3f37e2f0	0.71830654
27	0x3e6fdd3a	0.23424235
28	0x3e83ce87	0.25743505
29	0x3f7eba13	0.99502677
30	0x3eca7b75	0.39547315
31	0x3f0da643	0.5533182
32	0x3dc0410b	0.09387406
33	0x3e33072d	0.17483206
34	0x3e978cce	0.29599613
35	0x3e774adf	0.24149655
36	0xbcb3e516	-0.021959823
37	0x3dd425fb	0.10358807
38	0x3df32e39	0.11874051
39	0x3e9a2ebf	0.3011379
40	0x3e711e31	0.23546673
41	0x3de71bc0	0.1128459
42	0xbb33e174	-0.0027447613
43	0x3d406cff	0.046978947
44	0x3db31674	0.08744517
45	0xbd052187	-0.032502677
46	0x3e378a98	0.17923963
47	0x3e38b8f6	0.18039307
48	0x3d2bfa35	0.041986663
49	0x3e738097	0.23779522
50	0x3e3c6871	0.18399216
51	0x3eb3aa5e	0.35090917
52	0x3d6d11a0	0.057878137
53	0x3e773c42	0.2414408
54	0x3d9ea8f8	0.07747072
55	0x3e92aa52	0.2864557
56	0x3db607ca	0.088882044
57	0x3e525448	0.20539963
58	0x3e8e2b37	0.27767345
59	0x3cc574c4	0.02410353
60	0x3e8afeb7	0.27147457
61	0x3e0349f4	0.1282118
62	0x3de4002a	0.11132844
63	0xbae3fbae	-0.0017393732
64	0xbed7e140	-0.4216404
65	0x3e925ca7	0.28586313
66	0xbec395d9	-0.38200262
67	0x3f10110c	0.5627601
68	0x3f00202c	0.5004909
69	0x3ef0f8a2	0.47064692
70	0xbeeee97e	-0.46662515
71	0x3f0505d8	0.5196204
72	0x3ee20f0f	0.44152114
73	0x3f09a672	0.537696
74	0xbe8c38f9	-0.27387217
75	0xbf07b365	-0.5300811
76	0x3e71183f	0.23544405
77	0x3ebedb14	0.37276518
78	0xbf0d6b1f	-0.5524158
79	0x3ed67c14	0.4189154
80	0x3e80bb05	0.25142685
81	0x3ecb7975	0.39741102
82	0x3f09f3c0	0.5388756
83	0xbf3ddb4e	-0.7416276
84	0xbee116af	-0.4396262
85	0x3f0ddcc5	0.5541499
86	0x3f02f108	0.51149035
87	0xbecadf95	-0.39623705
88	0xbf26e62d	-0.6519497
89	0x3f06a152	0.52589905
90	0xbecb95f0	-0.3976283
91	0x3ee74d0f	0.4517598
92	0xbf09a97e	-0.5377425
93	0x3f1e35f6	0.6180109
94	0xbf0340db	-0.51270837
95	0x3f02e809	0.5113531
96	0x3f035e41	0.51315695
97	0x3e839457	0.25699112
98	0x3f03919e	0.5139407
99	0x3eec0991	0.4610105
100	0x3e83eb42	0.25765425
101	0x3e8737d7	0.2640979
102	0x3ef25213	0.47328243
103	0x3ed8ef49	0.4237006
104	0x3f18f9f6	0.5975641
105	0x3f027cc8	0.5097165
106	0x3ed6695e	0.41877264
107	0x3f0e7284	0.55643487
108	0x3e71c836	0.2361153
109	0x3e8ffeaa	0.2812398
110	0x3f0f60f2	0.560073
111	0x3f1238b2	0.5711776
112	0x3e7b276f	0.24526761
113	0x3e8594ad	0.26089993
114	0x3edf1338	0.4356935
115	0x3f550fe3	0.83227366
116	0x3e637ccb	0.22215573
117	0x3f2d3a41	0.67667013
118	0x3f2df119	0.6794601
119	0x3f07ab30	0.52995586
120	0x3f4df1cd	0.80447084
121	0x3ed55a5e	0.41670507
122	0x3ef4e8d1	0.47833875
123	0x3ec57083	0.38562402
124	0x3f04e98a	0.5191885
125	0x3f2a502c	0.6652858
126	0x3e812dee	0.25230354
127	0x3e5670d6	0.20941481

lstm_cell.bias_hh f4 [128]
0	0x3f1b6eac	0.60715747
1	0x3eb4587e	0.35223764
2	0x3ebeca57	0.37263748
3	0x3efad9d0	0.48994303
4	0x3ef19d5c	0.47190368
5	0x3ee065fd	0.4382781
6	0x3e82b9c6	0.2553236
7	0x3f52fcf8	0.8241725
8	0x3f5b4897	0.8565764
9	0x3e98f1ed	0.29872075
10	0x3eb842e8	0.35988545
11	0x3eecd508	0.4625628
12	0x3f13a454	0.5767262
13	0x3efbff59	0.49218252
14	0x3f5c8292	0.86136734
15	0x3f15f689	0.5857931
16	0x3eed9234	0.46400607
17	0x3f06c5da	0.5264565
18	0x3ef2e577	0.47440693
19	0x3f683fe7	0.9072251
20	0x3ef92e69	0.4866822
21	0x3f836460	1.0265007
22	0x3f22d289	0.636025
23	0x3f339f30	0.70164776
24	0x3f1729a4	0.59047914
25	0x3f0df952	0.5545856
26	0x3f5b9b4b	0.85783833
27	0x3e6006a0	0.21877527
28	0x3eae1451	0.33999875
29	0x3f7b5c42	0.9818765
30	0x3f169ead	0.5883587
31	0x3f2f0839	0.6837192
32	0x3e621613	0.22078733
33	0xbc88b649	-0.016688483
34	0x3db4b9c8	0.088244975
35	0x3e2f2106	0.17102441
36	0x3e395c2d	0.18101569
37	0x3e5a26c4	0.2130385
38	0x3d9f366a	0.077740505
39	0x3e180595	0.1484588
40	0x3e3d9e0d	0.18517323
41	0xbd88f616	-0.06687562
42	0x3e85b5f3	0.2611538
43	0x3e8239a1	0.25434592
44	0x3d4b9fb3	0.049712848
45	0xbd665d52	-0.05624134
46	0x3e67bdff	0.22631072
47	0x3e33039a	0.17481843
48	0x3dbfd0e1	0.09366012
49	0xbc6d7474	-0.014493097
50	0x3bf09e76	0.0073431088
51	0x3e73337c	0.23750108
52	0x3e4a9495	0.19783242
53	0x3ea46b90	0.32113314
54	0x3e4b3cf8	0.19847476
55	0xbc98b41c	-0.01864057
56	0x3e094610	0.13405633
57	0x3e0dc93c	0.13846296
58	0x3e277ada	0.16355458
59	0xbc67f685	-0.014157896
60	0xbd1a19c1	-0.037622217
61	0x3cc7e0d2	0.024399195
62	0x3e996002	0.2995606
63	0x3e86e013	0.2634283
64	0xbed1c9d8	-0.40974307
65	0x3ee4c310	0.4468007
66	0xbed23ab3	-0.4106041
67	0x3ef929e7	0.4866478
68	0x3ef398b4	0.4757744
69	0x3ea34232	0.3188644
70	0xbf08592c	-0.53261065
71	0x3ef8858e	0.48539394
72	0x3ef610cb	0.48059687
73	0x3f05a882	0.5221025
74	0xbf00911e	-0.5022143
75	0xbe8f9fa1	-0.28051475
76	0x3ec5f81c	0.38665855
77	0x3eae5f8d	0.34057274
78	0xbf0052fd	-0.5012663
79	0x3ef36c97	0.47543785
80	0x3f10cd6a	0.56563437
81	0x3f0a19e4	0.53945756
82	0x3ed311d3	0.41224536
83	0xbf3adc6d	-0.72992593
84	0xbf111f23	-0.56688136
85	0x3f1dc57b	0.61629456
86	0x3f143a8a	0.57901824
87	0xbef73c0b	-0.48287997
88	0xbee9c901	-0.45661166
89	0x3ef73157	0.4827983
90	0xbf06982f	-0.52575964
91	0x3e84212e	0.25806564
92	0xbe854ffd	-0.2603759
93	0x3f188bfe	0.5958861
94	0xbe8b3638	-0.27189803
95	0x3e81bedd	0.2534093
96	0x3e67532d	0.22590323
97	0x3e910f63	0.28332052
98	0x3f04b18d	0.5183342
99	0x3f0ada76	0.54239595
100	0x3e3f9554	0.18709308
101	0x3ebbace4	0.36655343
102	0x3ed889ad	0.42292538
103	0x3f080503	0.5313265
104	0x3eb61933	0.355661
105	0x3e99ec65	0.30063167
106	0x3f00c9ec	0.5030811
107	0x3f181c26	0.5941795
108	0x3e8bd8e5	0.27313915
109	0x3ed4734d	0.41494218
110	0x3eff8697	0.4990737
111	0x3eb64a8d	0.35603753
112	0x3e89a224	0.26881516
113	0x3eb698c2	0.3566342
114	0x3e98f70a	0.29875976
115	0x3f25a2b3	0.64701384
116	0x3e7c8b75	0.24662574
117	0x3ee72395	0.45144334
118	0x3f4961a2	0.786646
119	0x3e866300	0.26247406
120	0x3f1540fd	0.5830229
121	0x3ebffe56	0.3749873
122	0x3f1f8fc8	0.6232877
123	0x3e79045a	0.24318066
124	0x3eb52077	0.3537633
125	0x3f10aea7	0.565165
126	0x3ea03c12	0.3129583
127	0x3eb9010e	0.36133617

action_head.weight f4 [2, 32]
0	0xbde4c5a0	-0.111705065
1	0xbbf354b2	-0.007425868
2	0x3d0ed1f4	0.034868196
3	0xbe29813a	-0.16553202
4	0xbe0a2fee	-0.13494846
5	0x3d8a7c9e	0.0676205
6	0x3db988f3	0.09059324
7	0x3dabf0a6	0.083955094
8	0xbd654baf	-0.05598038
9	0xbd339c47	-0.04385021
10	0x3d5bce6f	0.053663667
11	0x3d02bab7	0.031916346
12	0x3dff54d2	0.1246735
13	0x3dd58c35	0.10427133
14	0x3e071787	0.13192569
15	0x3e34ea79	0.17667569
16	0xbe0d01fd	-0.1377029
17	0x3dcd0d84	0.100123435
18	0xbdc1c8d1	-0.09462131
19	0x3dba5b77	0.09099477
20	0x3b9bca19	0.0047543165
21	0xbd3a2106	-0.04544165
22	0xbded4ff7	-0.11587518
23	0x3e0395cc	0.12850112
24	0xbd65b143	-0.056077253
25	0xbdf7c271	-0.12097634
26	0xbd9e7e9b	-0.07738992
27	0xbdb32564	-0.08747366
28	0x3d72264d	0.059118558
29	0x3de88eaa	0.11355336
30	0xbd5b2bf2	-0.053508706
31	0xbd083dcc	-0.03326206
32	0x3e159328	0.14606917
33	0xbce0ab76	-0.027425509
34	0x3dfc6e62	0.12325741
35	0xbd8a8688	-0.06763941
36	0x3e1327f1	0.14370705
37	0xbdf9092f	-0.12159955
38	0xbcc9e894	-0.024647035
39	0xbd07ade5	-0.033124823
40	0x3e38530f	0.18000434
41	0xbe0df48a	-0.13862815
42	0xbd3fabdd	-0.04679476
43	0xbe4391b0	-0.19098544
44	0xbddfb9f5	-0.1092414
45	0xbdc03429	-0.09384949
46	0x3e181405	0.14851387
47	0xbe05c4c0	-0.13063335
48	0x3e2485d3	0.16066675
49	0xbb423f5d	-0.0029639818
50	0xbc287156	-0.010280928
51	0xbd180c85	-0.037121315
52	0x3e1adaa6	0.1512247
53	0xbe1bec20	-0.15226793
54	0xbe02a087	-0.12756549
55	0x3e03d21b	0.12873118
56	0x3d71fe53	0.059080433
57	0xbb32004c	-0.0027160821
58	0xbe09e0ac	-0.13464612
59	0x3df44c6b	0.11928638
60	0x3d660b8e	0.056163363
61	0xbd008c96	-0.031384073
62	0x3c93df05	0.01805068
63	0xbe0b9125	-0.13629587

action_head.bias f4 [2]
0	0x3e05d718	0.13070333
1	0x3d3a48d4	0.04547961

value_head.weight f4 [1, 32]
0	0xbe817888	-0.2528727
1	0x3eb2205a	0.34790307
2	0xbe8f7c30	-0.28024435
3	0x3e814a1d	0.25251856
4	0x3eb0ed8c	0.34556234
5	0x3eb5757f	0.35441205
6	0xbea069e4	-0.31330788
7	0x3e94c1e1	0.29054168
8	0x3e708349	0.23487581
9	0x3e2d0245	0.16895397
10	0xbeb37aba	-0.3505457
11	0xbeb99853	-0.36249027
12	0x3ec207ed	0.37896672
13	0x3e588d89	0.21147741
14	0xbe8a9bb9	-0.27071932
15	0x3e35bdb9	0.17748155
16	0x3ec2506b	0.3795198
17	0x3e945107	0.2896807
18	0x3eab1330	0.33413076
19	0xbe87f059	-0.26550558
20	0xbe629c96	-0.22130045
21	0x3e8aaa3f	0.27083012
22	0x3e418cb5	0.18901332
23	0xbe9e186c	-0.30878007
24	0xbe74806c	-0.23877114
25	0x3e373b05	0.17893608
26	0xbe929aec	-0.2863382
27	0x3e8e9503	0.27848062
28	0xbe3c1a64	-0.18369442
29	0x3e94148a	0.2892192
30	0xbe8e5096	-0.27795857
31	0x3ea5443e	0.32278627

exp_avg f4 [128, 2]
0	0xb801d731	-3.095641e-05
1	0xb89893d6	-7.2754614e-05
2	0xb8f480d8	-0.00011658826
3	0xb94b848e	-0.00019408969
4	0xb8c733d4	-9.498713e-05
5	0xb91e50a8	-0.00015098101
6	0xb82d3e6a	-4.130454e-05
7	0xb8874c2c	-6.45149e-05
8	0xb8f5ce4a	-0.00011720935
9	0xb9228b2f	-0.00015501374
10	0xb8a46310	-7.838581e-05
11	0xb902a596	-0.00012459452
12	0xb90015dd	-0.00012215176
13	0xb95cd415	-0.00021059842
14	0xb7a14f64	-1.9229665e-05
15	0xb7fd6e74	-3.0211384e-05
16	0xb82e65b5	-4.1579555e-05
17	0xb88d1f6b	-6.729256e-05
18	0xb858ea6a	-5.171673e-05
19	0xb8aa8dd8	-8.132652e-05
20	0xb89e01e5	-7.53438e-05
21	0xb90396ca	-0.00012549307
22	0xb8e730ad	-0.00011024005
23	0xb921bbbb	-0.00015424092
24	0xb8cb2c66	-9.688064e-05
25	0xb93e6d5f	-0.00018160556
26	0xb85ffe58	-5.340422e-05
27	0xb902be9c	-0.00012468774
28	0xb80bd8dc	-3.334215e-05
29	0xb8746e12	-5.8276644e-05
30	0xb832adb7	-4.260029e-05
31	0xb8a842e0	-8.023321e-05
32	0xb89b3214	-7.400304e-05
33	0xb8f2f728	-0.00011585496
34	0xb8582813	-5.1535735e-05
35	0xb8d13f18	-9.977649e-05
36	0xb8b4d01f	-8.6218344e-05
37	0xb91fa97d	-0.00015226561
38	0xb803bf36	-3.1410913e-05
39	0xb8604d1c	-5.3477575e-05
40	0xb8539d41	-5.0452774e-05
41	0xb8b20d2c	-8.490155e-05
42	0xb75f4713	-1.3308384e-05
43	0xb7cd7c1a	-2.4495694e-05
44	0xb82b66c2	-4.0865278e-05
45	0xb89bcabd	-7.428739e-05
46	0xb8825ac2	-6.215788e-05
47	0xb8e51b7c	-0.0001092469
48	0xb88849c4	-6.498725e-05
49	0xb8bf35a8	-9.117584e-05
50	0xb83c137e	-4.4840846e-05
51	0xb8b5eda8	-8.6750195e-05
52	0xb82bc75d	-4.095525e-05
53	0xb8934b30	-7.023511e-05
54	0xb910436d	-0.00013758028
55	0xb948088b	-0.00019076669
56	0xb8c35b1a	-9.3152936e-05
57	0xb9171958	-0.00014409923
58	0xb78ceda8	-1.6799968e-05
59	0xb7faeb7d	-2.991198e-05
60	0xb87802c0	-5.913037e-05
61	0xb8c11178	-9.206211e-05
62	0xb80eeed6	-3.407787e-05
63	0xb8ac8c54	-8.227737e-05
64	0xb89d45d6	-7.499351e-05
65	0xb9296dd5	-0.00016158012
66	0xb911cb76	-0.00013904073
67	0xb98e6924	-0.00027162686
68	0xb8f754ea	-0.00011793694
69	0xb94456b4	-0.00018724316
70	0xb8a0e5a3	-7.672168e-05
71	0xb9079a2d	-0.00012932038
72	0xb903a6fa	-0.00012555337
73	0xb9617a01	-0.00021503122
74	0xb8c0d351	-9.194634e-05
75	0xb955e4f5	-0.00020398556
76	0xb91eff24	-0.00015163101
77	0xb984ef64	-0.00025355362
78	0xb8865ceb	-6.406925e-05
79	0xb8d8adcc	-0.00010332055
80	0xb8f0e4ab	-0.000114866845
81	0xb9370dba	-0.00017457354
82	0xb8a29d17	-7.754022e-05
83	0xb91cb236	-0.00014943708
84	0xb90f5379	-0.00013668639
85	0xb93a3461	-0.00017757855
86	0xb93f5d09	-0.00018249838
87	0xb969c5ec	-0.00022294343
88	0xb92b0cdc	-0.00016312621
89	0xb9889acd	-0.00026055277
90	0xb8fe6152	-0.00012129791
91	0xb960995c	-0.00021419436
92	0xb90be279	-0.0001334044
93	0xb941a26f	-0.00018466426
94	0xb87b2ca6	-5.9884645e-05
95	0xb8f52b2e	-0.00011690553
96	0xb937cd61	-0.0001752875
97	0xb9785054	-0.00023681048
98	0xb8eabf2d	-0.00011193599
99	0xb94081ce	-0.00018358903
100	0xb9017af8	-0.00012348208
101	0xb947dc4d	-0.00019060187
102	0xb8cdfc8f	-9.8222044e-05
103	0xb90fc898	-0.0001371227
104	0xb8ab9666	-8.181929e-05
105	0xb91edee3	-0.00015151086
106	0xb85fc7e1	-5.3353495e-05
107	0xb8c349b3	-9.312052e-05
108	0xb8cfa75c	-9.901702e-05
109	0xb90e6aaa	-0.00013581911
110	0xb8dac7f8	-0.00010432297
111	0xb93aa077	-0.0001779812
112	0xb8ff65d8	-0.000121783174
113	0xb93c1a7d	-0.00017938945
114	0xb882d98f	-6.2394065e-05
115	0xb903ec56	-0.00012581176
116	0xb8c4a485	-9.3766525e-05
117	0xb93713ca	-0.00017459612
118	0xb92997e9	-0.00016173687
119	0xb95db079	-0.00021141944
120	0xb8dc1ad0	-0.00010495412
121	0xb919408f	-0.00014615267
122	0xb88d9a32	-6.752125e-05
123	0xb9177890	-0.00014445395
124	0xb8e6ed11	-0.00011011412
125	0xb928d267	-0.0001610011
126	0xb900a6b2	-0.0001226913
127	0xb98a20a0	-0.0002634572
128	0x389d7137	7.507431e-05
129	0x38a26f42	7.745485e-05
130	0xb8bc43c9	-8.9771645e-05
131	0xb9145016	-0.00014144214
132	0x3899a483	7.326251e-05
133	0x392dc339	0.00016571292
134	0xb8323023	-4.2483338e-05
135	0xb837debf	-4.383805e-05
136	0xb8836a01	-6.2663115e-05
137	0xb8ccdab2	-9.768213e-05
138	0xb8d2e774	-0.00010056692
139	0xb94dfac0	-0.00019643735
140	0x388109e7	6.153044e-05
141	0x38db7f25	0.00010466416
142	0xb7abd7a1	-2.0485199e-05
143	0xb812bd04	-3.4985147e-05
144	0xb77cd05e	-1.5068885e-05
145	0xb82501df	-3.9340808e-05
146	0xb784f41c	-1.5849299e-05
147	0xb81464dd	-3.5379886e-05
148	0x38a27bc4	7.747815e-05
149	0x390c5108	0.00013381627
150	0x3914ce69	0.00014191274
151	0x399d1e3a	0.00029967894
152	0xb97ebbe3	-0.00024293321
153	0xba00fe0e	-0.00049206696
154	0xb83d3955	-4.5114506e-05
155	0xb8cff7f9	-9.916718e-05
156	0x373dc2c9	1.131063e-05
157	0x37e752fe	2.7575992e-05
158	0xb82cddbf	-4.1214513e-05
159	0xb8c1f50f	-9.248603e-05
160	0xb82f992c	-4.1865904e-05
161	0xb8a32665	-7.779597e-05
162	0xb8755062	-5.8487414e-05
163	0xb8f073fb	-0.00011465695
164	0xb8e1303d	-0.00010737821
165	0xb9030ada	-0.00012497176
166	0x37912fcd	1.7307606e-05
167	0x37f3dad7	2.9069763e-05
168	0x37ebfaa7	2.8130902e-05
169	0x3893bf95	7.045191e-05
170	0xb754d532	-1.2685823e-05
171	0xb7bb99bb	-2.2363723e-05
172	0xb7bb2a91	-2.2311959e-05
173	0xb834eb2c	-4.3134365e-05
174	0x37e4b9cd	2.7266238e-05
175	0x382e5ab5	4.156931e-05
176	0x3798ae23	1.82009e-05
177	0x3822eade	3.8842547e-05
178	0xb7f7b446	-2.952864e-05
179	0xb838ccb6	-4.405967e-05
180	0x384b2034	4.8428963e-05
181	0x38ba1d54	8.874634e-05
182	0xb8eef7b6	-0.00011394864
183	0xb91f3fe6	-0.00015187226
184	0x381d0752	3.7438534e-05
185	0x385d232b	5.272326e-05
186	0xb7fa9f0a	-2.987638e-05
187	0xb83f6640	-4.5633176e-05
188	0x38a922be	8.065019e-05
189	0x390350e5	0.00012523269
190	0xb8ad33f0	-8.258957e-05
191	0xb955383a	-0.00020334209
192	0xb9d89de0	-0.00041316357
193	0xba4513eb	-0.00075179216
194	0xba59c094	-0.00083065894
195	0xbaa16c67	-0.0012315632
196	0xb99d4473	-0.00029996372
197	0xba06d9eb	-0.00051441666
198	0xb98d6f52	-0.00026976556
199	0xb9c04ea6	-0.0003667969
200	0xba22b07e	-0.0006206109
201	0xba4b0f9d	-0.0007746162
202	0xba56dd7f	-0.00081964576
203	0xba8aa6a5	-0.0010578228
204	0xb9c64ca7	-0.00037822613
205	0xba003449	-0.00048906036
206	0xb9521c2b	-0.00020037654
207	0xb9a2e32c	-0.00031068304
208	0xba430d7a	-0.0007440668
209	0xba85f65f	-0.0010220519
210	0xb9d0c150	-0.0003981688
211	0xba0eb491	-0.00054437766
212	0xb9dc90af	-0.00042069468
213	0xba2a883a	-0.00065052847
214	0xb9e604a4	-0.00043872476
215	0xba21aa2b	-0.00061670196
216	0xba184bed	-0.00058096537
217	0xba7b3ea9	-0.0009584227
218	0xba2bb93e	-0.00065507356
219	0xba891cd3	-0.0010460861
220	0xba16dbdc	-0.00057548075
221	0xba44e97a	-0.00075115974
222	0xb973646a	-0.00023211693
223	0xb9f5a9e8	-0.00046856632
224	0xb9d620b2	-0.0004084162
225	0xba06b33e	-0.00051384035
226	0xb9c14a1e	-0.0003686705
227	0xba1576f6	-0.00057016255
228	0xb9e6c96d	-0.00044019092
229	0xba5ab6b5	-0.00083432655
230	0xb9a5920b	-0.00031580063
231	0xb9ed4125	-0.000452527
232	0xb9d7404d	-0.00041055903
233	0xba06fb74	-0.0005149164
234	0xb9a1f20f	-0.0003088866
235	0xb9d3fc99	-0.00040433256
236	0xb91ae224	-0.00014770828
237	0xb98ed353	-0.000272418
238	0xba199321	-0.0005858411
239	0xba6444ee	-0.0008707781
240	0xb93a94a0	-0.0001779371
241	0xb9aa4225	-0.00032474208
242	0xba2815cf	-0.0006411941
243	0xba24fe44	-0.0006293992
244	0xb9ee0e07	-0.0004540535
245	0xba33a9e2	-0.00068536226
246	0xb9bd032a	-0.00036051247
247	0xba069648	-0.0005134088
248	0xb970dc68	-0.00022970291
249	0xb9ca0ac9	-0.00038536478
250	0xb9ce016a	-0.00039292435
251	0xba19aaca	-0.00058619364
252	0xba0004a3	-0.00048835034
253	0xba56a734	-0.00081883674
254	0xba68bf59	-0.00088786107
255	0xbab5c79b	-0.0013868691

exp_avg_sq f4 [128, 2]
0	0x376d24eb	1.4134896e-05
1	0x38291d79	4.032019e-05
2	0x38fa1020	0.000119239325
3	0x38ad73c4	8.270846e-05
4	0x39049e56	0.00012647486
5	0x3831c992	4.2387815e-05
6	0x37c5a676	2.3561744e-05
7	0x37c843ff	2.3873521e-05
8	0x392d4d3e	0.0001652734
9	0x38d07f6a	9.9419456e-05
10	0x38e40cdf	0.000108742846
11	0x3890b4e2	6.900147e-05
12	0x395bb6f6	0.00020953626
13	0x391003b6	0.00013734293
14	0x374bae40	1.2140314e-05
15	0x3703cac0	7.855415e-06
16	0x36bb704b	5.586107e-06
17	0x3739b79c	1.1069609e-05
18	0x3878023c	5.912989e-05
19	0x3805e0f5	3.191918e-05
20	0x38d0607e	9.936186e-05
21	0x38542550	5.057949e-05
22	0x392009f0	0.00015262491
23	0x381d1587	3.7451766e-05
24	0x391ff438	0.000152544
25	0x3899db52	7.33646e-05
26	0x36e9beae	6.966139e-06
27	0x371fa98b	9.516613e-06
28	0x370c91c2	8.378587e-06
29	0x370042a0	7.644907e-06
30	0x37acd7c7	2.0604477e-05
31	0x37373896	1.0920825e-05
32	0x38c57be1	9.416766e-05
33	0x384929f1	4.7961195e-05
34	0x3866b04a	5.5000455e-05
35	0x380b7e49	3.3257795e-05
36	0x38ab5ae7	8.170847e-05
37	0x38989b29	7.2768256e-05
38	0x36f947ed	7.4291515e-06
39	0x36cc62bf	6.0911693e-06
40	0x385b02f3	5.2216415e-05
41	0x37e34e87	2.7097076e-05
42	0x369d1ebc	4.6825426e-06
43	0x366dc344	3.5429412e-06
44	0x379311cc	1.7532053e-05
45	0x370d8a09	8.436394e-06
46	0x381ede2a	3.7877042e-05
47	0x37d1e67c	2.502207e-05
48	0x3808e664	3.2639495e-05
49	0x376b6d68	1.4032565e-05
50	0x38099756	3.2804288e-05
51	0x37e5a96c	2.737782e-05
52	0x37a0fa3e	1.9190014e-05
53	0x372d9ae5	1.0347668e-05
54	0x392c2451	0.00016416727
55	0x38dc7133	0.000105115025
56	0x38a9cc72	8.096629e-05
57	0x38586bf6	5.159896e-05
58	0x36b5d2ef	5.4187763e-06
59	0x368e926a	4.2489746e-06
60	0x386e22b9	5.677596e-05
61	0x381e677b	3.776651e-05
62	0x384a0549	4.8165475e-05
63	0x37c93ef8	2.399039e-05
64	0x389a1d65	7.3487674e-05
65	0x382b030b	4.077241e-05
66	0x392f96ef	0.00016745528
67	0x38ccf43a	9.772969e-05
68	0x392c6d81	0.00016443992
69	0x38c25044	9.2655915e-05
70	0x3862b5e0	5.4051983e-05
71	0x37dbe693	2.6214204e-05
72	0x39691ed3	0.00022232094
73	0x39130b5c	0.00014023244
74	0x39253b74	0.00015757774
75	0x38fceade	0.00012060044
76	0x3989a717	0.00026255168
77	0x39340c7f	0.00017170793
78	0x37b0bcad	2.1068694e-05
79	0x37306c0b	1.0515573e-05
80	0x36c337e4	5.8179594e-06
81	0x36a4c0a1	4.910006e-06
82	0x38a12b3c	7.685131e-05
83	0x38592f54	5.178091e-05
84	0x3918a60d	0.00014557708
85	0x388cbdde	6.711086e-05
86	0x391eb0ea	0.0001513396
87	0x3897715d	7.221357e-05
88	0x39a8892b	0.00032145655
89	0x39360575	0.00017358905
90	0x36deb4c9	6.6371617e-06
91	0x36db4d60	6.5357162e-06
92	0x370d27fa	8.413563e-06
93	0x36f03e90	7.1598406e-06
94	0x37d9f5d1	2.5982883e-05
95	0x376737cd	1.3781665e-05
96	0x390f7801	0.00013682248
97	0x38a67bc0	7.938547e-05
98	0x38ef5d4f	0.00011413788
99	0x38913b84	6.9252244e-05
100	0x3927ef8e	0.00016015602
101	0x389e47ea	7.547422e-05
102	0x369d2a18	4.683865e-06
103	0x369a009b	4.589628e-06
104	0x3896180d	7.157037e-05
105	0x385ae739	5.2190593e-05
106	0x36bba684	5.5924193e-06
107	0x365eca77	3.3198428e-06
108	0x37335abb	1.0690356e-05
109	0x36ed2ab6	7.0681226e-06
110	0x3811010e	3.4571676e-05
111	0x379a2463	1.8375174e-05
112	0x379e2444	1.8851955e-05
113	0x373db2e5	1.130693e-05
114	0x382ffaa1	4.1956668e-05
115	0x380766d0	3.228226e-05
116	0x378d4e3e	1.6844944e-05
117	0x374ae59b	1.2093597e-05
118	0x3976bafc	0.00023530045
119	0x38e85942	0.000110792476
120	0x38d0f7d6	9.964376e-05
121	0x383c7349	4.493006e-05
122	0x372ef61f	1.0428513e-05
123	0x36d40701	6.3189077e-06
124	0x390336d6	0.00012513562
125	0x38704f97	5.7294583e-05
126	0x3906d691	0.00012859168
127	0x38d91b22	0.0001035242
128	0x3af63397	0.0018783686
129	0x3a15ab18	0.0005709394
130	0x3b1cd1dc	0.0023928797
131	0x3abba0f3	0.0014314934
132	0x3b2a3509	0.0025971553
133	0x3b029638	0.0019925963
134	0x3a145558	0.0005658469
135	0x39550f25	0.00020318905
136	0x3a7dea81	0.0009686128
137	0x3a43f01c	0.0007474439
138	0x3b232008	0.0024890918
139	0x3b13b1ab	0.0022536318
140	0x3a71eb8c	0.00092285196
141	0x3a2a195d	0.0006488765
142	0x39b4081b	0.00034338314
143	0x3988daaf	0.00026102873
144	0x39cd35a8	0.00039140624
145	0x398d307d	0.00026929742
146	0x39847f9c	0.00025272078
147	0x398089c4	0.00024516706
148	0x3b08c581	0.0020869675
149	0x3aacd26b	0.0013185268
150	0x3b5a2a35	0.0033289318
151	0x3b1cefe6	0.0023946702
152	0x3bff84e9	0.0077978265
153	0x3ba81784	0.0051297564
154	0x39b52c22	0.00034555892
155	0x396c84da	0.00022556205
156	0x3986fd57	0.00025747225
157	0x396c899c	0.00022557977
158	0x3a245c9c	0.00062699034
159	0x39e0976e	0.00042837433
160	0x3aa7b450	0.0012794826
161	0x3a8fed46	0.0010980747
162	0x3a79f335	0.0009534837
163	0x3a2eace8	0.0006663338
164	0x3ad48ee2	0.0016216899
165	0x3a1ea782	0.0006052182
166	0x38c83b5b	9.547799e-05
167	0x386b59fc	5.611217e-05
168	0x39a44b3d	0.00031336574
169	0x39baf994	0.00035662635
170	0x3901fae2	0.0001239586
171	0x38e7b230	0.00011048128
172	0x39a273e3	0.0003098539
173	0x39342d55	0.00017183025
174	0x3a1352c4	0.0005619938
175	0x39c14c98	0.00036868895
176	0x395c13e3	0.00020988243
177	0x392eb71d	0.00016662148
178	0x39ea4270	0.00044681458
179	0x3981c431	0.0002475097
180	0x3a791ff9	0.00095033605
181	0x3a189f94	0.0005822119
182	0x3b094c64	0.0020950073
183	0x3aa2f5f4	0.0012432919
184	0x3a5d6a9b	0.00084463664
185	0x39d92220	0.0004141489
186	0x397aaf1d	0.00023907093
187	0x3925a08f	0.00015795439
188	0x3ae66159	0.0017576619
189	0x3a87742d	0.0010334306
190	0x3b1f2674	0.0024284394
191	0x3aef6094	0.0018263035
192	0x393be554	0.00017919141
193	0x39189abc	0.00014553493
194	0x39e120cd	0.00042939783
195	0x399a2da2	0.00029407168
196	0x3929ddfe	0.00016199794
197	0x38d01bda	9.923401e-05
198	0x38d93210	0.00010356691
199	0x388939b1	6.543415e-05
200	0x3a17ccd9	0.00057907176
201	0x39a7bc4b	0.0003199301
202	0x3a1733db	0.000576792
203	0x399e02ac	0.000301381
204	0x399a8b72	0.00029477064
205	0x391ce197	0.00014961358
206	0x38a79e37	7.99265e-05
207	0x384582ea	4.7090383e-05
208	0x3849ba7d	4.8095815e-05
209	0x38d075ac	9.940131e-05
210	0x3963c952	0.00021723405
211	0x3900b66d	0.0001227499
212	0x3996c527	0.0002875712
213	0x3945027a	0.00018788307
214	0x3918438f	0.00014521017
215	0x38ca1fe2	9.638049e-05
216	0x39eafac8	0.00044818805
217	0x398a6ff2	0.00026404817
218	0x380bb28b	3.3306464e-05
219	0x388a873f	6.605544e-05
220	0x38a46f78	7.840892e-05
221	0x38ab9fba	8.183667e-05
222	0x38724318	5.7759782e-05
223	0x382b966b	4.0909665e-05
224	0x39aca5e9	0.0003293001
225	0x392978ae	0.00016162053
226	0x398f4fcf	0.00027334547
227	0x3921c7d2	0.00015428595
228	0x3984f803	0.00025361785
229	0x3962e07b	0.00021636665
230	0x384bb17d	4.856427e-05
231	0x386013b7	5.3424123e-05
232	0x3981375b	0.0002464604
233	0x39062bf6	0.00012795613
234	0x387125d5	5.749411e-05
235	0x3822bda1	3.8800415e-05
236	0x37bf56d9	2.2809416e-05
237	0x37b49915	2.1528956e-05
238	0x3931cf72	0.00016957315
239	0x390e13da	0.0001354957
240	0x3804db42	3.1675452e-05
241	0x37ec2659	2.815125e-05
242	0x392e4640	0.00016620103
243	0x38dae49e	0.00010437633
244	0x38d5792b	0.00010179201
245	0x38cbd0f5	9.7187156e-05
246	0x3981ba60	0.00024743658
247	0x3926a4b9	0.00015892358
248	0x38a21c8b	7.7300785e-05
249	0x387bc284	6.002422e-05
250	0x38a6b8ee	7.949943e-05
251	0x38937ecc	7.033124e-05
252	0x39994822	0.00029236177
253	0x395b212e	0.00020897828
254	0x3a196cda	0.0005852707
255	0x39b68ef3	0.0003482025

exp_avg f4 [128, 32]
0	0x380e7166	3.396105e-05
1	0xb7e75bdc	-2.7580121e-05
2	0x380ec0dd	3.4035056e-05
3	0xb82a112b	-4.0547147e-05
4	0xb7f9ae2a	-2.9764215e-05
5	0xb7f1d329	-2.8827768e-05
6	0x380c716c	3.3484233e-05
7	0xb82f8ec0	-4.1856198e-05
8	0xb827d8f2	-4.001795e-05
9	0xb8178cd0	-3.6132347e-05
10	0x38076809	3.22834e-05
11	0x3812c1dd	3.498966e-05
12	0xb7ccebd1	-2.4428506e-05
13	0xb7f16e46	-2.8780789e-05
14	0x383aca94	4.453452e-05
15	0xb81dad3e	-3.759306e-05
16	0xb7fc8310	-3.0101772e-05
17	0xb80d551d	-3.3696288e-05
18	0xb80e9907	-3.3997956e-05
19	0x3866fee1	5.5073648e-05
20	0x380ad25f	3.3097687e-05
21	0xb84894cf	-4.7822305e-05
22	0xb84a09ce	-4.8169684e-05
23	0x3812709c	3.491399e-05
24	0x383e4302	4.5361936e-05
25	0xb81d4f09	-3.7505324e-05
26	0x382fd21d	4.1918935e-05
27	0xb7cb754b	-2.4254105e-05
28	0x37f8293d	2.9583107e-05
29	0xb852d94d	-5.027028e-05
30	0x37f6e801	2.943352e-05
31	0xb8007df2	-3.0634874e-05
32	0x38d78c0d	0.000102780854
33	0xb8af95a7	-8.372525e-05
34	0x38d80159	0.00010299934
35	0xb90063f1	-0.00012244262
36	0xb8bd556e	-9.028135e-05
37	0xb8b76a72	-8.745947e-05
38	0x38d491a0	0.000101360725
39	0xb9048291	-0.00012637141
40	0xb8fd5477	-0.00012079713
41	0xb8e510a9	-0.00010922674
42	0x38cd13d3	9.778854e-05
43	0x38ddf75a	0.00010584174
44	0xb89be902	-7.434377e-05
45	0xb8b7063c	-8.727281e-05
46	0x390cd1b4	0.00013429561
47	0xb8ee40fd	-0.000113608294
48	0xb8bf7fc6	-9.1313894e-05
49	0xb8d5f00e	-0.00010201345
50	0xb8d7c873	-0.000102893355
51	0x392dc7a0	0.00016572932
52	0x38d22e94	0.00010022256
53	0xb9172443	-0.0001441399
54	0xb9183230	-0.00014514546
55	0x38dd7f1b	0.000105617764
56	0x390f6c5b	0.00013677908
57	0xb8eda41d	-0.00011331609
58	0x3904a6d2	0.00012650646
59	0xb89ad420	-7.3828036e-05
60	0x38bc24a6	8.971365e-05
61	0xb91ec65a	-0.00015141946
62	0x38bb3bb0	8.9279725e-05
63	0xb8c2ac6d	-9.282758e-05
64	0x38aacd1e	8.144438e-05
65	0xb88b2bc5	-6.636189e-05
66	0x38ab29d7	8.161709e-05
67	0xb8cb7023	-9.7006814e-05
68	0xb8960e91	-7.1552706e-05
69	0xb8915eb7	-6.931781e-05
70	0x38a871a7	8.032034e-05
71	0xb8d1f6bb	-0.00010011854
72	0xb8c8b3b9	-9.570219e-05
73	0xb8b57e85	-8.654319e-05
74	0x38a284a2	7.749467e-05
75	0x38afe1c5	8.386703e-05
76	0xb87733f9	-5.8937792e-05
77	0xb8910f7b	-6.917022e-05
78	0x38df1b7c	0.00010638588
79	0xb8bcc58e	-9.001336e-05
80	0xb897c6b2	-7.237251e-05
81	0xb8a987cc	-8.083842e-05
82	0xb8aafd10	-8.153368e-05
83	0x3909a35f	0.00013126199
84	0x38a68e6e	7.9420264e-05
85	0xb8ef736f	-0.00011417909
86	0xb8f11d56	-0.0001149724
87	0x38af830b	8.369059e-05
88	0x38e33b1a	0.00010835212
89	0xb8bc4811	-8.977962e-05
90	0x38d22e21	0.000100221725
91	0xb8757e14	-5.852997e-05
92	0x38951c8f	7.110193e-05
93	0xb8fb875c	-0.00011993825
94	0x3894649c	7.07593e-05
95	0xb89a46e4	-7.356497e-05
96	0x3811d1d3	3.4766108e-05
97	0xb7ed13c9	-2.8261815e-05
98	0x3812227e	3.4841236e-05
99	0xb82df9a2	-4.1478903e-05
100	0xb7ffc885	-3.0491743e-05
101	0xb7f7c0bb	-2.9534442e-05
102	0x380fc84f	3.428041e-05
103	0xb83394fc	-4.2815678e-05
104	0xb82baf2d	-4.0932722e-05
105	0xb81b1584	-3.6974918e-05
106	0x380aa7e4	3.3058124e-05
107	0x3816367a	3.5813522e-05
108	0xb7d227de	-2.5052515e-05
109	0xb7f75094	-2.9482217e-05
110	0x383eff8b	4.5537523e-05
111	0xb82156e1	-3.8466304e-05
112	0xb80158ea	-3.0838804e-05
113	0xb810b2cd	-3.4498797e-05
114	0xb811fa7f	-3.4803987e-05
115	0x386c098a	5.627567e-05
116	0x380e231d	3.388814e-05
117	0xb84d110e	-4.8891692e-05
118	0xb84e894b	-4.924209e-05
119	0x3815e417	3.5736794e-05
120	0x38428a94	4.6382265e-05
121	0xb820f30c	-3.8373328e-05
122	0x3833d348	4.2873697e-05
123	0xb7d0ab4d	-2.48753e-05
124	0x37fe35d6	3.0304229e-05
125	0xb8578481	-5.13834e-05
126	0x37fcf177	3.0153182e-05
127	0xb80396e1	-3.137335e-05
128	0x38bbd19d	8.9558984e-05
129	0xb898be1e	-7.283337e-05
130	0x38bc3922	8.9751804e-05
131	0xb8e004bb	-0.000106820335
132	0xb8a4c698	-7.85712e-05
133	0xb89f9b80	-7.610675e-05
134	0x38b9333a	8.831029e-05
135	0xb8e73bb8	-0.00011026062
136	0xb8dd0f32	-0.000105409315
137	0xb8c7b85e	-9.5234005e-05
138	0x38b29cef	8.5169326e-05
139	0x38c17721	9.225147e-05
140	0xb887713e	-6.458395e-05
141	0xb89f5180	-7.5968914e-05
142	0x38f5e4bc	0.000117251155
143	0xb8cfc4d0	-9.907188e-05
144	0xb8a6a791	-7.9467085e-05
145	0xb8ba6206	-8.8874294e-05
146	0xb8bc060e	-8.965666e-05
147	0x3917e530	0.00014485861
148	0x38b716a4	8.730337e-05
149	0xb903fe71	-0.0001258792
150	0xb904ef36	-0.00012677614
151	0x38c10d93	9.2054855e-05
152	0x38fa73a8	0.000119424716
153	0xb8cf4264	-9.8828954e-05
154	0x38e78861	0.00011040341
155	0xb8867ce9	-6.412884e-05
156	0x38a3c221	7.808605e-05
157	0xb90ab554	-0.00013228256
158	0x38a2f264	7.769911e-05
159	0xb8a9846c	-8.0832135e-05
160	0x388b36e1	6.6382585e-05
161	0xb8620710	-5.3889176e-05
162	0x388b84c6	6.6527675e-05
163	0xb8a6427a	-7.927879e-05
164	0xb873f38e	-5.8162543e-05
165	0xb86c454b	-5.633132e-05
166	0x3889417a	6.544865e-05
167	0xb8aba1e8	-8.184073e-05
168	0xb8a419b3	-7.824916e-05
169	0xb89422c8	-7.0636685e-05
170	0x388452de	6.309686e-05
171	0x388f70e4	6.839799e-05
172	0xb8482254	-4.7715686e-05
173	0xb86be8a7	-5.624504e-05
174	0x38b6a498	8.709094e-05
175	0xb89a21a1	-7.349556e-05
176	0xb876b7ce	-5.8822152e-05
177	0xb88a1f99	-6.586238e-05
178	0xb88b5d94	-6.645467e-05
179	0x38e1ec28	0.000107728236
180	0x3887aa72	6.4690495e-05
181	0xb8c42355	-9.3525894e-05
182	0xb8c5919c	-9.420814e-05
183	0x388f217b	6.8250076e-05
184	0x38ba099e	8.8709625e-05
185	0xb899c6ae	-7.3326155e-05
186	0x38abe5fe	8.196755e-05
187	0xb846b353	-4.7373887e-05
188	0x38727943	5.781023e-05
189	0xb8ce31a8	-9.832095e-05
190	0x38713da5	5.751629e-05
191	0xb87b1eae	-5.9871636e-05
192	0x38e6852c	0.0001099206
193	0xb8bbb2f4	-8.9501875e-05
194	0x38e7030c	0.00011015506
195	0xb9095a42	-0.00013098962
196	0xb8ca6ba5	-9.652161e-05
197	0xb8c4165f	-9.350175e-05
198	0x38e353cf	0.00010839814
199	0xb90dc389	-0.0001351965
200	0xb90783a9	-0.0001292365
201	0xb8f50469	-0.00011683332
202	0x38db4bb2	0.00010456833
203	0x38ed66d0	0.00011320191
204	0xb8a69b87	-7.944466e-05
205	0xb8c3aee5	-9.330901e-05
206	0x3916addb	0.00014369881
207	0xb8fedb7c	-0.00012152546
208	0xb8ccbb94	-9.762417e-05
209	0xb8e4c9b4	-0.00010909457
210	0xb8e6c5b5	-0.000110040804
211	0x393a0106	0.00017738724
212	0x38e0c3a4	0.00010717593
213	0xb921bc65	-0.00015424339
214	0xb922def7	-0.00015532585
215	0x38ece5d4	0.00011296166
216	0x391977b8	0.00014635816
217	0xb8fe35b7	-0.00012121669
218	0x390dec8e	0.00013534931
219	0xb8a5725f	-7.8891164e-05
220	0x38c92757	9.5917545e-05
221	0xb929eb8e	-0.00016204847
222	0x38c82cae	9.5450654e-05
223	0xb8d02905	-9.9258534e-05
224	0x378779ab	1.614991e-05
225	0xb75be0ba	-1.310574e-05
226	0x3787c5b1	1.6185311e-05
227	0xb7a1d5e8	-1.9292303e-05
228	0xb76d5657	-1.4146403e-05
229	0xb765dbd9	-1.3700651e-05
230	0x378590d9	1.5922285e-05
231	0xb7a71190	-1.991613e-05
232	0xb79fbd82	-1.9042523e-05
233	0xb7902d45	-1.7187218e-05
234	0x3780c198	1.5348938e-05
235	0x378b9894	1.6641141e-05
236	0xb742a1c8	-1.1600969e-05
237	0xb7658474	-1.3680303e-05
238	0x37b1cfbc	2.1196778e-05
239	0xb7960450	-1.7883402e-05
240	0xb770066a	-1.4306608e-05
241	0xb786688a	-1.6022725e-05
242	0xb7879f4c	-1.6167432e-05
243	0x37dc0025	2.6226111e-05
244	0x37840383	1.5737261e-05
245	0xb7bef5e0	-2.276426e-05
246	0xb7c05c3d	-2.2931135e-05
247	0x378b4b02	1.660502e-05
248	0x37b51e42	2.1590971e-05
249	0xb795acf4	-1.7842722e-05
250	0x37a75610	1.9948027e-05
251	0xb7413bab	-1.1517589e-05
252	0x376be7ad	1.4061033e-05
253	0xb7c8c443	-2.393325e-05
254	0x376ab312	1.398918e-05
255	0xb774572c	-1.456383e-05
